a_current.pth (torch_old, 366423 bytes, 20 tensors)

layers.0.weight f4 [24]
00000000: 6a71 b13e 6647 7b3e a5c0 2e3e 2ea9 543e
00000010: 13e6 a83f 8472 563f 6240 3d3e 0acf 893e
00000020: 7875 5a3e 1b82 1b3e 91e3 783e 57a7 013e
00000030: c4f8 17bd 4742 d63e d98b da3d 4f73 343e
00000040: 6acf 1b3f 2060 133f 1511 d73d 10f2 3a3e
00000050: e141 8f3f 590a 423f 68a4 a83e 9c2f ab3e
0.3465684 0.24538955 0.17065676 0.20767662 1.3195213 0.83768487 0.18481591 0.2691577
0.21333873 0.1518635 0.2430556 0.12661491 -0.037102476 0.4184744 0.10671205 0.17622112
0.60863364 0.5756855 0.10501305 0.18256402 1.119198 0.7579704 0.32937932 0.3343476

layers.0.bias f4 [24]
00000000: 58a0 133e 69b5 5bbe b106 05bc 0d4d 32be
00000010: 0962 213e 3e96 093f f138 c7bd bd4b 983d
00000020: fe9a 4abe 5395 173e b7d8 4a3d 313f e03d
00000030: 3272 25bf b074 4a3e 9a38 e53c 18f8 84be
00000040: f34b 7e3e d990 9bbe b616 74be 6a92 16be
00000050: 0ee2 8d3c 0f40 d53e d4af 5d3d 0e66 19be
0.14416635 -0.21455921 -0.008119271 -0.17412205 0.15760054 0.53744876 -0.097276576 0.07436321
-0.19785687 0.14803056 0.04952308 0.10949553 -0.64627373 0.19771075 0.027981091 -0.2597053
0.2483366 -0.30383947 -0.23836789 -0.1470429 0.017319705 0.41650435 0.05412276 -0.14980337

layers.0.running_mean f4 [24]
00000000: d50e 92c0 dbe6 0bbf fec7 0041 3a4e 01be
00000010: 4beb 9f3d b8bb 0040 fec7 0041 3a4e 01be
00000020: a908 92c0 0692 0bbf 10d3 0441 631f cdbd
00000030: 2365 b23d e5d5 0040 10d3 0441 631f cdbd
00000040: 2e1e 92c0 21d9 09bf ed16 0041 8455 9bbd
00000050: fa72 bc3d 50ab 0040 ed16 0041 8455 9bbd
-4.5643106 -0.5464913 8.048826 -0.12627497 0.078085504 2.0114574 8.048826 -0.12627497
-4.563557 -0.5451969 8.301529 -0.10015752 0.087106965 2.013055 8.301529 -0.10015752
-4.566184 -0.5384694 8.005597 -0.0758467 0.092016175 2.010456 8.005597 -0.0758467

layers.0.running_var f4 [24]
00000000: e6c0 7a41 f69f 8c3f 0ded e743 3b3f 4b41
00000010: 7e47 e341 2841 1d40 0ded e743 3b3f 4b41
00000020: 09ce 7841 0969 8d3f 8eb1 e143 6937 4b41
00000030: 6225 e641 39f1 1b40 8eb1 e143 6937 4b41
00000040: fc5e 7241 f57d 8d3f 1467 e943 69dd 4b41
00000050: 3c64 e941 1987 1a40 1467 e943 69dd 4b41
15.672094 1.0986316 463.85196 12.702937 28.409908 2.4571018 463.85196 12.702937
15.550302 1.1047679 451.38715 12.701028 28.768253 2.436598 451.38715 12.701028
15.14819 1.1054064 466.8053 12.741555 29.173943 2.4144957 466.8053 12.741555

layers.1.weight f4 [256, 24]
00000000: c79b a8be a1bf 22be 7b45 0dbf fac2 b73e
00000010: a7c7 0abf 74a0 8bbe 50e5 84be b0d4 863d
00000020: 8705 77be f09a a23d de33 0d3e f0fd 013d
00000030: 100c 323b 7b74 9dbe e8ce fa3d e6a5 c63d
00000040: c8c2 d43d 14c1 b5bd 092f 4c3e ff44 053f
00000050: 137b f53e 1cc0 b13e 0685 073e 726c e63e
00000060: 5827 a5be fae1 d1bc d369 273e ff25 45bf
00000070: 926b 613e 1c43 f73b 4283 58be c16d 00bf
00000080: 6c02 8cbe fa4d 083e c3c2 49be c6b6 d6bc
00000090: f908 f9be 0871 1d3e f6fe 98bd 5a04 98be
000000a0: 39a2 a2bd c80f 063e e764 cbbe 69ee c13d
000000b0: 10ed 9bbe 8486 463f 656c 9c3c f143 8b3a
000000c0: d55f f93c 588a 47bd 7198 07bd 1011 dd3e
000000d0: 8375 193e 1f46 2abe 51fb d13d 467c a43d
000000e0: 4a6d f23e 4df1 34bf 29bb 27bc 95c0 2b3e
000000f0: 670e 343f 149c 753d daef 48be 70c1 dc3e
00000100: 0341 ec3d e388 40be 84d9 e63e 095b 6c3e
00000110: 7bec 6a3e dcd0 cf3e 2754 ab3d 3da8 6ebc
00000120: b172 31be 8d44 873d eda1 643e b85c 2d3e
00000130: f2b2 8ebf fea8 b6be f9af 8e3e f499 ecbd
00000140: 0af6 923e 8148 c43d 9db7 a23d 728f 113e
00000150: 1051 793e caca d83c a15b b6bd 9e29 183e
00000160: cac2 583d 8e0d 67bd e47a 4d3e 070b 903b
00000170: cc76 06bf 4357 bc3e 80f3 0b3d 0611 aa3c
00000180: c0c6 21be 11ec 883e 8a9b 333e 86c4 dc3e
00000190: 8a62 2c3f a665 91bd a6a3 cf3e 456a e53e
000001a0: 8983 9b3d 6417 063f 6ad1 5d3e 9ae2 8c3e
000001b0: 6923 5a3e 13bb ac3d a41d 993e 0d93 1f3d
000001c0: 5d82 7c3e b5ad 1f3f 0990 4a3e d3d2 2f3e
000001d0: 2775 7dbe 817f 4a3e 081f 4cbe c970 1f3e
000001e0: 4cf0 5fbe 3278 b13e e898 3bbe 627e e33e
000001f0: 8fda 793d 510e 12bd 2f99 01bd 45f8 a33e
00000200: 262a 1a3d 6ab5 31bd eb8b 26bd c9ab 783e
00000210: 123a a83e 2dd6 83bc 8bb9 8dbd 8ca2 093f
00000220: 2346 fb3d ef26 c03e 9c0e 083f 48cf 873e
00000230: 6b41 053d bc72 80be 4845 023f e6d7 963e
00000240: f059 303f afbc c53e f101 183f be6a 183c
00000250: 7153 53be a5c4 7f3c c8c3 433f 8ecc 063e
00000260: 4ec4 8c3e dfc9 683e eca6 fbbe 114e 62be
00000270: 1ce8 283e 8a95 633d 9de9 dcbe 7642 dabc
00000280: 737a 243e eee0 923d 70f8 cabe 309c 3a3e
00000290: 2134 e63e b27e 93be aa03 bebe b0a6 2cbe
000002a0: 2871 ea3b ec28 a83d b554 bd3e d0b4 c5bd
000002b0: 794e a33d 1744 d73e 3bca f73e ed00 2b3e
000002c0: 57c5 7fbe 37c0 333d 0ca9 823e 1cdc 8d3e
000002d0: aeb5 17be 4346 cabe 6f5b 5b3e 064f 313d
000002e0: 9c76 943b 16f5 dd3e 0a18 f8bc c82b cc3e
000002f0: 7a53 42be d1f0 87bf 3354 5e3e 7f8b 983e
00000300: 0386 c9be 85a5 d63d 2c38 a2be 98c6 fa3e
00000310: 4698 21bf 4f67 173e 959a ba3c 1b81 13bd
00000320: bcc7 3b3d d123 eebe 8e94 60bd 7727 0e3e
00000330: c7bd 373f 7d91 6a3d f149 1e3e ff71 793e
00000340: e07f f73d af9a 553d 00e3 dd3e b743 71be
00000350: cfc5 45be c7b5 2b3e a535 983e a922 61bd
00000360: 4d92 e23e ccb9 163e aebf c43e 2799 aa3e
00000370: 387b 003c 76b6 063f 2ba1 b93e 8bd0 cc3e
00000380: 2d8c ec3e ec35 97bd 46e6 7d3e 5f4d 193d
00000390: a8e1 133f 50e7 cb3e a9fd 253e 4057 a13e
000003a0: 2731 033e 8f7e 183e bf4b 9b3e 6f7d a43e
000003b0: 0194 b1be 9151 2dbe 7c65 4e3d e9d9 2b3e
000003c0: 0a46 a8bc 6e5f b73e b686 99be 7fb4 36be
000003d0: 82d5 aa3e e303 6c3c 78df b0be 0a42 df3c
000003e0: 8a2f 0bbe afb6 453f 9713 d73d 1fa6 abbd
000003f0: f1d8 733e f8c9 bb3e 40b0 bf3e 3fcb 54be
-0.3293135 -0.15893413 -0.55184144 0.35890943 -0.54210895 -0.27270854 -0.25956202 0.06583536
-0.24123202 0.07939708 0.13789317 0.031736314 0.0027167834 -0.3075293 0.122464955 0.09699611
0.10388714 -0.08874717 0.19939817 0.52058405 0.4794546 0.3471688 0.13234338 0.45004612
-0.3225658 -0.02562045 0.16348962 -0.770111 0.22013691 0.007545842 -0.21143821 -0.5016747
-0.27345598 0.13310996 -0.19703202 -0.0262102 -0.48639658 0.15375149 -0.07470505 -0.2969082
-0.07941098 0.13091958 -0.3972542 0.09469301 -0.30454302 0.77549005 0.019094655 0.0010625107
0.030441204 -0.04871592 -0.033104364 0.4317708 0.14986233 -0.16628312 0.10253013 0.08031516
0.47349006 -0.70680696 -0.010237494 0.16772683 0.70334476 0.0599633 -0.19622746 0.4311633
0.115358375 -0.18802218 0.45087826 0.23081602 0.22941773 0.40589035 0.0836566 -0.014566478
-0.17328908 0.06604872 0.22327395 0.169299 -1.114836 -0.35675806 0.2786863 -0.11552802
0.28703338 0.095841415 0.07945178 0.14214876 0.24347329 0.026463885 -0.089041956 0.14859626
0.05292014 -0.05640941 0.2006641 0.004395846 -0.5252502 0.36785325 0.034167767 0.02076007
-0.15798473 0.26742604 0.17539802 0.43118685 0.6733786 -0.07099466 0.4055454 0.4480764
0.07593448 0.5237944 0.21661916 0.27516633 0.2130257 0.08434119 0.29905427 0.038958598
0.24659105 0.6237443 0.19781508 0.17170267 -0.24751721 0.19775201 -0.19933712 0.15570368
-0.2186901 0.34662014 -0.18320048 0.4443236 0.06099945 -0.035658184 -0.031640228 0.32025352
0.037637852 -0.0433859 -0.04066078 0.24284281 0.32856804 -0.016093338 -0.06920155 0.5376365
0.12269237 0.37529704 0.5314729 0.2652533 0.03253309 -0.25087535 0.50886965 0.29461592
0.68887234 0.38620517 0.5937796 0.009302793 -0.20637299 0.015610849 0.76470613 0.13163969
0.2749352 0.22733258 -0.4915079 -0.22100092 0.16494793 0.055562533 -0.43146983 -0.02664302
0.16062336 0.07171808 -0.39642668 0.18223643 0.44961646 -0.28807598 -0.3711217 -0.16860461
0.0071546026 0.0821093 0.3697869 -0.09653628 0.07973952 0.42044136 0.48396477 0.16699572
-0.24977623 0.043884482 0.25519598 0.27706993 -0.14815399 -0.3950673 0.21421598 0.043288253
0.004530741 0.43351048 -0.0302849 0.39877152 -0.18977156 -1.0620366 0.21711807 0.29793927
-0.39360055 0.10480789 -0.3168348 0.4897964 -0.63122976 0.14785503 0.022778789 -0.036011796
0.04584478 -0.465117 -0.054829173 0.13882242 0.7177395 0.057267655 0.15457894 0.24359892
0.12084937 0.05214947 0.4333725 -0.23560987 -0.19313739 0.16768561 0.29728428 -0.054964695
0.44252244 0.14719313 0.3842749 0.3331997 0.007841878 0.52622163 0.36255774 0.40002856
0.46200696 -0.07383332 0.24794874 0.037427302 0.577662 0.39824915 0.16210045 0.3151188
0.12811719 0.14892028 0.30331227 0.32126948 -0.3468323 -0.16925646 0.05038975 0.16782345
-0.02054121 0.35814995 -0.2998559 -0.17842291 0.3336602 0.014405224 -0.34545493 0.02725317
-0.13592353 0.7723188 0.10501783 -0.083812945 0.23813225 0.36677527 0.37439156 -0.20780657

layers.1.bias f4 [256]
00000000: 0088 70be e40e f63e af02 12bf de9c 4c3e
00000010: d726 4dbd 5d1d cfbe af5d 5fbe 3f83 83bc
00000020: 4f4d d3be fab1 d8be 34c2 d2bd d272 793e
00000030: dc13 f1be 1a37 24be bc14 42bf 948a 7abe
00000040: a7c6 6abe 63e8 84be 4fc7 92be 2e9d 9fbe
00000050: 4cf4 d6be 7f61 a9be f09b 09bf 536e f7be
00000060: 72ca a8be 9af4 91be 43aa 08be 7236 b1be
00000070: 05e5 2bbe 719e 38be 7ee5 a9be 1544 01bf
00000080: 75dd 2ebe 3179 98be a3c6 28bf a6fd e2be
00000090: a4e5 023e ed83 1abf 62a3 6abe f42e a63d
000000a0: 61b4 edbe 5477 bdbe 9edb 60be 32c7 443e
000000b0: 5e33 babe 4414 a33e d1b3 bbbe 9338 ddbe
000000c0: b140 99be 7e94 babe 2b0e b2be 554d 15bb
000000d0: c68d 9abe e2d7 a0be f517 8abe 5f32 96be
000000e0: 4cf6 37bf 183f 5abf f279 c3be ac68 eabd
000000f0: 5d9d 00bf c9f0 07be 815a 9abe 2850 80be
00000100: 15b7 4dbe c064 e2bd fe08 e6bd 1c03 02bf
00000110: 701c 05bc 9b2f a6be 0f9f e2bd 797c 8cbe
00000120: 5c7c c8be d77f 7ebc 32e8 d7bd c8de 25bf
00000130: 9d54 e5be ea76 2cbe 425e 14bf 46c2 f2be
00000140: 34ca b2bd 9d3a 7bbe 3743 10bf 2904 3a3e
00000150: e758 bbbe 2aac 413e d0ce fe3d a382 8ebe
00000160: f264 a4be d073 b3bc 28cb cabe 9d61 04bf
00000170: 0649 babe 1d1c c13d bbf6 a3be 6655 85bc
00000180: f5a5 e3be 3c4d 71be db22 85bd 9b85 f0be
00000190: 2c1f 6fbc 08e9 d2bd b1f4 13bf 250b f03d
000001a0: 990e 98be 4b2c 01bf d869 60be 5571 f6bd
000001b0: 9955 813d c67a f8bd 13ed 02bf bef5 cbbe
000001c0: 950d 47be 5c9c c13d c551 1ebd 08df e4bd
000001d0: 47c2 21be c7ef e3be 6f65 8ebe 202d 78be
000001e0: d924 313e fdfa 5cbe c3ae 22bf f825 92be
000001f0: b4de 48bd 6fd7 a3be c018 76be 5c22 63be
00000200: 315a b8be 621a 25bf 88f0 16bf c5c6 0bbf
00000210: 9a0d 86be 7417 cebd 2750 cdbe 6859 233e
00000220: 92dc 0e3d baae d1be 300c 0abf d3d7 493e
00000230: 2a47 743d a1c9 84be d4b5 9cbd 626b bfbe
00000240: ea5d 79bd db49 a3be 6002 2bbf 0948 493e
00000250: 9f67 8ebd 0ec6 a5be e267 febe e1c3 8bbe
00000260: 3f7d 1ebe 0bac acbe 0cdd c1be 8a01 0bbf
00000270: 8a3d ccbe 7186 d0be f438 b9be 8ea9 a0be
00000280: 815f e1be 3278 2fbd 1c4e ecbc ecbf 26bd
00000290: 47a5 e5be 5a31 41be 7b79 85be 1c18 b0be
000002a0: 141a 2a3e 6c03 453b a2e1 c6be aad3 ebbe
000002b0: 4c54 dc3d 8a74 9bbe 25db f33d 1a37 95be
000002c0: 45dd eabe 9666 19be 6668 a9be 9a58 debe
000002d0: c1f1 01bf b0a8 3ebe 1d32 45be 4de7 89be
000002e0: fc14 1b3e b0dc 2bbe d614 24bf bea9 38be
000002f0: 6877 9e3e 30d9 843d 7fa3 dabe 61f5 a6be
00000300: d99f e7be 5636 93be 0181 a5be 02cd bdbe
00000310: f932 e03d d106 67be 91af 0bbe 27a8 fabe
00000320: 7e4e bfbe 4255 6f3d 6efc dd3d 8802 2ebf
00000330: b60f bfbd 4945 d4be 7906 90be d29d 09bf
00000340: d206 973b eed9 8cbe 4993 43be add5 adbe
00000350: 75b2 febd 9006 013e 9ceb f5be f6e3 b4be
00000360: d48e c3be 355a 17bf 3c77 ae3d 1738 903c
00000370: e65c 84be 2bfc d6be ea43 aabd 07ba aebe
00000380: 8650 b6be a2c8 a5be 1e2a 28bf 02d1 adbe
00000390: be3a f6be fe59 b4be ecf7 64be 0982 8cbe
000003a0: 91ad 2cbe 52cc 96be 4c05 0ebf 4e77 debe
000003b0: 0c17 a0be 0c79 69be 05b7 9cbe 0bb2 e7bd
000003c0: 9e62 e73e 3cff 9ebd 75f3 a63e 1176 e0be
000003d0: 35a2 0ebf 59cc aebe 0cf1 a0be ab49 55bd
000003e0: 1b1d 44bc 1994 32be 4c8f f7be 0e41 7ebe
000003f0: 89e4 3abe 5e11 ebbb 9779 adba e09a e8be
-0.2348938 0.48058236 -0.57035345 0.19981715 -0.05008587 -0.4045209 -0.21813081 -0.016053794
-0.4126992 -0.42323285 -0.102909476 0.24360207 -0.47085464 -0.16036645 -0.7581289 -0.24466926
-0.22927342 -0.25958547 -0.28667685 -0.31174606 -0.4198326 -0.33082196 -0.53753567 -0.48326358
-0.32966954 -0.2850693 -0.133462 -0.3461185 -0.16786583 -0.1802919 -0.331829 -0.5049451
-0.17076667 -0.29779962 -0.65928096 -0.44334143 0.12782913 -0.6035755 -0.22913888 0.08114424
-0.4642668 -0.37005103 -0.21958777 0.19216612 -0.36367315 0.318514 -0.36660627 -0.43207225
-0.29932168 -0.36441416 -0.34776434 -0.002278169 -0.3018629 -0.31414706 -0.26971403 -0.29335305
-0.71860194 -0.85252523 -0.38178974 -0.11445746 -0.5024012 -0.13275446 -0.30147174 -0.25061154
-0.20089372 -0.11054373 -0.11232184 -0.50785995 -0.008124456 -0.32458195 -0.11065494 -0.27438715
-0.3915738 -0.015533409 -0.105423346 -0.6479306 -0.44791117 -0.16842237 -0.57956326 -0.47413844
-0.087299734 -0.24534078 -0.5635256 0.1816565 -0.36591265 0.18913332 0.1244179 -0.27834043
-0.32108265 -0.02190581 -0.3960812 -0.51711446 -0.36383837 0.0942919 -0.32024178 -0.016276073
-0.44462553 -0.23564619 -0.06500789 -0.46976933 -0.014594834 -0.102983534 -0.57795244 0.11720876
-0.29698637 -0.5045821 -0.21915376 -0.12033335 0.063151546 -0.12132792 -0.51142997 -0.39835924
-0.19438775 0.09453651 -0.0386522 -0.11175352 -0.15796767 -0.44518873 -0.27811763 -0.24235964
0.17299213 -0.2158012 -0.63547915 -0.28544593 -0.04904051 -0.320003 -0.24032879 -0.22181076
-0.3600631 -0.6449338 -0.5896077 -0.54600173 -0.26182252 -0.10063067 -0.40100214 0.15952075
0.03487832 -0.40953618 -0.53924847 0.19711237 0.05963818 -0.2593508 -0.076518685 -0.37386614
-0.06088058 -0.31892285 -0.668005 0.19656385 -0.06953358 -0.32377666 -0.4968863 -0.2729788
-0.15477465 -0.33725008 -0.37863958 -0.54299223 -0.398907 -0.4072757 -0.36176264 -0.3137936
-0.44018176 -0.042839237 -0.02884584 -0.040710375 -0.4485266 -0.18866482 -0.26069245 -0.34393394
0.1661151 0.0030061854 -0.3884402 -0.46059924 0.10758266 -0.3036235 0.11907033 -0.29143602
-0.4587194 -0.1498054 -0.33087462 -0.43426973 -0.5075951 -0.18619037 -0.19257398 -0.2693428
0.15144724 -0.16783404 -0.64094293 -0.18033502 0.30950475 0.06486738 -0.42702863 -0.32609084
-0.45239142 -0.28752393 -0.32324985 -0.3707047 0.10947222 -0.22561194 -0.13641192 -0.48956415
-0.37364572 0.058430918 0.10839163 -0.6797261 -0.093291685 -0.4145911 -0.28129938 -0.5375644
0.0046089673 -0.27510017 -0.19099154 -0.33952084 -0.12436382 0.1260016 -0.48031318 -0.3533017
-0.38194907 -0.5912202 0.08518836 0.01760487 -0.25852126 -0.41989264 -0.08313735 -0.34126303
-0.3560831 -0.32379633 -0.65689266 -0.33948523 -0.48091692 -0.3522491 -0.223602 -0.2744296
-0.16863085 -0.2945276 -0.5547683 -0.43450397 -0.31267583 -0.22800082 -0.30608383 -0.11313256
0.45192426 -0.07763526 0.32607618 -0.43840078 -0.5571626 -0.3414028 -0.31433904 -0.05207221
-0.01196983 -0.17439307 -0.48351514 -0.24829504 -0.18251242 -0.007173701 -0.0013235089 -0.4543066

layers.3.weight f4 [256]
00000000: 73db ff3e 8bd0 093e 6624 2f3f f84a 713f
00000010: cb03 323f 4b65 163f 715a cf3e ebb2 783f
00000020: da83 0c3f 18ad bf3e 4b63 093f 7aad 45be
00000030: 4231 dc3e 5377 4f3f 4998 d53e e365 dd3e
00000040: 0030 303f fce2 8c3e 0174 413f 0f06 103e
00000050: d153 883e 4b1a ac3e 585d ec3e ff59 e13e
00000060: 4663 253f bf1e ec3e b50b 543f 6a8c 533f
00000070: b06e e53e c146 f73e fb34 f7bd c72e 423f
00000080: 2838 f53e 190c 7d3f 955d d43e 131e 163f
00000090: 1d46 9f3e 6462 453f 9b67 133f 1009 393e
000000a0: be38 5c3e a885 f2be 6ee1 363f 34e3 753e
000000b0: dcd1 2b3f 3892 be3e b339 1c3f bcf9 843e
000000c0: f126 3c3f 4ef1 e13e c639 303f 0aa8 1d3f
000000d0: e10c 023f 3aca 563f c09b d33e a122 6a3f
000000e0: 740f 283f ef46 013f 2461 b03e 0733 853f
000000f0: 321a e43e 937f 243c 4c11 ee3e 18af 483f
00000100: 8385 393f 0dda f8be 8184 173f b5e8 c53d
00000110: ebda 2a3f 2bba 563f 2649 5b3f 06a6 233f
00000120: 67e0 043f 2494 b73e c88a f1be 01b1 633f
00000130: e452 533f fecd 6f3f 60f9 b23e 0b83 423f
00000140: 18e2 713f 13ca 003f c459 e03e 2335 263d
00000150: 15e4 de3e e073 043e 34a6 823f c2c9 2f3f
00000160: de3d dfbe 1110 323f c7bd 9b3e 7071 e83e
00000170: 31e0 563e b539 353f f62e 323f f544 083f
00000180: 5a3a 583f c378 43be 458e 193f d48d b83e
00000190: ac9b 873f 77a4 e23e ea5f bd3e 1f59 8d3f
000001a0: 2cba 063f c96f f33e a265 103f 6850 113f
000001b0: 508f 1d3f d368 e03e 80a0 ea3e aae4 1cbf
000001c0: 9272 2a3f e4d3 c9bd 3c5a b73e 6388 ce3c
000001d0: db3d a3be 49f8 283f c245 a43e f0e6 1e3f
000001e0: f9de 103f bb9b 733f 1661 923e 9cdf f23e
000001f0: 5a67 503f f839 dc3e ef23 173f 76a8 e93e
00000200: c915 adbe f08c 4f3f 73f8 e63e 53e5 fa3e
00000210: fdad 503e 5e2e 0e3f 1698 273f a91a 753e
00000220: 08a0 bf3e 4b9e 1b3f 0cf1 8d3e 6f2b 823e
00000230: 09df ea3e 467a b73e 4fb9 89be 2b89 173f
00000240: 16f0 fe3e 1069 2f3f 1627 1d3f 7f6c 4dbe
00000250: fe7e a53e ffc8 bd3e 42e9 193f d835 2c3f
00000260: eebb bfbe e5f5 da3e b78f 083f 72e7 4a3f
00000270: c430 fe3e 168c 103f c591 f43e ded8 113f
00000280: 2ddd 013f 3589 8c3f 664e 1a3f b068 4e3f
00000290: e1c3 0f3f ba38 cb3e c819 be3e ad66 0e3f
000002a0: b4e7 123f 79bb 543f acb1 283f 4a9d 3c3f
000002b0: 28d1 393f ad89 753f 0ff4 1b3f fa02 acbe
000002c0: a655 9a3d 1723 ba3e a1d4 9d3e 18fd 283f
000002d0: 0cc2 8ebd 1d0e df3e d1f8 d13d 08ad 993f
000002e0: affa 403e f83e cc3e 5275 273f 4e45 223f
000002f0: a8e2 873f 062b d33d d157 8bbe cd2a 4c3f
00000300: 6877 c33e 9896 843f 30dd c33e 103a 703f
00000310: a75e 033f 8749 073f c636 833e d12f e03e
00000320: d370 2a3f 1b67 99bd 2b95 463e 71b4 bb3e
00000330: a92d f33e 86a9 d73e 83c7 0b3f 84e4 993e
00000340: ac6a cb3e b41c af3e 2836 c2bb 5135 813e
00000350: 6686 df3e 1829 3f3f 7736 1f3e 7c25 343f
00000360: 363f 493e 7cf7 5b3f c082 873e 59f5 c43e
00000370: 8653 2e3f e6c0 f33e 27ef 283f 7a8b 453f
00000380: 2830 573f fb27 533e d16d 193f 87d8 2b3f
00000390: 2c09 4e3e 9ee0 213f 024a 523f c342 133f
000003a0: b1c1 e13e 7142 de3e 8f82 6c3f f12f 18be
000003b0: e4dc 1e3f 404e 793f df73 073f 0d39 dbbd
000003c0: e96f c03f aaaf d23f d577 273f 0c01 e73e
000003d0: 5406 043f a403 42be 6518 663f da23 b0bd
000003e0: 0957 923f ba20 2dbe 37d8 333f 49c9 e63e
000003f0: 1a2b fd3e 59f4 423f 02b5 083f 0134 363f
0.49972114 0.13458459 0.68414915 0.9425502 0.6953704 0.5874831 0.4049869 0.9714801
0.5488869 0.37436748 0.53667134 -0.19304457 0.4300633 0.8104145 0.41717747 0.43241796
0.6882324 0.27516925 0.7556763 0.14064811 0.26626447 0.3361381 0.46164966 0.44013974
0.64604604 0.46117207 0.82830364 0.8263613 0.4481101 0.48296168 -0.12070652 0.75852627
0.47894406 0.98846585 0.41477647 0.5863964 0.3110818 0.7710326 0.57579964 0.18069863
0.2150602 -0.47367597 0.7143773 0.24012452 0.67117095 0.3722093 0.6102554 0.25971782
0.7349692 0.44129413 0.68838155 0.6158453 0.508009 0.83902323 0.41329765 0.9145909
0.6564858 0.5049886 0.34449112 1.0406197 0.44551235 0.010040182 0.4649757 0.7839217
0.7246935 -0.4860386 0.5918656 0.09663526 0.6674029 0.8387782 0.8565849 0.63925207
0.5190491 0.3585521 -0.47176194 0.8894196 0.82548356 0.93673694 0.34955883 0.75981206
0.94485617 0.5030834 0.43818486 0.04057802 0.43533388 0.12934828 1.0206971 0.68667233
-0.43601888 0.69555765 0.30418226 0.45399046 0.2098396 0.7079118 0.69602907 0.5323022
0.8446404 -0.19089036 0.5998271 0.36045706 1.0594382 0.44266102 0.3698724 1.1042823
0.52627826 0.47546223 0.5640508 0.56763315 0.615468 0.43829975 0.45825577 -0.61286414
0.6658107 -0.09854868 0.3581103 0.025211519 -0.3188313 0.66003853 0.3208447 0.6207113
0.5659023 0.951595 0.28589696 0.47436225 0.814077 0.43012977 0.59039205 0.45636338
-0.33805683 0.8107443 0.45111427 0.49003085 0.20378871 0.555395 0.6546644 0.23935951
0.37426782 0.6078841 0.27722967 0.25423762 0.45873287 0.35835475 -0.26899192 0.59193677
0.49792546 0.6851969 0.61387765 -0.20060919 0.3232345 0.3706741 0.6012155 0.6726966
-0.37448066 0.42765728 0.5334429 0.7925941 0.4964658 0.56463754 0.47767463 0.5697154
0.5072811 1.0979372 0.60275877 0.8062849 0.5615826 0.39691716 0.37129045 0.5562542
0.573848 0.8309856 0.65896106 0.73677504 0.7258477 0.959132 0.6091928 -0.3359602
0.075358674 0.36354896 0.30826285 0.6601119 -0.06970605 0.43565455 0.10252536 1.200593
0.18845628 0.3989179 0.6541339 0.63387 1.0616045 0.103109404 -0.27215436 0.7975281
0.38177037 1.0358458 0.3825469 0.93838596 0.51316303 0.5284657 0.25627726 0.4378648
0.66578406 -0.07490369 0.1939284 0.36661103 0.47495773 0.42121524 0.54601306 0.30057156
0.39729822 0.34201586 -0.005926866 0.2523599 0.43657225 0.7467208 0.1554812 0.70369697
0.1965302 0.85924506 0.26466942 0.38468435 0.68096197 0.47608107 0.6598992 0.7716595
0.84057856 0.2062072 0.5993319 0.6712727 0.20120686 0.63233364 0.82144177 0.57523745
0.44093087 0.43410066 0.92386717 -0.14862038 0.620558 0.97385025 0.5291118 -0.10704241
1.5034152 1.6459858 0.65417224 0.45117986 0.51572156 -0.18946701 0.89880973 -0.08600588
1.1432811 -0.16907015 0.7025179 0.45075443 0.49446946 0.76154095 0.53401196 0.711731

layers.3.bias f4 [256]
00000000: fe43 363e 41c3 843e 13da 703e 4274 3c3e
00000010: 329a eb3d cb30 093e 57f9 98bd 94ce 31be
00000020: f923 253e 06af f83e 89e9 a83e fd30 0f3f
00000030: acb8 f63d 981d b93e 37d6 be3d 9dd8 b13d
00000040: 8c87 853e 6047 443f 70b2 a33c eeef 073c
00000050: a09a cb3e 5de3 0e3d cc88 0b3f 298b dc3c
00000060: ef8b c63d 828f 653e 5e1a 763e 7500 ff3e
00000070: 042c 543e 6b58 d43d db21 733d 282d 7f3d
00000080: d48f d83e ece6 e83e 5c8a 27be 2fd1 f53e
00000090: 7747 1b3d 584e 963e 7070 afbd c184 4b3e
000000a0: 1427 7f3e 8bfc a73e d6cf 653e 09b4 113f
000000b0: d9b1 cf3d 1d48 593e 2373 8e3e d797 55bd
000000c0: 0168 0c3f 025f ae3e 0403 a73e 1693 903e
000000d0: 7e33 213e dd18 d1bd dc35 29bc 13bf c13e
000000e0: c391 a0b8 4c00 cf3d 666d 7c3e b5bb e33e
000000f0: eda4 803e 9c57 813f 30b8 80be 8052 1d3f
00000100: 9a83 173c adfa 09bd 4aab fd3e f7b9 a43d
00000110: 2ab0 643e 1cbd f2bd 564c 30bd 85d7 913e
00000120: 50cd 1f3e fc33 413d 4d72 0dbd 89d8 acbd
00000130: 9b3d d33e b305 4ebe d6b0 a83e de02 943d
00000140: 7e2d a53e 824d 873e 40d5 cb3c e6ad 0e3d
00000150: 4d48 e93e da4f f8be dc26 35be 7892 0cbe
00000160: 911f 8cbe 1266 3d3e f0f2 5d3e 4be5 9d3d
00000170: 9f49 acbd a931 cc3d ecff 8d3c b3ad 9b3d
00000180: 14e0 9b3e cfd9 e3be c87a eb3d 3ce6 91bd
00000190: 7809 de3e e52d 68bd ff3d 693f 532b 3f3e
000001a0: 3aab dd3e 4432 2ebe aa25 1f3f 1d92 2d3e
000001b0: e586 7e3e b229 8d3e 277f 543f 7cd9 babe
000001c0: 0c91 e5bb 0056 683f ee62 95bd d11d 47bd
000001d0: fbad 61bf eca0 8a3e 0e83 c4bc 3a29 913e
000001e0: 7488 7b3e d90c b43e bd90 513d 7dc1 13be
000001f0: 4f76 c83d 48bc b93c 9c0d 03be ebc2 ca3e
00000200: e775 4a3f 920f 173e feeb b5bd 50a1 303e
00000210: e537 383d 8d03 b93e fe58 053f a8d9 5e3e
00000220: 0be3 853e 00f6 033e 6719 4fbe 99f8 863d
00000230: 3bbd e53e 074e f8bd 6b3e 99be aaee ad3d
00000240: b3d1 a63e 38b3 a33e cd79 16bd 62e4 99bd
00000250: 3158 913d db49 ad3e 27b5 893e 366b 973e
00000260: 935b c2be e372 883d 57db 693e 6e38 973e
00000270: 61e7 0a3e d291 cc3e 9c16 933e 18ee b53d
00000280: fdb5 853b 8fd0 763e 805e 023e c323 813e
00000290: 240a 91bc 34a3 db3e ccc8 043f 415b 133f
000002a0: 1fee 6d3e 6ef0 063d baa3 293e 2b2b 823d
000002b0: 599d 533d ffdd e73d 4bff 923e 7fa3 14bf
000002c0: d0ef 96bc ba6e 3e3d f7da f13e 5a60 073d
000002d0: a9ac 4c3d 0c49 423e d43f 593f ca7c 0c3e
000002e0: 0d7f 57be 6cfe a33d e86a d23d a461 463e
000002f0: 793d aa3e b06f e33c a6ea e83e 1dd4 8c3e
00000300: 77cb 0a3e b8ef 003f e2cb a13e 2450 913d
00000310: 4c97 b93e 7f8e e43d 33e1 4b3e 1fc4 c73e
00000320: 8d5c d63e eccd 3b3e 1870 1d3e 8cde eb3d
00000330: b762 a43e 30a0 943e 319b 5d3b c5aa a23e
00000340: 865d c13e 7fef f83e 325e bc3e e50d 053e
00000350: 29aa 97bd 2781 d33e dd74 3d3a 72da 813e
00000360: 9758 e33c 67b8 f43c bef6 e43e e77e 823f
00000370: 3ac8 953e 99a5 053f c050 603d 86d1 1d3e
00000380: 991a 6cbe ed20 66bd 1289 2f3e 56ce 6b3d
00000390: 4747 5a3f 11d5 ae3e e6dd c23e c9cc a6be
000003a0: 2257 413e 504a 203e 91bb b3bb 451d b9be
000003b0: 7c20 a93e 8e9d d73e 04f9 f13e 9959 fd3e
000003c0: 222e 033d b533 7c3e cf1b ba3e bc04 64be
000003d0: 285f e0bd 9d94 9bbd 6393 0e3f 11d3 1e3e
000003e0: 9e84 ad3e 2049 263f 4755 2d3f 9f37 10be
000003f0: feae 0e3e 6497 623e 2de7 de3e 9f7f 093f
0.17799374 0.25930217 0.23520689 0.18403724 0.1150402 0.1339752 -0.07469433 -0.1736396
0.16127004 0.48571032 0.32990673 0.55934125 0.12046942 0.3615539 0.09318202 0.08683894
0.26079977 0.7667141 0.019982547 0.00829695 0.39766407 0.0348848 0.5450561 0.026921825
0.09694659 0.22418025 0.24033496 0.49805036 0.20719916 0.10368427 0.05935846 0.062298924
0.42297232 0.4548868 -0.16361374 0.48011157 0.03790995 0.29356647 -0.085663676 0.1987486
0.24917251 0.32809862 0.22442564 0.56915337 0.101413436 0.21218915 0.27822217 -0.05214676
0.548462 0.3405686 0.32619488 0.28237218 0.15742299 -0.102098204 -0.0103277825 0.3784109
-7.656545e-05 0.101074785 0.24651107 0.44479147 0.25125828 1.0104861 -0.25140524 0.6145401
0.009247685 -0.03368633 0.49544746 0.080432825 0.22332826 -0.11852476 -0.04304155 0.2848474
0.15605664 0.047168717 -0.034532834 -0.08439738 0.4125794 -0.20119362 0.32947415 0.072271094
0.3226127 0.2642632 0.024881959 0.03483381 0.45562974 -0.48498422 -0.17690605 -0.13727748
-0.27367833 0.18495968 0.21674705 0.0770975 -0.084124796 0.099704094 0.017333947 0.0760149
0.30444396 -0.44502112 0.11498028 -0.07123992 0.433666 -0.056684393 0.91110224 0.1866887
0.43294698 -0.17011362 0.62166846 0.16950269 0.24856146 0.27570873 0.8300652 -0.36494052
-0.0070058163 0.90756226 -0.0729426 -0.04861242 -0.881561 0.270759 -0.023988273 0.28351766
0.24563771 0.35166052 0.051163424 -0.14429279 0.097881906 0.022672787 -0.1279816 0.39601836
0.79086155 0.14752033 -0.088829026 0.17249036 0.04497518 0.36135522 0.52088916 0.21762717
0.26149783 0.1288681 -0.20224534 0.06590385 0.44870934 -0.121242575 -0.29930434 0.08492787
0.32581863 0.3197267 -0.036737252 -0.07514264 0.07096899 0.3384541 0.2689602 0.29573983
-0.3796049 0.06662538 0.22837578 0.2953524 0.13564827 0.39955002 0.28728187 0.088833034
0.0040805326 0.24102996 0.12731361 0.25222597 -0.01770503 0.42897952 0.5186889 0.5756112
0.23235367 0.032944135 0.16566363 0.0635589 0.05166373 0.11321639 0.28710398 -0.58061975
-0.018424898 0.046492316 0.4723737 0.033050872 0.04996935 0.18973178 0.8486302 0.13719478
-0.2104456 0.080075115 0.10274297 0.19373184 0.33250025 0.027763218 0.45491523 0.2750558
0.13554178 0.5036578 0.31600863 0.07095364 0.36248243 0.111599915 0.19910125 0.39016816
0.41867486 0.18340272 0.15374792 0.11517057 0.32106563 0.29028463 0.0033814425 0.31770912
0.37766665 0.4862022 0.36790615 0.12993582 -0.07405502 0.41309473 0.0007227192 0.25361973
0.027752204 0.029873086 0.447195 1.0194978 0.29254323 0.52205807 0.05476451 0.15411958
-0.23057021 -0.056183744 0.17142132 0.057569824 0.8526501 0.34146932 0.3805992 -0.32578114
0.18880895 0.15653348 -0.005485006 -0.36155143 0.33032596 0.42112392 0.47260296 0.4948242
0.032026418 0.246291 0.3634934 -0.22267431 -0.109556496 -0.07596705 0.55693644 0.15510203
0.3389024 0.6495533 0.6770825 -0.14083718 0.13933942 0.22128063 0.43535748 0.5371036

layers.3.running_mean f4 [256]
00000000: cee2 cf3d a88d b63f 7b1a 8139 85f0 383f
00000010: 8ab4 9b3e 8135 123c 3cd7 7c3d 9815 313e
00000020: 6fe3 913d a4c6 543d 644c 103f 01cf 1a3f
00000030: 7032 273c f295 b23e 3334 d238 19f5 063e
00000040: d3aa 6b3d ddfc 713e 0400 0000 bd7d 053e
00000050: 0400 0000 ec82 e439 0d97 0f3d 1f82 823d
00000060: dcf0 533d 204e fc3d 803f 783e a639 163d
00000070: 6682 c53d 77a2 8d3d f271 7f3b 7bc1 163b
00000080: 5748 813e 4b07 933e 17eb 9838 c3fa 6b3d
00000090: d954 d43e 0400 0000 5a70 ab3d 5732 383f
000000a0: 0400 0000 93d5 fc3c cb2f a23e 104f bf3e
000000b0: 357f 223e eba1 fb3e 816f 603c 0400 0000
000000c0: 6858 bc3d 48e7 553e 5956 3f3e 60e4 263f
000000d0: 0eb6 a83c b349 783e 92c7 933c a9e9 a33d
000000e0: 3ae2 133d 0400 0000 0de9 ce3c 0d08 053f
000000f0: c09c 1530 fe9c 2f3e 7bdd 4b3e 6090 dc3e
00000100: 8571 e03e d136 b93d c1a8 5c3f 7467 0100
00000110: 5d32 df3e 39c2 cb3d c393 cb3d a193 bb3b
00000120: dd71 c03c ddc3 073e d22a ce3b 0400 0000
00000130: ad7f 913e 5c82 223d b92a bd3c 0400 0000
00000140: 4563 113d 2534 db3d ad6c 153b 5381 113f
00000150: a835 a23d e3a8 3e3f 014c 213e e937 b83d
00000160: 58de f838 34e5 e53e 0400 0000 0400 0000
00000170: 81d9 b13b 0f3d fc3e d6b2 993e 08e1 1a3f
00000180: 95cb 863e c5fa d43d a038 173e 0400 0000
00000190: 40fa 6e3e 302b 313d e363 be23 87fc 943e
000001a0: 5747 8b3e e501 153d 1bb7 e33c ba10 d53d
000001b0: 2289 173f 6be9 5d3e b986 d43b 725c 963d
000001c0: 16a3 923c a973 1f3e 409e 903e e76d 343e
000001d0: 1cd2 4b3e 744c b63e 0400 0000 1a37 b13e
000001e0: 3d5c 643f ac36 a23e c654 c839 9f1d 7c3d
000001f0: f931 fc3d 80e8 8b3e 5dee 7b3e 5274 0b3e
00000200: 4b2d 013c 9b3e 933c 29c3 323d 555d a33c
00000210: 0400 0000 2e3e 063e 979f 823d 4362 bf3e
00000220: f276 9e3e 680e cb3d 26b2 8d35 e502 8f3e
00000230: 491e 2a3f 1614 083e 4dcc 773e e9c5 a33c
00000240: a8fe fb3e 8be3 c93c 0400 0000 fbba f03e
00000250: cc9c e83e 0603 193d 4bcc 043d 6f93 9b3e
00000260: aa44 b73c a765 2f3c ff78 5c3d ee4c ee3c
00000270: 505c 6c3a 091a e83d 5e09 953b d377 843e
00000280: 50e1 6a3c 23e4 733e 24ac 353e a0ba ce3e
00000290: 0400 0000 868b 023d 6390 513e 53cc d93d
000002a0: e363 2d3f c52f e93d b281 e63c 3389 da36
000002b0: 4128 a73e abd0 303d 97f2 f53e 91c1 443c
000002c0: 0400 0000 5184 583e ae21 4c3d 31c9 cb3a
000002d0: bc11 553c 4eb6 1c3e 2c5c 4f3d 8c5e fd3d
000002e0: c0fd 423f e6cc 193f 0400 0000 56de 563e
000002f0: 35fd 403f d294 053f 6e98 813c cf17 2a3f
00000300: 1d63 473b 8d9f 083d 20a9 7d3d 2fc3 373e
00000310: a1ee 4e3e b070 4a3e c031 a93e da95 013d
00000320: a137 703e 17e6 1b3f 0310 8a3e 0400 0000
00000330: 4f33 7e3d f2a2 3b3d fd64 9a3d 0400 0000
00000340: bfed f33e 94cd 4a3d 8e41 b13e 719d 293e
00000350: 5076 483c 0725 fc3e 0400 0000 c293 da3d
00000360: 0400 0000 3fba 0139 8361 103f f730 1c3f
00000370: f6d7 1e3d be57 b03c 5a3a 0d3e d03c 793d
00000380: 5012 5b3e 7b17 413e a5df f13c 3029 ba3d
00000390: 0400 0000 e5db 003d 6619 a83d 1f64 4d3d
000003a0: 57e8 473e d6df 093e 0400 0000 aadc 633b
000003b0: 680f 173e 2b09 fd3d 85f5 4c3e 2f01 4c3e
000003c0: 1181 2a3f 1aed 753e 01a5 253f 7ae8 663c
000003d0: a963 ce3c 0400 0000 dc37 aa3d a964 413e
000003e0: d054 853e 7a91 e13e 6743 bb3c cad4 e13d
000003f0: 785a f43d 3fb7 bb3e 6c2c 5e3f 72bc 0c3e
0.101506814 1.426198 0.00024624527 0.72242004 0.30411178 0.008923889 0.0617287 0.17293394
0.07123458 0.05194725 0.5636656 0.6047211 0.010204896 0.34880024 0.00010023303 0.13179435
0.057535958 0.23631616 6e-45 0.13036247 6e-45 0.00043585093 0.035056163 0.06372475
0.051743373 0.12319589 0.24242973 0.03667607 0.09644012 0.06915753 0.0038977829 0.0023003507
0.25250503 0.28716502 7.291714e-05 0.057612192 0.41470984 6e-45 0.08371039 0.7195181
6e-45 0.030863559 0.31677088 0.37365007 0.15868838 0.4914697 0.01369846 6e-45
0.0919655 0.20889008 0.18685283 0.6519222 0.020594623 0.24246864 0.018039498 0.080035515
0.03610442 6e-45 0.025257612 0.5196541 5.442864e-10 0.17149732 0.19908707 0.430789
0.4383661 0.090436585 0.86195 1.28947e-40 0.43593112 0.099491544 0.09940293 0.005724386
0.023491794 0.1325831 0.0062917257 6e-45 0.2841772 0.0396751 0.02309166 6e-45
0.03549506 0.10703305 0.0022800372 0.5683796 0.0792039 0.7447645 0.1575165 0.08995039
0.00011866976 0.4490143 6e-45 6e-45 0.00542754 0.49265334 0.30019253 0.6049962
0.26327196 0.10399393 0.14767694 6e-45 0.2333765 0.043254077 2.0642145e-17 0.29098913
0.27202865 0.03637876 0.027797272 0.10403581 0.59193623 0.21671073 0.0064857868 0.07341851
0.017900031 0.15571465 0.28245735 0.1762005 0.19904369 0.35605204 6e-45 0.34612352
0.89203244 0.31682336 0.00038210134 0.061551686 0.12314219 0.2732582 0.24602647 0.13618591
0.007884334 0.017974189 0.04364315 0.019941965 6e-45 0.13109657 0.063780956 0.37379655
0.30950123 0.09914857 1.0557167e-06 0.27931896 0.6645246 0.13288912 0.24199028 0.019991832
0.49217725 0.024644634 6e-45 0.47017655 0.45432127 0.0373564 0.03242139 0.3038592
0.022371609 0.010705388 0.05382633 0.029089417 0.0009016441 0.11333091 0.004548236 0.2587267
0.014335945 0.23817496 0.17741448 0.4037676 6e-45 0.03187134 0.20465235 0.10634675
0.6773054 0.113860644 0.028138015 6.5128784e-06 0.326479 0.04316775 0.48036644 0.01200904
6e-45 0.21144225 0.049836807 0.0015547631 0.0130047165 0.15303919 0.05062501 0.12371549
0.7616844 0.60078275 6e-45 0.20983252 0.75386363 0.52180207 0.015819754 0.6644258
0.0030424066 0.033355284 0.06192887 0.1794555 0.20208217 0.1976955 0.3304577 0.03163705
0.2345872 0.60897964 0.2696534 6e-45 0.06206065 0.045809694 0.07538793 6e-45
0.47642323 0.04951246 0.34620327 0.16563965 0.012235239 0.49247 6e-45 0.10672714
6e-45 0.00012371781 0.5639879 0.61012214 0.038780175 0.021526214 0.1379179 0.06084901
0.21393704 0.18856613 0.029525587 0.09089887 6e-45 0.031459708 0.08207969 0.05014431
0.19522224 0.13464293 6e-45 0.0034768977 0.14751971 0.12355264 0.20015533 0.19922327
0.6660319 0.24016228 0.647049 0.014093513 0.025194006 6e-45 0.083114356 0.18886055
0.2604127 0.44056302 0.022859288 0.110269144 0.11931318 0.36663243 0.8678653 0.13743761

layers.3.running_var f4 [256]
00000000: 1226 9f3d 2573 0a3f f26d 1f38 bd14 8a3f
00000010: b575 7a3e 439a 1d3b 33f9 163d 6563 043e
00000020: 1526 253d 3106 c53c 19a5 c03e 63b3 a13e
00000030: 3388 3b3b 76bc 6b3e 417b 4137 4b0e dc3d
00000040: fb96 a53c 0b37 543e 0400 0000 cd04 d13d
00000050: 0400 0000 b838 8738 b1e7 3c3c 5197 053d
00000060: 3cd2 b73c 805e 8d3d e708 3b3e 5503 df3c
00000070: 6191 943d 839a df3c 5967 a03a b2cc 833a
00000080: e5e6 803e 4c62 223e 470a 0c38 7cde c73c
00000090: 8b90 013e 0400 0000 5c12 783d 2bfa de3e
000000a0: 0400 0000 b434 513c c607 0f3e 78d5 9f3e
000000b0: d6e8 963d bd70 773e a81a e03b 0400 0000
000000c0: 6616 243d 7d8e 073e 9b5c 5f3e ea93 593f
000000d0: 1739 9a3b a836 5f3e 7bc8 8b3b e9d3 8a3d
000000e0: 0db1 693c 0400 0000 84be 053c 4921 103f
000000f0: 2e03 f72e b780 963d d73f f43d 5e6e a73e
00000100: 029a 7b3e 2a78 3d3d f882 193f 2d04 0000
00000110: 7e41 8f3e db02 8c3d 6729 823d ecb9 c63a
00000120: 24e9 423c 5846 8c3d b7cc f03a 0400 0000
00000130: c1e2 2d3e b730 b03c b9d7 073c 0400 0000
00000140: e8c0 1e3c 398f 823d a1ab 273a 0282 253f
00000150: e419 db3c b676 dd3e 90f7 a83d 542e 723d
00000160: b7fe 5437 e6d6 d53e 0400 0000 0400 0000
00000170: 85ca 023b d815 4c3e 4f74 7c3e 07c4 de3e
00000180: df4a 733e 9955 8a3d 5df2 7d3d 0400 0000
00000190: a378 0b3e 7225 a63c 687e a520 d84f 343e
000001a0: 1406 383e 7fef a13c 368b f23b 8ccb 7b3d
000001b0: 3815 dc3e f8e7 be3d c0a2 cb3a 1152 363d
000001c0: 33e9 8e3b 8252 ca3d 2bd2 2f3e aa10 133e
000001d0: 0127 1c3e 5069 663e 0400 0000 2fb3 5f3e
000001e0: 800a 183f 8931 273e ba94 f238 bbb1 183d
000001f0: 8b8f 813d 4a73 e53d 7390 773e 4bab af3d
00000200: ea39 4e3b 9486 b13b 38d4 8a3c b18d 093c
00000210: 0400 0000 5f40 783d 0109 363d a62b b33e
00000220: 8298 2d3e c26c 9b3d 0e7a e934 2441 353e
00000230: 4d8e 993e 6092 7d3d b5f6 fc3d 93e7 b03b
00000240: 860c 863e c779 e63b 0400 0000 09dc 663e
00000250: 721e ab3e d7da 963c f596 7b3c 1330 4d3e
00000260: 7b16 3f3c 0e17 803b 44d7 8d3c 531a 303c
00000270: dae1 0e39 4d1b aa3d 543e 723a 39b5 793e
00000280: 5b7f 103c 6f1d ec3d 5914 e83d 7a1b 773e
00000290: 0400 0000 ffe5 333c 24cc cc3d b7a4 803d
000002a0: d4f3 953e 21d2 eb3c f92c 1e3c 3c83 f935
000002b0: ae45 a83d 95f9 133c f4ca d13e 8e19 893b
000002c0: 0400 0000 1178 243e 2d52 c23c 9a25 083a
000002d0: ccae 963b 6526 c53d 40de ea3c 5b65 893d
000002e0: 0a2c af3e 3f8e ef3e 0400 0000 43a1 bb3d
000002f0: e828 3c3e 87b3 953e 8cdb 6c3b 7550 453f
00000300: 02a6 773a 98aa 5d3c 3873 1f3d b830 a43d
00000310: 2dee fa3d c288 ee3d da11 8e3e 96e4 7d3c
00000320: 71bc 0b3e 21d0 643e 0846 343e 0400 0000
00000330: 1460 d73c 4b2e 8f3c 6801 1a3d 0400 0000
00000340: 9bef 933e 74f1 bb3c 405b c93e cd6b a93d
00000350: c3d1 523b 5ecd 543e 0400 0000 eef6 b23d
00000360: 0400 0000 070d 0138 b317 d83e 2468 ad3e
00000370: 6863 8d3c 8efd c83b 26b9 a83d 807c ec3c
00000380: d9c2 be3d 07b6 e53d fb42 ae3c b8c5 ad3d
00000390: 0400 0000 297e 843c 4715 173d 3aa1 fd3c
000003a0: d4a8 023e 480d 533d 0400 0000 07eb be3a
000003b0: f341 bb3d a121 763d 1def 073e fd74 7a3e
000003c0: ab85 103e 0d8c 2a3d 3abd 053e 4040 b73b
000003d0: 69f3 0a3c 0400 0000 6f06 023d 5e04 0f3e
000003e0: 03ec d23d a890 8d3e ba91 7a3c 6b0d df3d
000003f0: d6a8 b43d d105 ec3e 3153 ee3e 5e7b bb3d
0.07770933 0.54081947 3.801095e-05 1.0787579 0.24458964 0.0024048246 0.03685875 0.12928541
0.04031952 0.024050804 0.3762596 0.31582174 0.0028615117 0.23021111 1.1532394e-05 0.10744914
0.020213595 0.20724122 6e-45 0.10205994 6e-45 6.447866e-05 0.011529849 0.03261501
0.022439115 0.0690279 0.18265115 0.027223269 0.07254291 0.027295357 0.0012237831 0.0010055511
0.2517616 0.1585781 3.3388173e-05 0.024398081 0.12652795 6e-45 0.060564384 0.43550238
6e-45 0.012768913 0.13967809 0.3121755 0.07368629 0.241641 0.006839115 6e-45
0.040060423 0.13237949 0.2181267 0.84991324 0.0047065127 0.21798193 0.0042658425 0.067787
0.014263404 6e-45 0.008163098 0.5630079 1.12328244e-10 0.07348769 0.11926239 0.3270139
0.24570468 0.046257176 0.5996547 1.498e-42 0.27979654 0.06836482 0.06355553 0.001516161
0.011896405 0.068493545 0.0018371557 6e-45 0.16981031 0.021507604 0.008291178 6e-45
0.009689547 0.06374974 0.0006396119 0.646515 0.026745744 0.43254632 0.08250344 0.059126213
1.269549e-05 0.41765517 6e-45 6e-45 0.0019957137 0.19930208 0.24653743 0.43508932
0.2375903 0.06754608 0.061998714 6e-45 0.13620238 0.020281527 2.8035736e-19 0.17608583
0.17971069 0.019767521 0.007401849 0.061473414 0.4298494 0.09321588 0.0015536174 0.04451186
0.0043612956 0.09879018 0.17170016 0.14361826 0.15249254 0.22501111 6e-45 0.21845697
0.5939102 0.1632749 0.00011567162 0.037278872 0.06326207 0.1120363 0.24176197 0.085775934
0.0031467625 0.0054176543 0.016946897 0.008395598 6e-45 0.060608264 0.04444218 0.3499424
0.16952708 0.07589103 4.3488438e-07 0.1770063 0.2999138 0.061907172 0.12351743 0.0053986995
0.2618143 0.00703356 6e-45 0.22544874 0.33421665 0.018414898 0.015355815 0.2003787
0.011663075 0.0039089983 0.01731456 0.010748464 0.00013626312 0.083059885 0.0009240855 0.24385537
0.008819426 0.115290515 0.11332006 0.24131575 6e-45 0.010980128 0.09999874 0.06281417
0.2928759 0.02878672 0.009654277 1.859014e-06 0.08216415 0.009031673 0.40975153 0.0041839546
6e-45 0.16061427 0.023720825 0.00051935914 0.004598474 0.09626464 0.02867043 0.06708785
0.34213287 0.46788213 6e-45 0.091616176 0.1837498 0.2923853 0.0036141602 0.7707589
0.00094470393 0.013529442 0.03892824 0.08017105 0.1225246 0.11647178 0.27747995 0.015496394
0.13646103 0.2234502 0.1760484 6e-45 0.02629093 0.017478129 0.037598997 6e-45
0.28893742 0.022942282 0.3932743 0.082725145 0.0032168485 0.20781466 6e-45 0.08738504
6e-45 3.076813e-05 0.4220558 0.33868515 0.017259315 0.0061337417 0.08238439 0.02886796
0.09314508 0.112163596 0.021272173 0.084849775 6e-45 0.01617344 0.036885526 0.030960668
0.12759715 0.051526338 6e-45 0.0014565893 0.09143438 0.060090665 0.13274808 0.2445869
0.1411349 0.04163747 0.13060465 0.005592376 0.008480885 6e-45 0.031744417 0.1396651
0.10298922 0.27649426 0.015293533 0.10891231 0.088212654 0.46098188 0.46547845 0.0915439

layers.4.weight f4 [256, 256]
00000000: f207 afbe a63f e43c 10f4 98bc 3ff0 0cbf
00000010: fc7d 1b3f ac48 98bd eb85 bebe af1b 42bd
00000020: 6bb6 84be 2ad2 9dbd 183e b6be 7d63 633e
00000030: 1b65 48bd d816 88be a1d6 41bd 6990 69be
00000040: 7526 1d3e 0344 cb3d 9dd7 7d3d e0d9 773e
00000050: b713 04be ee7a 9f3c a971 85be 95d9 d43e
00000060: 8ecb e2be 10dc 80be 9c6b 7c3e 750a 64be
00000070: f19a 46be 36da 61be 17f6 873e 7ad7 f83d
00000080: c350 dcbe ed33 7fbe 85bf d43d 4080 1cbe
00000090: 0ae9 353e 65c1 0abe 08d7 e03e 2d9f f4be
000000a0: ccde a93e 0472 b03c 8f47 54bd c9db 49bc
000000b0: f1d5 b6bd 8795 9f3e 0269 bc3b 1da4 993e
000000c0: 1aa7 d03e d0f4 17bf 0875 6d3e 140b 40bf
000000d0: 59e8 2cbe 1e83 aebd e2e0 4d3c 0795 e4bd
000000e0: 86df 8bbe e885 043e b984 77be 8e7c 2ebf
000000f0: d463 84be 02a2 dc3d baf6 65be 2cae 303d
00000100: 137d 8fbe ab57 9c3e 17ca a13d 894f c63c
00000110: 2c2a b03d 4ab3 1ebe 3eeb f63e afdc bc3d
00000120: e03d 06bf c774 48be 8655 373c df28 443d
00000130: ebbe 08be b71e ecbd ea66 4dbe dd55 d1bc
00000140: 053c 7cbe 9a28 b5bc d729 8abd 97c2 233e
00000150: a7f8 dc3d 6b8a d6bc ef7b 883d 5c87 c2bc
00000160: 767c 90be 0c32 0dbe f740 dbbd b0ad 1bbe
00000170: 44d5 e03e 67ed f63d 8ab2 21be 0480 3dbe
00000180: 89da 863d 1db8 a6bd ebbb 8fbd 99a9 c8be
00000190: 03c0 1bbf 143c 5bbd 6003 fdbc c13b ccbe
000001a0: 160f cfbe e053 ecbe 2ca3 cbbe 8b42 e4bd
000001b0: 6a8e 393e bcd9 a3be edc2 dd3d 69c5 81be
000001c0: 19a6 003c f2ef 5f3d 064b 773d a5af 35bd
000001d0: 2f79 36bd 9fcf 393e dadf 0dbe 7d40 19bf
000001e0: 152e a1be 0bcb 823b 862e ca3c 4c7f 4dbf
000001f0: a4e1 a3be 2c0a 9e3e ff6a 263e 0680 1cbe
00000200: fa59 103e c57e 413e 8cb8 e73e 4dfb 5d3d
00000210: 9689 0cbe a207 96be a69f 0b3e f5f0 8fbe
00000220: 54c2 fd3e 86f2 a1be a8c2 e1be 7739 09be
00000230: 7e8d 823d 6e05 2f3e 930c b73b 5e9b 0e3c
00000240: ff8d 5d3d 96c1 08bf 459a a83e 99c6 2a3e
00000250: f0f5 d23d 09bf 7ebe 0921 343e 6307 1f3d
00000260: c98c 99be 059c b2bd fae0 bf3b 4ff4 e2be
00000270: b8f9 f73d 8e43 463d d13a 453e 7326 b5be
00000280: cf79 70be e604 693e 7211 99be 94ff 863d
00000290: d3bc 8f3d 4e73 80be 0a72 963e d832 173e
000002a0: e0cf bd3e 6460 0ebd e210 123f bad1 55bd
000002b0: b018 a7be d6df 75bf 9f92 bcbd f2df 95be
000002c0: d431 00be ad1a b4be 491d ea3c 1b2d 2dbd
000002d0: c997 b9be 0c9f f9bd 6c65 91bd 509c a03a
000002e0: 30a7 33be 321e 75bd 706a 6dbe 3d8a bf3c
000002f0: ebee 58be 25a9 a93e 9ab0 643e 424a 8abd
00000300: 0caf 52be 83fc 79be 5022 113e 97ac 6fbe
00000310: 6cb4 863d 7fa1 01be 4893 00be f7d3 1b3e
00000320: 7f0d b1be d17e a9be 8b51 7abd 83e9 e43e
00000330: 39ab 043f f53b 213e c219 4ebe 98f3 de3d
00000340: 5aee babd f53f d4bd dbfb 58be 52a0 7e3d
00000350: 3e0c de3d 2e0c db3d 0ecc 343d 094b 38be
00000360: 6bb2 8c3d ebe3 6a3d 358c c9be c4ea ba3d
00000370: 8c0a 52be 461b ccbd 7ef5 0dbf f019 8ebe
00000380: eb3b fcbe 43b5 da3d fcfc 123e b466 8ebd
00000390: ae45 813d a624 643e 8236 32bf 284f ecbd
000003a0: cfa8 f4be 18b7 7f3e 6b72 1dbd 3031 f8bd
000003b0: 7c0f 11bf c5e2 28bf c4e6 293e 2531 083e
000003c0: 3fcf 04bf dfbc 3a3f 389f 32bf 1310 923b
000003d0: 24a1 76be 5ce7 44be b858 11bf ecbd 19bc
000003e0: 6d5d 433e 9b65 07be f245 97bd beb7 0f3e
000003f0: aaf5 aebd ed3f 46bf ad58 8d3d b9b6 81bd
-0.3418575 0.027862381 -0.018671066 -0.55054086 0.6073911 -0.07435736 -0.37211546 -0.047389682
-0.25920424 -0.07706101 -0.3559425 0.2220592 -0.048924547 -0.26579928 -0.047323827 -0.22808994
0.15346701 0.099250816 0.061973203 0.24204206 -0.12898146 0.019467797 -0.26063278 0.41572252
-0.44295925 -0.25167894 0.24650425 -0.22269614 -0.19395043 -0.22055897 0.2655494 0.12150474
-0.43030366 -0.24922152 0.10388092 -0.15283298 0.17764679 -0.13550337 0.43914056 -0.4777769
0.33177793 0.021538742 -0.051826056 -0.012320467 -0.08927525 0.31168768 0.0057498226 0.3000802
0.40752488 -0.5935793 0.23189175 -0.75016904 -0.16885509 -0.08521102 0.012565823 -0.11161237
-0.27318972 0.12941706 -0.24171723 -0.68158805 -0.25857413 0.10773088 -0.224574 0.043134853
-0.28025112 0.30535635 0.07899874 0.024207847 0.08601794 -0.15498081 0.4822635 0.092217796
-0.52438164 -0.19575797 0.011189824 0.04789054 -0.1335408 -0.11529296 -0.2005879 -0.025553638
-0.2463227 -0.022114087 -0.067462616 0.15992199 0.10789614 -0.02618905 0.066642635 -0.023746185
-0.28219956 -0.13788623 -0.107057504 -0.15202975 0.4391271 0.12057 -0.15790763 -0.18505865
0.06584651 -0.081405856 -0.070182644 -0.39191893 -0.6083986 -0.05352409 -0.030885398 -0.3988934
-0.40441197 -0.46157742 -0.39772928 -0.111455046 0.18120733 -0.32002056 0.10828195 -0.25345924
0.007852101 0.05467219 0.060374282 -0.04435696 -0.044549163 0.18145607 -0.13854924 -0.59864026
-0.3148047 0.0039914898 0.024680387 -0.80272365 -0.32008088 0.30867136 0.16251753 -0.15283212
0.14096823 0.18896015 0.45257986 0.054194737 -0.1372436 -0.29302698 0.1363512 -0.28113523
0.49562323 -0.31630343 -0.44093823 -0.13400827 0.06374644 0.17091915 0.0055862158 0.008704035
0.054090496 -0.5342039 0.32930198 0.16677321 0.10300815 -0.24877562 0.17590727 0.038825404
-0.29990223 -0.087211646 0.0058556767 -0.44327018 0.12108177 0.04840427 0.19260718 -0.35380897
-0.23483966 0.22755775 -0.29896122 0.065917164 0.07018437 -0.2508797 0.2938388 0.14765489
0.3707266 -0.034759894 0.5705701 -0.052201964 -0.32636023 -0.9604467 -0.09207653 -0.2927242
-0.12519008 -0.35176602 0.028578417 -0.042279344 -0.36248615 -0.12188539 -0.07099423 0.0012253616
-0.17544246 -0.05984325 -0.23185134 0.023381347 -0.2118489 0.3313686 0.22332993 -0.06752445
-0.20574588 -0.24412732 0.14173245 -0.23405682 0.065773815 -0.12659262 -0.12556183 0.15217577
-0.3458061 -0.33104566 -0.06111292 0.44709405 0.51823765 0.15745528 -0.20127013 0.108863056
-0.09127493 -0.10363761 -0.21189825 0.062164612 0.10842179 0.106956825 0.044139914 -0.17997374
0.06869968 0.057346266 -0.39364782 0.09126809 -0.20511836 -0.099661395 -0.55452716 -0.27754164
-0.49264464 0.10679104 0.14354318 -0.06953183 0.063121185 0.22279605 -0.6961442 -0.11538535
-0.4778504 0.24972188 -0.038439196 -0.12118757 -0.5666425 -0.6597102 0.16591936 0.13299997
-0.5187873 0.72944444 -0.697742 0.0044574826 -0.24084908 -0.19228882 -0.56776 -0.00938366
0.19078608 -0.13222353 -0.07386388 0.14034936 -0.085429505 -0.77441293 0.06901679 -0.0633368
