a_target.pth (torch_old, 366433 bytes, 20 tensors)

layers.0.weight f4 [24]
0	0x3eb1adc4	0.34702885
1	0x3e67de8e	0.22643492
2	0x3e320a88	0.1738683
3	0x3e3e64ff	0.18593214
4	0x3fa928bd	1.3215557
5	0x3f58a283	0.84622973
6	0x3e3348f3	0.17508297
7	0x3e825c95	0.2546126
8	0x3e420169	0.1894585
9	0x3e1cf97d	0.15329547
10	0x3e6cae97	0.23113476
11	0x3dfabab8	0.12242645
12	0xbc758992	-0.014986413
13	0x3edd142c	0.43179452
14	0x3dd289d5	0.102801956
15	0x3e3724fb	0.178852
16	0x3f1a2d2c	0.60225177
17	0x3f117bc1	0.5682946
18	0x3dcad1f6	0.09903328
19	0x3e4c5ac0	0.19956493
20	0x3f8e3463	1.1109737
21	0x3f421d9f	0.7582645
22	0x3ea74c41	0.32675365
23	0x3eac8287	0.33693334

layers.0.bias f4 [24]
0	0x3e117b3f	0.14207171
1	0xbe670cbe	-0.22563455
2	0x3b6b407a	0.0035896585
3	0xbe3b97f0	-0.18319678
4	0x3e273dea	0.16332212
5	0x3f07d1f4	0.5305474
6	0xbdc40356	-0.09570949
7	0x3d861bcd	0.06548271
8	0xbe4419f1	-0.19150521
9	0x3df1c41d	0.11804984
10	0x3d7825c8	0.060582906
11	0x3dd07635	0.10178796
12	0xbf2644e2	-0.64948857
13	0x3e44a014	0.1920169
14	0x3d20e424	0.03928007
15	0xbe84e1cc	-0.2595352
16	0x3e788bcf	0.24272083
17	0xbe9f7fd1	-0.31152204
18	0xbe678495	-0.2260917
19	0xbdf4cfbb	-0.11953684
20	0x3d0bbf58	0.034118026
21	0x3edac322	0.42727
22	0x3d7c8455	0.06164964
23	0xbe1429f4	-0.14469129

layers.0.running_mean f4 [24]
0	0xc091584e	-4.5420294
1	0xbf0b3da3	-0.54390925
2	0x4104995f	8.287444
3	0xbdda3208	-0.10654074
4	0x3db295f4	0.087200075
5	0x40007eb4	2.0077333
6	0x4104995f	8.287444
7	0xbdda3208	-0.10654074
8	0xc09162bd	-4.543303
9	0xbf09aa30	-0.5377531
10	0x410027e1	8.009736
11	0xbda290f3	-0.07937803
12	0x3dbcb30d	0.09213839
13	0x4000691e	2.0064158
14	0x410027e1	8.009736
15	0xbda290f3	-0.07937803
16	0xc090315a	-4.5060244
17	0xbf0896bf	-0.5335502
18	0x4105f067	8.371192
19	0xbda9e8b5	-0.082963385
20	0x3dbd6863	0.09248426
21	0x40004a6c	2.0045424
22	0x4105f067	8.371192
23	0xbda9e8b5	-0.082963385

layers.0.running_var f4 [24]
0	0x417910a3	15.566562
1	0x3f8d3a1e	1.1033361
2	0x43e0b908	449.44556
3	0x414a239a	12.633692
4	0x41e35a1a	28.418995
5	0x401bd229	2.4347022
6	0x43e0b908	449.44556
7	0x414a239a	12.633692
8	0x4172b39e	15.168852
9	0x3f8d4a11	1.1038228
10	0x43e82d1c	464.35242
11	0x414ae6f7	12.681388
12	0x41e60fbf	28.757689
13	0x401a27fb	2.4086902
14	0x43e82d1c	464.35242
15	0x414ae6f7	12.681388
16	0x416ef589	14.934945
17	0x3f8e0702	1.1095889
18	0x43e79d35	463.22818
19	0x4147c956	12.486654
20	0x41e9a60f	29.206083
21	0x401b27ca	2.4243035
22	0x43e79d35	463.22818
23	0x4147c956	12.486654

layers.1.weight f4 [256, 24]
0	0xbea0122b	-0.3126386
1	0xbe32dad6	-0.17466292
2	0xbf07badf	-0.5301952
3	0x3eb2cbcc	0.3492111
4	0xbf11c615	-0.56942874
5	0xbe9a8afe	-0.30184168
6	0xbe76a075	-0.24084647
7	0x3d82ef1e	0.06393264
8	0xbe826e35	-0.25474706
9	0x3d863265	0.06552581
10	0x3df24284	0.11829093
11	0x3d102ad7	0.035197105
12	0xbb8f3bfa	-0.0043711634
13	0xbe9949cf	-0.29939124
14	0x3dd4f010	0.10397351
15	0x3dbe591b	0.09294339
16	0x3d84aa32	0.06477775
17	0xbde9908d	-0.11404524
18	0x3e2a4952	0.16629532
19	0x3ef68d00	0.4815445
20	0x3eea796f	0.4579577
21	0x3eb48264	0.3525573
22	0x3daf7c20	0.08568597
23	0x3ed21dbb	0.41038308
24	0xbea0c831	-0.31402734
25	0xbba0ad72	-0.004903489
26	0x3e34e200	0.17664337
27	0xbf3e328e	-0.7429589
28	0x3e5bc17a	0.21460524
29	0x3cad255b	0.021135977
30	0xbe51a185	-0.20471771
31	0xbef34129	-0.4751065
32	0xbe8c3b96	-0.2738921
33	0x3e280a1b	0.16410105
34	0xbe4cd1c7	-0.20001899
35	0xbcbe9329	-0.02326353
36	0xbefbeb05	-0.49202743
37	0x3e135889	0.14389242
38	0xbd9f5205	-0.07779316
39	0xbe9797fe	-0.29608148
40	0xbd8de81e	-0.069290385
41	0x3e1c069e	0.152369
42	0xbec59d02	-0.3859635
43	0x3dafe532	0.085886374
44	0xbe9d94d3	-0.30777606
45	0x3f44c0c6	0.7685665
46	0x3d1c9b77	0.0382342
47	0xbc1a2a9b	-0.009409572
48	0xbc13fa97	-0.009031913
49	0xbdb2a6c1	-0.08723212
50	0xbd3cae43	-0.046064626
51	0x3ee8ffd2	0.45507675
52	0x3e3c7c3f	0.18406771
53	0xbe069539	-0.13142861
54	0x3d921b4d	0.071341135
55	0x3de8b5d3	0.11362805
56	0x3ede4d07	0.43418142
57	0xbf2fef40	-0.6872444
58	0xbcd37488	-0.025812402
59	0x3e537f8b	0.20654123
60	0x3f2c4dd8	0.6730628
61	0x3da9e936	0.082964346
62	0xbe582a7c	-0.21109957
63	0x3ee4cf06	0.44689196
64	0x3dc2da47	0.09514289
65	0xbe495122	-0.19659856
66	0x3eda4815	0.4263312
67	0x3e826412	0.25466973
68	0x3e85fdc0	0.26170158
69	0x3ed7c740	0.42144203
70	0x3dee1fcd	0.11627159
71	0x3c26dfba	0.0101851765
72	0xbe406a8f	-0.18790649
73	0x3dab6c45	0.0837026
74	0x3e3fe83d	0.18740936
75	0x3e57d25a	0.21076337
76	0xbf8e071b	-1.1095918
77	0xbeb6b66f	-0.3568606
78	0x3e7aeeeb	0.24505202
79	0xbdaf882d	-0.08570895
80	0x3e9c4ae7	0.30525896
81	0x3dbd2f25	0.09237508
82	0x3db671e4	0.08908442
83	0x3e00b43c	0.12568754
84	0x3e89e6e4	0.26933968
85	0x3caae4e5	0.020861099
86	0xbda5e98e	-0.08101188
87	0x3e289a23	0.16465048
88	0x3d5c7721	0.053824548
89	0xbd4e1fff	-0.050323483
90	0x3e6f4ecb	0.23369901
91	0xbc43d9ed	-0.011953813
92	0xbefdaab5	-0.49544302
93	0x3ebc9379	0.36831263
94	0x3d5246df	0.05133712
95	0x3a222260	0.0006184932
96	0xbe3a3f7c	-0.1818828
97	0x3e8ba9ca	0.27277976
98	0x3e1cd9e6	0.15317497
99	0x3eea01c8	0.45704484
100	0x3f251c10	0.64495945
101	0xbd798bb2	-0.06092424
102	0x3ec1bae7	0.37837908
103	0x3ef39dc7	0.47581312
104	0x3d85316c	0.06503567
105	0x3f06ccb5	0.5265611
106	0x3e54728e	0.20746824
107	0x3e94ebf0	0.29086256
108	0x3e5e1f2f	0.21691583
109	0x3dbc98f8	0.09208864
110	0x3e95192f	0.29120776
111	0x3d450e78	0.0481095
112	0x3e645e70	0.2230165
113	0x3f249860	0.64295006
114	0x3e3766fd	0.1791038
115	0x3e314d06	0.17314538
116	0xbe8c4348	-0.27395082
117	0x3e4b945e	0.19880816
118	0xbe6e8482	-0.23292735
119	0x3e1e8818	0.15481603
120	0xbe616b82	-0.22013667
121	0x3ec5f6f3	0.3866497
122	0xbe4faa72	-0.20279863
123	0x3ecf569b	0.40495762
124	0x3d587eb3	0.052855205
125	0xbd05f516	-0.032704435
126	0xbd4573d3	-0.04820616
127	0x3e94f743	0.29094896
128	0x3d3aa1cb	0.045564454
129	0xbd5df895	-0.054192144
130	0xbd48a715	-0.048987467
131	0x3e5b61c0	0.21424007
132	0x3eb4c2f9	0.35305002
133	0x3c3583fa	0.011078829
134	0xbda08c31	-0.078392394
135	0x3f05abe8	0.52215433
136	0x3da16c15	0.07881943
137	0x3ec80deb	0.3907312
138	0x3f0b1ab8	0.54337645
139	0x3e7dd083	0.24786572
140	0x3c95dbc0	0.018293262
141	0xbe483db8	-0.19554794
142	0x3eef8ae8	0.46785665
143	0x3e883daf	0.2660956
144	0x3f33a7d8	0.70177984
145	0x3ebb96f7	0.36638615
146	0x3f17f091	0.5935145
147	0x3cfd5175	0.03092263
148	0xbe6d3df8	-0.2316817
149	0x3d695257	0.05696329
150	0x3f3c97ae	0.73668945
151	0x3e466d96	0.19377741
152	0x3e672198	0.22571409
153	0x3e90c2b5	0.2827355
154	0xbf00c745	-0.5030406
155	0xbe2ad572	-0.16682985
156	0x3debb67c	0.115094155
157	0x3dc8f48a	0.09812267
158	0xbee09b30	-0.438684
159	0xbd142996	-0.036172472
160	0x3e233d89	0.15941443
161	0x3dd359a3	0.10319831
162	0xbee95444	-0.45572102
163	0x3e46eccb	0.19426267
164	0x3edc2d04	0.43003094
165	0xbe7d8c1c	-0.24760479
166	0xbec4c878	-0.38434196
167	0xbe16a452	-0.1471112
168	0x3ad520c9	0.0016260381
169	0x3d817d09	0.06322677
170	0x3eb01600	0.34391785
171	0xbdf83c6c	-0.121208996
172	0x3d756604	0.059911743
173	0x3ec9f335	0.39443365
174	0x3ee55dd7	0.44798157
175	0x3e316bbd	0.17326255
176	0xbe91ec22	-0.28500468
177	0x3d5a7169	0.053330813
178	0x3e70d60a	0.2351915
179	0x3e9230c6	0.28552836
180	0xbe39038b	-0.18067758
181	0xbecdc219	-0.40187147
182	0x3e480b25	0.19535501
183	0x3bd83399	0.006597948
184	0xbb9f4426	-0.004860419
185	0x3ed8df94	0.42358077
186	0xbd69ace9	-0.057049666
187	0x3ecf9c47	0.40548918
188	0xbe539787	-0.20663272
189	0xbf87e179	-1.0615684
190	0x3e5b5267	0.21418153
191	0x3ea07f95	0.31347337
192	0xbedca68b	-0.43095812
193	0x3dbb36cf	0.09141313
194	0xbe9997d4	-0.29998648
195	0x3ef48532	0.4775787
196	0xbf201487	-0.6253132
197	0x3dd85194	0.10562435
198	0x3d398678	0.045294255
199	0xbd7fbc0c	-0.062435195
200	0x3d5f603f	0.054535147
201	0xbf04dae5	-0.51896507
202	0xbcb2b2d8	-0.021813795
203	0x3dfe9224	0.12430218
204	0x3f3bf9b9	0.7342792
205	0x3cd16dd4	0.025565065
206	0x3e3ddda1	0.18541576
207	0x3e802758	0.25030017
208	0x3dd6d999	0.10490722
209	0x3ce4c2ad	0.02792486
210	0x3edfd18d	0.43714562
211	0xbe693799	-0.22775115
212	0xbe431dc1	-0.19054319
213	0x3e0c63b2	0.13709906
214	0x3e8e14f0	0.2775035
215	0xbd525640	-0.051351786
216	0x3eefe8e0	0.46857357
217	0x3e19b027	0.15008603
218	0x3eca4687	0.39506933
219	0x3ea320e4	0.3186103
220	0xbbcbb59e	-0.006216719
221	0x3f05d1c9	0.5227323
222	0x3ebc1576	0.36735123
223	0x3ed01477	0.40640613
224	0x3eed3db4	0.46336138
225	0xbd6ad3ad	-0.057330776
226	0x3e7aebcc	0.24504012
227	0x3d21d11f	0.039506074
228	0x3f0eaff8	0.55737257
229	0x3ec76cba	0.3895014
230	0x3e23d969	0.16000904
231	0x3e92184b	0.2853416
232	0x3e157675	0.14595969
233	0x3e1aa0aa	0.15100351
234	0x3e8f7f4b	0.28026804
235	0x3e9684cb	0.29398188
236	0xbec2492c	-0.3794645
237	0xbe33e819	-0.17569007
238	0x3d2f7e0c	0.042844817
239	0x3e12116a	0.14264455
240	0xbcc39d87	-0.023878826
241	0x3eba47e1	0.36382964
242	0xbe954278	-0.29152274
243	0xbe1b8485	-0.15187271
244	0x3ea67f7a	0.32519132
245	0x3c99e74d	0.01878705
246	0xbead5d88	-0.3386042
247	0x3d57a28b	0.052645247
248	0xbdf7a73f	-0.120924465
249	0x3f46748b	0.7752158
250	0x3decf72e	0.11570583
251	0xbd72ed1e	-0.059308164
252	0x3e7ae3d4	0.24500972
253	0x3ec05c22	0.37570292
254	0x3ec59a2e	0.38594192
255	0xbe3b6c6f	-0.18303083

layers.1.bias f4 [256]
0	0xbe676295	-0.225962
1	0x3ef87686	0.48527926
2	0xbf0a40b1	-0.5400496
3	0x3e31b5c8	0.173545
4	0xbd5a6b44	-0.053324953
5	0xbedc353b	-0.43009362
6	0xbe2a3a31	-0.16623761
7	0x3c905534	0.017618753
8	0xbedc2af4	-0.4300152
9	0xbecd9978	-0.4015615
10	0xbdde9cba	-0.10869737
11	0x3e7c7431	0.24653699
12	0xbeda7f38	-0.42675185
13	0xbe271103	-0.16315083
14	0xbf3b61ac	-0.7319591
15	0xbe63724f	-0.22211574
16	0xbe8030c9	-0.2503722
17	0xbe91986f	-0.2843661
18	0xbe92c4c0	-0.28665733
19	0xbeacd0db	-0.33753094
20	0xbed6f21a	-0.41981584
21	0xbe9726a0	-0.29521656
22	0xbf0ad142	-0.5422555
23	0xbf014628	-0.50497675
24	0xbea1a15a	-0.31568414
25	0xbe88309f	-0.26599595
26	0xbe0df1e3	-0.13861804
27	0xbebb4fc1	-0.36584285
28	0xbe274f2f	-0.163388
29	0xbe200c68	-0.15629733
30	0xbeab6202	-0.33473212
31	0xbef9377a	-0.48675138
32	0xbe420da5	-0.18950517
33	0xbea12241	-0.31471446
34	0xbf2633c0	-0.64922714
35	0xbee6bc31	-0.45065454
36	0x3e0ee1aa	0.13953272
37	0xbf1a1ed7	-0.6020331
38	0xbe81f77a	-0.25384122
39	0x3d78a78a	0.060706653
40	0xbeedb265	-0.46425167
41	0xbec7d50f	-0.39029738
42	0xbe67e664	-0.22646481
43	0x3e321067	0.1738907
44	0xbebec598	-0.37260127
45	0x3ea7d1bb	0.327772
46	0xbec49387	-0.38393804
47	0xbedd3797	-0.43206474
48	0xbe993cd6	-0.29929227
49	0xbea4abff	-0.32162473
50	0xbeb92f89	-0.3616908
51	0x3c5794e8	0.013158061
52	0xbe964d7e	-0.29355997
53	0xbea2dc57	-0.3180873
54	0xbe87ddbb	-0.26536354
55	0xbe99814b	-0.29981455
56	0xbf3594ab	-0.70929974
57	0xbf5a2f1b	-0.8522813
58	0xbebfb461	-0.37442306
59	0xbe0e721f	-0.13910721
60	0xbefd52d9	-0.4947727
61	0xbe00abdf	-0.12565564
62	0xbe9b3e1a	-0.30320817
63	0xbe8b7f27	-0.27245447
64	0xbe6098dc	-0.21933311
65	0xbda4bc86	-0.080437705
66	0xbe056ebb	-0.13030522
67	0xbefc90eb	-0.49329314
68	0xbb2f5dea	-0.0026758858
69	0xbea169b8	-0.3152597
70	0xbdc26583	-0.09492018
71	0xbe8ba17c	-0.2727164
72	0xbecc0969	-0.3985093
73	0x3ca3200e	0.019912746
74	0xbd47dad8	-0.04879269
75	0xbf25db88	-0.64788103
76	0xbedf17aa	-0.43572742
77	0xbe2af028	-0.16693175
78	0xbf12de99	-0.5737091
79	0xbef2bf61	-0.47411636
80	0xbdd40e68	-0.1035431
81	0xbe5d420f	-0.2160723
82	0xbf177427	-0.5916161
83	0x3e436a3c	0.19083494
84	0xbeae4369	-0.34035805
85	0x3e314ac9	0.17313685
86	0x3da5ee65	0.08102111
87	0xbe907a4e	-0.2821831
88	0xbe956372	-0.29177433
89	0xbbf37730	-0.0074299797
90	0xbecac8c8	-0.3960631
91	0xbf04611c	-0.5171068
92	0xbeb4d95a	-0.35322076
93	0x3dbae45f	0.091255896
94	0xbea3582b	-0.31903204
95	0x3b2dd965	0.0026527282
96	0xbeed3674	-0.46330607
97	0xbe8118e3	-0.252143
98	0xbd5e8dc5	-0.05433442
99	0xbef07702	-0.46965796
100	0xbd49775d	-0.0491861
101	0xbe0534f8	-0.13008487
102	0xbf137610	-0.57602024
103	0x3dd18f61	0.102324255
104	0xbe9229cf	-0.28547522
105	0xbf0360b6	-0.51319444
106	0xbe79ae0b	-0.24382798
107	0xbdef40fb	-0.11682316
108	0x3d99db97	0.075125866
109	0xbe0ccaeb	-0.13749282
110	0xbf0023fe	-0.5005492
111	0xbecc6c2c	-0.3992628
112	0xbe2676a7	-0.162562
113	0x3d9a6180	0.07538128
114	0xbc0b2546	-0.008492773
115	0xbe01aff6	-0.1266478
116	0xbe36e0d3	-0.17859201
117	0xbed5743b	-0.4169024
118	0xbe8e63a5	-0.27810398
119	0xbe88ecf4	-0.2674328
120	0x3e275adc	0.16343254
121	0xbe7885a2	-0.24269727
122	0xbf1cf20f	-0.6130685
123	0xbe9c2305	-0.30495468
124	0xbd517575	-0.051137406
125	0xbea668d7	-0.3250186
126	0xbe681d3d	-0.22667404
127	0xbe591d33	-0.21202545
128	0xbeacb17e	-0.33729166
129	0xbf25a9c5	-0.6471217
130	0xbf0c24d2	-0.54743683
131	0xbf02129a	-0.50809634
132	0xbe860ae6	-0.2618019
133	0xbde90996	-0.113787815
134	0xbed09c9a	-0.40744478
135	0x3e3ef17e	0.1864681
136	0x3d974937	0.073870115
137	0xbec92322	-0.39284617
138	0xbf09d4b4	-0.53840184
139	0x3e3a97b2	0.1822193
140	0x3d8add20	0.067804575
141	0xbe81882d	-0.25299206
142	0xbdbb96f8	-0.091596544
143	0xbeb5d356	-0.355128
144	0xbd35c36b	-0.04437582
145	0xbe96779c	-0.2938813
146	0xbf2afcde	-0.66792095
147	0x3e3f41dc	0.18677467
148	0xbda303bd	-0.079596974
149	0xbeb37404	-0.3504945
150	0xbefeb53e	-0.49747652
151	0xbe898893	-0.2686201
152	0xbe3403fe	-0.17579648
153	0xbe981ff3	-0.29711875
154	0xbebc5778	-0.36785483
155	0xbf090018	-0.5351577
156	0xbec2299a	-0.37922364
157	0xbeb9e0d0	-0.3630433
158	0xbea66d59	-0.325053
159	0xbea4f0e5	-0.32215038
160	0xbee93bf0	-0.4555354
161	0xbd30ccd6	-0.043164097
162	0xbcb23e6d	-0.021758283
163	0xbd3d1308	-0.046160728
164	0xbee5a3de	-0.44851583
165	0xbe3ede6e	-0.18639538
166	0xbe80332f	-0.2503905
167	0xbeae7678	-0.3407476
168	0x3e5bedc1	0.21477415
169	0xbbd06978	-0.006360229
170	0xbed0a6b9	-0.407522
171	0xbee43549	-0.44571903
172	0x3dae175f	0.085005514
173	0xbe9ead90	-0.30991793
174	0x3dc3475c	0.09535095
175	0xbe967e98	-0.29393458
176	0xbeeadbd3	-0.45870838
177	0xbe2fdc6f	-0.17173932
178	0xbea5bb74	-0.32369578
179	0xbebc607f	-0.3679237
180	0xbf00dd6d	-0.5033787
181	0xbe481574	-0.19539434
182	0xbe4501fb	-0.19239037
183	0xbe8fbe14	-0.28074706
184	0x3e3fa4c1	0.18715192
185	0xbe004945	-0.1252795
186	0xbf24127f	-0.6409072
187	0xbe4f4286	-0.2024022
188	0x3e9db941	0.308054
189	0x3d8ef06a	0.06979449
190	0xbed96523	-0.42459974
191	0xbebeb81e	-0.37249845
192	0xbee1c21e	-0.44093412
193	0xbe96ee1a	-0.29478532
194	0xbe979421	-0.296052
195	0xbebce19a	-0.3689087
196	0x3dcabd1b	0.0989935
197	0xbe5dcc9c	-0.21660084
198	0xbde50c59	-0.11183996
199	0xbefc72fb	-0.49306473
200	0xbec20225	-0.3789226
201	0x3d1f4fd2	0.038894482
202	0x3d9cffcc	0.07665977
203	0xbf2e017f	-0.6797103
204	0xbd8de4fd	-0.06928442
205	0xbec86b27	-0.3914425
206	0xbe8a096b	-0.2696031
207	0xbf099cf9	-0.53755146
208	0xbc67c8a6	-0.014146959
209	0xbe93b896	-0.28851765
210	0xbe533639	-0.20626153
211	0xbea0cb07	-0.31404898
212	0xbe0153a9	-0.1262957
213	0x3ddceb0f	0.10787021
214	0xbef5ebe4	-0.48031533
215	0xbeb5a849	-0.35479954
216	0xbec38d31	-0.38193658
217	0xbf16e884	-0.5894854
218	0x3deb47d2	0.11488308
219	0xbc273371	-0.010205136
220	0xbe8d3ddd	-0.2758626
221	0xbecccbdb	-0.3999928
222	0xbdd00cc2	-0.10158683
223	0xbea1d4b9	-0.31607607
224	0xbebe06c0	-0.37114525
225	0xbe979afb	-0.29610428
226	0xbf28e46a	-0.6597353
227	0xbeb3c74e	-0.35112995
228	0xbef63a04	-0.48091137
229	0xbec5594f	-0.385447
230	0xbe7ca099	-0.24670638
231	0xbe90a5b9	-0.28251436
232	0xbe3ec518	-0.18629873
233	0xbe826ba8	-0.2547276
234	0xbf0e01fc	-0.5547178
235	0xbed8d0a2	-0.42346674
236	0xbea19507	-0.3155901
237	0xbe54bcde	-0.20775172
238	0xbeaac08c	-0.33350027
239	0xbe12775f	-0.14303349
240	0x3ee8747c	0.4540137
241	0xbd7a1bdb	-0.06106172
242	0x3e943ab1	0.28951028
243	0xbedb65a1	-0.42850974
244	0xbf0fd2a8	-0.5618081
245	0xbeaecca0	-0.3414049
246	0xbea20830	-0.31646872
247	0xbd6dd65a	-0.05806575
248	0xbcc1692f	-0.023609726
249	0xbe1f52fe	-0.15559003
250	0xbeefd536	-0.46842355
251	0xbe79c868	-0.24392855
252	0xbe1cc346	-0.15308866
253	0x3ca19cd0	0.019728094
254	0x3cb1290a	0.021626014
255	0xbeef5ca5	-0.4675037

layers.3.weight f4 [256]
0	0x3eff2d1f	0.49839112
1	0x3e0e7d60	0.13915014
2	0x3f311486	0.6917194
3	0x3f740b32	0.9532958
4	0x3f373709	0.7156835
5	0x3f0ab977	0.54189247
6	0x3ec1b7b4	0.37835467
7	0x3f7cd39c	0.9876039
8	0x3f155e35	0.58346874
9	0x3ec7623f	0.38942143
10	0x3f0acb2e	0.5421628
11	0xbe226cf7	-0.1586188
12	0x3eda51c1	0.42640498
13	0x3f4f621e	0.8100909
14	0x3ee2befb	0.44286332
15	0x3ecfe68e	0.40605587
16	0x3f333358	0.7000022
17	0x3e86d83f	0.26336858
18	0x3f417607	0.7557072
19	0x3e0a98b7	0.13534819
20	0x3e8854d7	0.26627228
21	0x3eb59a08	0.3546908
22	0x3ee9fcd8	0.45700717
23	0x3ee36455	0.44412485
24	0x3f259fd2	0.6469699
25	0x3edd657b	0.43241486
26	0x3f50c1b8	0.8154559
27	0x3f53e430	0.8277006
28	0x3eec4ace	0.4615082
29	0x3eec9b23	0.4621211
30	0xbdb98278	-0.09058088
31	0x3f47b949	0.780171
32	0x3ef72762	0.48272234
33	0x3f759a5c	0.9593866
34	0x3ee48989	0.4463618
35	0x3f120d27	0.5705132
36	0x3ea5f996	0.3241698
37	0x3f456ed1	0.7712222
38	0x3f12bf11	0.57322794
39	0x3e3a417c	0.18189043
40	0x3e5c39ad	0.21506377
41	0xbee63f56	-0.44970196
42	0x3f2fd576	0.6868509
43	0x3e6c1ef1	0.23058678
44	0x3f2891b8	0.6584735
45	0x3ebe82dd	0.37209216
46	0x3f151fc5	0.582516
47	0x3e84fd5c	0.25974548
48	0x3f35465d	0.7081049
49	0x3ee66c83	0.45004663
50	0x3f27fbf0	0.656188
51	0x3f1b715b	0.6071984
52	0x3f0a0214	0.5390942
53	0x3f58ac76	0.84638155
54	0x3ec59a36	0.38594216
55	0x3f656ee7	0.8962235
56	0x3f291622	0.66049397
57	0x3f015643	0.5052225
58	0x3eb8b90e	0.36078686
59	0x3f86cd1e	1.0531347
60	0x3ee66b87	0.45003912
61	0x3bd3547c	0.0064492803
62	0x3ef3ccab	0.47617087
63	0x3f4d14bc	0.80109763
64	0x3f3f7150	0.74782276
65	0xbeedfa70	-0.4648013
66	0x3f0f0996	0.55874
67	0x3ddd1afe	0.10796164
68	0x3f2a3980	0.6649399
69	0x3f596658	0.8492179
70	0x3f5d7978	0.8651347
71	0x3f22478d	0.6339043
72	0x3f04d594	0.51888394
73	0x3eaf18a1	0.34198478
74	0xbede9b72	-0.4347797
75	0x3f63afdd	0.8894022
76	0x3f4fa0cd	0.8110474
77	0x3f708a8c	0.93961406
78	0x3ebd6984	0.36994565
79	0x3f428391	0.75982004
80	0x3f6bdb5d	0.92131597
81	0x3efc78ea	0.49311
82	0x3ed3ea8d	0.41389886
83	0x3d1accd0	0.03779298
84	0x3ee3c67d	0.44487372
85	0x3e178433	0.14796524
86	0x3f81062d	1.008001
87	0x3f2de0e3	0.67921275
88	0xbedd606d	-0.4323763
89	0x3f342181	0.7036362
90	0x3e9bc18f	0.3042111
91	0x3ee872a0	0.45399952
92	0x3e45563d	0.19271179
93	0x3f36175a	0.7112938
94	0x3f31b80c	0.6942146
95	0x3f113e13	0.5673534
96	0x3f56bffc	0.83886695
97	0xbe334020	-0.1750493
98	0x3f1c3e2c	0.61032367
99	0x3eb88cc0	0.36044884
100	0x3f89b992	1.0759757
101	0x3ee983c3	0.4560834
102	0x3ebd522c	0.36976755
103	0x3f8e8b86	1.1136329
104	0x3f0b5428	0.5442529
105	0x3eff6a3f	0.49885747
106	0x3f0d4d24	0.5519583
107	0x3f085e62	0.53269017
108	0x3f1d9c16	0.61566293
109	0x3eddd84f	0.43329093
110	0x3ed16719	0.4089897
111	0xbf19dc83	-0.601021
112	0x3f263dab	0.6493785
113	0xbdcb30e8	-0.099214375
114	0x3eb950f7	0.36194584
115	0x3d0db47a	0.034595944
116	0xbeab2d95	-0.33433214
117	0x3f2913e3	0.6604597
118	0x3ea4492e	0.32087082
119	0x3f1f0775	0.62120754
120	0x3f13ce80	0.5773697
121	0x3f73f01c	0.9528825
122	0x3e837d5a	0.25681573
123	0x3efc6492	0.4929548
124	0x3f515b40	0.8177986
125	0x3edc0848	0.42975068
126	0x3f1a54dc	0.60285735
127	0x3edfc1eb	0.43702635
128	0xbea778ba	-0.32709295
129	0x3f4d92f3	0.8030235
130	0x3ed9cc47	0.42538664
131	0x3f02e958	0.51137304
132	0x3e50ac9d	0.20378347
133	0x3f0491ca	0.51784956
134	0x3f23c9d0	0.63979816
135	0x3e69a833	0.22818069
136	0x3eb9d172	0.36292607
137	0x3f198035	0.59961253
138	0x3e947bbe	0.29000658
139	0x3e6a3de1	0.22875167
140	0x3ee82de1	0.45347503
141	0x3ec5773d	0.38567534
142	0xbe923901	-0.28559116
143	0x3f1283b8	0.57232237
144	0x3ef7c75e	0.48394293
145	0x3f2c0cb8	0.6720691
146	0x3f1d2509	0.61384636
147	0xbe27bdcc	-0.16380996
148	0x3ea8be56	0.32957715
149	0x3ebb66e7	0.36601946
150	0x3f1ffd7c	0.6249616
151	0x3f2c8b73	0.6740028
152	0xbee11148	-0.43958497
153	0x3ec31f5b	0.3810986
154	0x3f01d436	0.50714433
155	0x3f43c433	0.7647125
156	0x3eeea07b	0.46606812
157	0x3f0804a0	0.5313206
158	0x3ef003e4	0.46877968
159	0x3f0d792b	0.5526301
160	0x3f065e88	0.52487993
161	0x3f8d12c0	1.1021347
162	0x3f199d81	0.60005957
163	0x3f4af24d	0.7927597
164	0x3f0fc336	0.56157243
165	0x3ecbfbcd	0.39840546
166	0x3ec865ba	0.3914011
167	0x3f0b84ef	0.54499716
168	0x3f169631	0.58822924
169	0x3f562b80	0.83660126
170	0x3f244835	0.6417268
171	0x3f3e1d74	0.7426369
172	0x3f362df5	0.71163875
173	0x3f7ac948	0.9796338
174	0x3f1ab7ce	0.60436714
175	0xbeb3b0f7	-0.3509595
176	0x3d9a5646	0.075359866
177	0x3ec09366	0.37612456
178	0x3e99e04b	0.30053934
179	0x3f2f32be	0.684368
180	0xbdd94183	-0.106081985
181	0x3eeabe9c	0.45848548
182	0x3da995cb	0.08280524
183	0x3f9ece4a	1.2406704
184	0x3e4498d8	0.1919893
185	0x3ed019e3	0.4064475
186	0x3f277999	0.6541992
187	0x3f27866f	0.65439504
188	0x3f870a7b	1.0550073
189	0x3deca20b	0.11554345
190	0xbe97684a	-0.29571754
191	0x3f450d84	0.7697375
192	0x3ec2c482	0.3804055
193	0x3f8580c2	1.0429919
194	0x3ed09bae	0.40743774
195	0x3f6fa9f7	0.9361872
196	0x3efead4f	0.497416
197	0x3f0cc37b	0.5498578
198	0x3e77fbe1	0.24217178
199	0x3ee352d4	0.4439913
200	0x3f2742ad	0.65336114
201	0xbd3d0c63	-0.04615439
202	0x3e45ed89	0.19328894
203	0x3ebbb55a	0.36661798
204	0x3ee69deb	0.45042357
205	0x3ecade75	0.39622846
206	0x3f112a6f	0.56705374
207	0x3e99e8e5	0.30060497
208	0x3ec79a3b	0.38984856
209	0x3eadb4fa	0.33927137
210	0xbcd9e7e0	-0.026599824
211	0x3e8f183a	0.2794817
212	0x3ee3c904	0.444893
213	0x3f3b9927	0.73280567
214	0x3e1f384a	0.15548816
215	0x3f313619	0.6922317
216	0x3e494225	0.19654138
217	0x3f5f146f	0.87140554
218	0x3e862734	0.26201785
219	0x3ebcb1d2	0.36854416
220	0x3f2eed36	0.68330705
221	0x3ef52783	0.47881708
222	0x3f1f5356	0.62236536
223	0x3f415915	0.75526553
224	0x3f562389	0.8364797
225	0x3e4d6836	0.20059285
226	0x3f17873d	0.5919073
227	0x3f2c88ee	0.6739644
228	0x3e4e0cb9	0.20122041
229	0x3f2010b0	0.62525463
230	0x3f5750e0	0.8410778
231	0x3f1b5116	0.606706
232	0x3eef3249	0.46718052
233	0x3ee6ff5b	0.45116696
234	0x3f6c859b	0.92391366
235	0xbe1b9323	-0.15192847
236	0x3f1c2bd6	0.6100439
237	0x3f75452d	0.9580868
238	0x3f0869ab	0.53286237
239	0xbe0e576e	-0.1390054
240	0x3fc035dd	1.5016438
241	0x3fd1e63d	1.6398388
242	0x3f2ced71	0.67549807
243	0x3eeea89b	0.4661301
244	0x3f0403a2	0.51568043
245	0xbe42068f	-0.18947814
246	0x3f69e434	0.91363835
247	0xbdafe79f	-0.085891
248	0x3f908eb8	1.1293554
249	0xbe0ddde5	-0.13854177
250	0x3f303323	0.6882803
251	0x3ee23315	0.44179597
252	0x3f032abc	0.5123708
253	0x3f45fd5c	0.7733972
254	0x3f089713	0.5335552
255	0x3f369845	0.71326095

layers.3.bias f4 [256]
0	0x3e3a08aa	0.18167368
1	0x3e826826	0.25470084
2	0x3e624753	0.2209752
3	0x3e41fded	0.18944521
4	0x3de7f6d5	0.11326376
5	0x3e0ccfa0	0.13751078
6	0xbd3ee952	-0.04660923
7	0xbe1b9b9c	-0.15196079
8	0x3e3504e0	0.17677641
9	0x3ef98813	0.4873663
10	0x3e9e41d6	0.30909604
11	0x3f0bf1f9	0.54666096
12	0x3e02568a	0.12728325
13	0x3ebbca3a	0.36677724
14	0x3dbcf4f6	0.0922641
15	0x3de6c55f	0.11268114
16	0x3e7eda87	0.24888049
17	0x3f416c5b	0.7555596
18	0x3c01e868	0.007928945
19	0x3cfd3b27	0.030911995
20	0x3ec0d303	0.3766099
21	0x3d3f99a2	0.046777375
22	0x3f066728	0.52501154
23	0x3c949737	0.018138511
24	0x3dfed1ba	0.12442346
25	0x3e744541	0.23854543
26	0x3e73b535	0.23799594
27	0x3ef75d47	0.48313352
28	0x3e4ffbf7	0.2031096
29	0x3de7fcaa	0.11327489
30	0x3d4b42d3	0.049624275
31	0x3d689d95	0.056790907
32	0x3ec54b2f	0.38533923
33	0x3ede1cbd	0.433813
34	0xbe25af53	-0.16180162
35	0x3f00d4f7	0.5032496
36	0x3cae5572	0.021280978
37	0x3e90058c	0.28129232
38	0xbde7be0a	-0.11315544
39	0x3e4507b6	0.19241223
40	0x3e6ea690	0.23305726
41	0x3ea6dba6	0.32589453
42	0x3e70a906	0.23501977
43	0x3f0ec62a	0.55771124
44	0x3dc50949	0.09620912
45	0x3e3be6bc	0.18349737
46	0x3ea0a09f	0.31372544
47	0xbcc01a07	-0.02344991
48	0x3f092802	0.5357667
49	0x3eb49691	0.35271123
50	0x3e9bf5c4	0.30460942
51	0x3e91e091	0.28491643
52	0x3e3a2e69	0.18181767
53	0xbdca9dc4	-0.09893373
54	0xbb5f81fd	-0.0034104579
55	0x3eccdc0f	0.4001164
56	0x3cc05048	0.023475781
57	0x3ddb539a	0.10709305
58	0x3e6347bc	0.22195333
59	0x3ed1cdc9	0.40977314
60	0x3e7fcb53	0.24979906
61	0x3f804f9f	1.0024298
62	0xbe722630	-0.2364738
63	0x3f1e285a	0.6178032
64	0xbab5cf03	-0.0013870898
65	0xbd4474e0	-0.047963023
66	0x3efcce6f	0.49376246
67	0x3d7e7903	0.062127125
68	0x3e5b5a8f	0.21421264
69	0xbdc649b0	-0.096820235
70	0x3a94f62c	0.0011364869
71	0x3e89df66	0.26928252
72	0x3dea85bb	0.11451288
73	0x3d788c6f	0.060680803
74	0xbd8067ec	-0.062698215
75	0xbd551b51	-0.052028004
76	0x3eda3e19	0.42625502
77	0xbe41a038	-0.18908775
78	0x3e97f6fa	0.29680616
79	0x3d65a458	0.056064934
80	0x3e91cc90	0.2847638
81	0x3e8739c9	0.26411274
82	0x3cdd0baa	0.0269831
83	0x3d13d022	0.036087163
84	0x3efeb2f4	0.49745905
85	0xbeef6939	-0.46759966
86	0xbe33a36a	-0.17542806
87	0xbdf66fbf	-0.120330326
88	0xbe832f80	-0.25622177
89	0x3e493822	0.19650319
90	0x3e4cfcb5	0.20018275
91	0x3d1794c1	0.037007097
92	0xbd878fe8	-0.06619245
93	0x3dffc41e	0.12488578
94	0x3c9d9d71	0.019240113
95	0x3da8a756	0.08235042
96	0x3e92d5ec	0.28678834
97	0xbee47942	-0.44623762
98	0x3e0575d2	0.13033226
99	0xbd3000d5	-0.042969543
100	0x3ed63dda	0.41844064
101	0xbcecb6be	-0.028895732
102	0x3f693dc1	0.91109854
103	0x3e34cc7a	0.17656127
104	0x3ee6c5a5	0.45072666
105	0xbe258ff7	-0.161682
106	0x3f175bea	0.59124625
107	0x3e32cf6c	0.17461938
108	0x3e786a6c	0.24259347
109	0x3e8bb3e1	0.27285674
110	0x3f566141	0.8374215
111	0xbebc1ac1	-0.36739162
112	0x3d06340e	0.032764487
113	0x3f65c8c6	0.8975948
114	0xbd753a4d	-0.059870053
115	0xbd131b49	-0.035914693
116	0xbf61cec4	-0.88206124
117	0x3e9096e9	0.28240135
118	0xbc69f2bb	-0.014279063
119	0x3e936781	0.28789905
120	0x3e79f439	0.2440957
121	0x3eaa7f2f	0.33300158
122	0x3d48068b	0.048834365
123	0xbdda2715	-0.106519856
124	0x3df65b80	0.12029171
125	0x3d020a20	0.031747937
126	0xbde4691b	-0.1115286
127	0x3ec7866c	0.38969743
128	0x3f45126e	0.76981246
129	0x3df6e3c0	0.120551586
130	0xbdc52f24	-0.09628132
131	0x3e3ac816	0.18240389
132	0x3d627b23	0.055293214
133	0x3eb7255b	0.35770687
134	0x3f028a7c	0.5099256
135	0x3e549a71	0.2076204
136	0x3e7f861f	0.24953507
137	0x3e1b4ff7	0.15167223
138	0xbe43a278	-0.19104946
139	0x3da1be40	0.078976154
140	0x3ee57dfa	0.44822675
141	0xbdfe665f	-0.124218695
142	0xbe8fa372	-0.28054386
143	0x3d8487e7	0.06471234
144	0x3ea2e572	0.31815678
145	0x3e93db84	0.28878415
146	0xbcb64db0	-0.022253841
147	0xbda7311f	-0.08163666
148	0x3da50eb1	0.08059443
149	0x3eaa3f93	0.33251628
150	0x3e8ae40e	0.27127117
151	0x3e994809	0.2993777
152	0xbebac537	-0.36478588
153	0x3d821a4d	0.06352673
154	0x3e6df1ed	0.23236819
155	0x3e8cbac7	0.2748625
156	0x3e10a86c	0.14126748
157	0x3ed18102	0.40918738
158	0x3ea0a033	0.31372222
159	0x3dc5d324	0.096594125
160	0x3c9db382	0.019250635
161	0x3e76afd8	0.24090517
162	0x3e11ff52	0.14257553
163	0x3e8eb28b	0.27870592
164	0xbb88a663	-0.0041702255
165	0x3ed43ab0	0.41451025
166	0x3f075e1c	0.52877975
167	0x3f0f229a	0.5591217
168	0x3e6c64b4	0.2308529
169	0x3d6ba33d	0.057528723
170	0x3e33b75f	0.1755042
171	0x3d336735	0.043799598
172	0x3d8d46b5	0.06898252
173	0x3dcbe903	0.09956553
174	0x3e99d079	0.30041865
175	0xbf10137d	-0.56279737
176	0xbcfba3c6	-0.030717742
177	0x3d8e2c18	0.06942004
178	0x3ef6d0ca	0.48206168
179	0x3d54a167	0.051911738
180	0x3d3deba5	0.046367306
181	0x3e33d4c4	0.17561632
182	0x3f5799f8	0.8421931
183	0x3e0c11ff	0.1367874
184	0xbe5e395c	-0.21701568
185	0x3d897f0a	0.06713684
186	0x3dd57e2f	0.10424458
187	0x3e275e36	0.16344532
188	0x3e9ea0ee	0.30982155
189	0xbc822748	-0.015887871
190	0x3ed89a0f	0.42305037
191	0x3e83d1cf	0.2574601
192	0x3dff093c	0.12452933
193	0x3f05a108	0.5219884
194	0x3e98de55	0.29857126
195	0x3d9aedba	0.07564874
196	0x3eb5d86e	0.35516685
197	0x3de6ee22	0.11275889
198	0x3e4811fc	0.1953811
199	0x3ec54343	0.3852788
200	0x3ecb9b49	0.3976691
201	0x3e3dd294	0.1853736
202	0x3e09422d	0.1340415
203	0x3dce3a62	0.100697294
204	0x3e9976a9	0.29973343
205	0x3e7e0241	0.24805547
206	0xba8c40bd	-0.0010700446
207	0x3ea7a72b	0.32744727
208	0x3ed2080e	0.4102177
209	0x3eede3f6	0.46462983
210	0x3eb7070a	0.35747558
211	0x3df8e2a9	0.12152607
212	0xbd834b5c	-0.06410858
213	0x3ed981e1	0.42481902
214	0x3c712baf	0.014719888
215	0x3e868b50	0.26278162
216	0x3cc6cc59	0.024267362
217	0x3d11196a	0.035424627
218	0x3ee5b161	0.44861892
219	0x3f810454	1.0079446
220	0x3ea778be	0.32709306
221	0x3f031e89	0.5121847
222	0x3d8116cf	0.063031785
223	0x3e132f5f	0.1437354
224	0xbe664685	-0.22487839
225	0xbd46c4e5	-0.048527617
226	0x3e33a76a	0.17544332
227	0x3d55b08f	0.052170333
228	0x3f588eb5	0.84592754
229	0x3e9aadab	0.30210623
230	0x3ec8ce08	0.3921969
231	0xbe904337	-0.2817628
232	0x3e4adc08	0.19810498
233	0x3e1ab3a7	0.15107594
234	0xbc1669e7	-0.0091805225
235	0xbeab1062	-0.33410937
236	0x3eaec5f8	0.34135413
237	0x3ed01d6b	0.40647444
238	0x3ee96146	0.45582026
239	0x3ef5975a	0.47967035
240	0x3cf785ee	0.03021523
241	0x3e804aae	0.25056976
242	0x3eb6f0c7	0.35730574
243	0xbe4f4757	-0.20242058
244	0xbdcefe43	-0.1010709
245	0xbda07fcb	-0.078368746
246	0x3f0bef56	0.5466207
247	0x3e076804	0.13223273
248	0x3ea6a2f0	0.32546186
249	0x3f2450a4	0.6418555
250	0x3f2d4e40	0.67697525
251	0xbe027fd2	-0.12744072
252	0x3e1500fe	0.1455116
253	0x3e6643fd	0.22486873
254	0x3ee243b6	0.44192284
255	0x3f05aea5	0.5221961

layers.3.running_mean f4 [256]
0	0x3de0ed5d	0.109827735
1	0x3fb7c06a	1.4355595
2	0x3afbe0f2	0.0019216819
3	0x3f2c11a6	0.6721443
4	0x3e89cd82	0.26914603
5	0x3ac67e94	0.0015143924
6	0x3dab6fc9	0.08370931
7	0x3e585dbc	0.21129507
8	0x3d6399dc	0.055566654
9	0x3d864873	0.06556787
10	0x3f07dd4a	0.53072035
11	0x3f1bd589	0.60872704
12	0x3cdd9f3f	0.027053474
13	0x3ea7133f	0.3263187
14	0x3a72e12c	0.00092651206
15	0x3e0685ff	0.13137053
16	0x3d400b62	0.046885855
17	0x3e40de70	0.18834853
18	0x00000004	6e-45
19	0x3dd7abc7	0.10530811
20	0x00000004	6e-45
21	0x3a700c31	0.000915709
22	0x3d0872a5	0.03331246
23	0x3d57f40c	0.052722976
24	0x3d414fda	0.047195293
25	0x3e1b3930	0.15158534
26	0x3e763d17	0.24046741
27	0x3ccf3868	0.025295451
28	0x3dcb822f	0.0993694
29	0x3dae5755	0.08512751
30	0x3ade7afa	0.0016973906
31	0x3bb82057	0.0056190896
32	0x3e6318ab	0.22177379
33	0x3e71ebb2	0.23625067
34	0x3887ec05	6.481264e-05
35	0x3d402d68	0.046918303
36	0x3ee07ecb	0.43846735
37	0x004724d1	6.533527e-39
38	0x3d95b8ed	0.073106624
39	0x3f298c6a	0.6622988
40	0x00000004	6e-45
41	0x3cc11f8a	0.02357461
42	0x3ea8c159	0.32960013
43	0x3eb71ebb	0.35765633
44	0x3e0164d4	0.12636119
45	0x3f00b8bd	0.5028189
46	0x3bc308b4	0.005951965
47	0x00000004	6e-45
48	0x3ddbb94c	0.10728702
49	0x3e8dabe5	0.27670208
50	0x3e3d2e1f	0.18474625
51	0x3f273693	0.6531765
52	0x3c4a99d7	0.01236578
53	0x3e681531	0.22664334
54	0x3ca75e3f	0.020430682
55	0x3da431ce	0.08017312
56	0x3d0ef7a9	0.034904156
57	0x00000004	6e-45
58	0x3ccb75d6	0.024836462
59	0x3ef9b9c7	0.4877455
60	0x35062c37	4.998323e-07
61	0x3e333bb5	0.17503245
62	0x3e3b3f1e	0.18285796
63	0x3ed17527	0.40909693
64	0x3ec38e16	0.3819434
65	0x3dad4542	0.084604755
66	0x3f5957cc	0.8489959
67	0x00000004	6e-45
68	0x3ef1afae	0.47204345
69	0x3dba9da5	0.091120996
70	0x3dd27dae	0.10277878
71	0x3bbc5ede	0.0057486137
72	0x3cb1ba16	0.021695178
73	0x3e1bdc73	0.15220813
74	0x3caa8624	0.020815916
75	0x00000004	6e-45
76	0x3e9367b1	0.28790048
77	0x3d1d214e	0.03836184
78	0x3ca078c6	0.01958884
79	0x00000004	6e-45
80	0x3cd997dd	0.026561672
81	0x3df6dbbe	0.12053631
82	0x3a471f88	0.0007595946
83	0x3f15c5ee	0.5850514
84	0x3d9b84d5	0.07593695
85	0x3f2ac9b2	0.6671401
86	0x3e00a535	0.12563021
87	0x3dc74d84	0.09731582
88	0x3a5f5c10	0.0008520493
89	0x3ee54e8e	0.44786495
90	0x00000004	6e-45
91	0x00000004	6e-45
92	0x3b9d4833	0.0047998666
93	0x3ef31d68	0.47483373
94	0x3e8fdd46	0.28098506
95	0x3f208264	0.6269896
96	0x3e7e2e61	0.2482238
97	0x3d9c07e2	0.07618691
98	0x3e1cde37	0.15319143
99	0x00000004	6e-45
100	0x3e3b2dfe	0.18279263
101	0x3c851a24	0.016247816
102	0x00000004	6e-45
103	0x3e89bf05	0.2690355
104	0x3e8423c1	0.25808528
105	0x3d03b4c7	0.032154825
106	0x3c6eb11b	0.014568592
107	0x3dd14a2e	0.10219227
108	0x3f13b6dd	0.577009
109	0x3e3dd769	0.18539204
110	0x3c294925	0.01033238
111	0x3d87d08d	0.06631575
112	0x3ce0f3e6	0.02746005
113	0x3e250494	0.16115028
114	0x3e9472d7	0.28993866
115	0x3e19da66	0.15024719
116	0x3e34f586	0.17671785
117	0x3ebf3a98	0.3734939
118	0x00000004	6e-45
119	0x3e90a15d	0.2824811
120	0x3f669d36	0.90083635
121	0x3e88cc25	0.2671825
122	0x3994b402	0.00028362876
123	0x3d33154e	0.04372149
124	0x3dda15d0	0.10648692
125	0x3e82c00b	0.25537142
126	0x3e89209a	0.26782686
127	0x3e0efced	0.13963671
128	0x3c267236	0.010159066
129	0x3c557856	0.013029179
130	0x3d789f90	0.060699046
131	0x3d1dcca8	0.038525254
132	0x00000004	6e-45
133	0x3dd617a1	0.104537256
134	0x3d789c61	0.06069601
135	0x3ec91d81	0.39280322
136	0x3ecae63c	0.3962878
137	0x3de0ea93	0.109822415
138	0x2def8a23	2.72325e-11
139	0x3e8ae9d1	0.27131513
140	0x3f402311	0.7505351
141	0x3e18e81d	0.14932294
142	0x3e42af21	0.19012119
143	0x3ce4ea7f	0.027943848
144	0x3f0281bb	0.50979203
145	0x3cfa712f	0.030571548
146	0x00000004	6e-45
147	0x3ee04f9e	0.43810743
148	0x3eceed28	0.4041531
149	0x3cb71b89	0.022351997
150	0x3d062b1a	0.03275595
151	0x3e9ad832	0.3024307
152	0x3c95ac67	0.018270684
153	0x3cbf7798	0.023372456
154	0x3d8883ef	0.06665789
155	0x3d136b98	0.03599128
156	0x3b6b621b	0.003591663
157	0x3e2143d8	0.15748537
158	0x3c203595	0.0097784
159	0x3e7dc648	0.2478267
160	0x3c4563a5	0.012047683
161	0x3e5f15ad	0.21785612
162	0x3e2c1800	0.1680603
163	0x3eb5a73b	0.3547915
164	0x00000004	6e-45
165	0x3d3147bc	0.0432813
166	0x3e66335a	0.22480527
167	0x3ddc0d54	0.1074473
168	0x3f48e84b	0.7847945
169	0x3de86cd0	0.11348879
170	0x3c97bf14	0.01852373
171	0x388e7229	6.7923516e-05
172	0x3e84fe26	0.2597515
173	0x3d229d9a	0.03970108
174	0x3edcc468	0.43118596
175	0x3c374d6b	0.0111878915
176	0x00000004	6e-45
177	0x3e27bbd8	0.1638025
178	0x3d618b9d	0.055064786
179	0x3c768344	0.015045945
180	0x3c6a6adc	0.014307704
181	0x3e10a3d1	0.14124991
182	0x3d5e2c34	0.054241374
183	0x3dc92338	0.098211706
184	0x3f57883e	0.84192264
185	0x3f2915c6	0.6604885
186	0x00000004	6e-45
187	0x3e57fe01	0.21092989
188	0x3f447082	0.76734173
189	0x3efeebcb	0.4978927
190	0x3b573741	0.003283933
191	0x3f107385	0.5642627
192	0x3b8efa45	0.0043633305
193	0x3cf1a151	0.029495867
194	0x3d9e709f	0.077363245
195	0x3e2d8dbb	0.16948597
196	0x3e3c885d	0.18411393
197	0x3e440d30	0.19145656
198	0x3e9e6d1f	0.30942628
199	0x3d0a1350	0.033709824
200	0x3e610c2e	0.21977302
201	0x3f0bde11	0.5463572
202	0x3e73bd6d	0.23802729
203	0x00000004	6e-45
204	0x3da4f90a	0.08055313
205	0x3d78de5d	0.060758937
206	0x3da24bd9	0.07924623
207	0x00000004	6e-45
208	0x3ed284be	0.411169
209	0x3d3df679	0.046377633
210	0x3ea4fa2c	0.32222116
211	0x3e4600bd	0.19336219
212	0x3bf28657	0.0074012685
213	0x3edb2a32	0.4280563
214	0x00000004	6e-45
215	0x3df04f1a	0.117338374
216	0x00000004	6e-45
217	0x397e9278	0.00024277891
218	0x3f18bd1e	0.5966357
219	0x3f1716f1	0.5901938
220	0x3ceac89c	0.028660111
221	0x3cee8086	0.02911402
222	0x3e011f6d	0.12609644
223	0x3da4b10e	0.08041583
224	0x3e3f1c30	0.18663096
225	0x3e47f6d6	0.19527754
226	0x3cccaa2f	0.024983494
227	0x3da61b20	0.081106424
228	0x00000004	6e-45
229	0x3c8eb42a	0.017419893
230	0x3d2b46b4	0.041815475
231	0x3d1473f6	0.0362434
232	0x3e226f9b	0.15862887
233	0x3e48199d	0.1954102
234	0x00000004	6e-45
235	0x3b8e375c	0.0043400954
236	0x3e1a5462	0.15071252
237	0x3e02a8ee	0.12759754
238	0x3e1a45ad	0.15065642
239	0x3e2cefb4	0.16888314
240	0x3f301db6	0.68795335
241	0x3e871c34	0.26388705
242	0x3f1cb55a	0.6121422
243	0x3c37f7bd	0.011228499
244	0x3ca49e59	0.020095037
245	0x00000004	6e-45
246	0x3d896e33	0.06710472
247	0x3e472abb	0.19449894
248	0x3e829f38	0.255121
249	0x3ef67fed	0.48144475
250	0x3cd4049b	0.025881102
251	0x3dd1ad13	0.102380894
252	0x3e1926ab	0.14956157
253	0x3ecb6067	0.39721987
254	0x3f6318c7	0.8870968
255	0x3dec7f73	0.115477465

layers.3.running_var f4 [256]
0	0x3dbb2705	0.09138302
1	0x3f075953	0.5287067
2	0x3a1680b7	0.0005741226
3	0x3f7a9a14	0.97891355
4	0x3e4c22f2	0.19935206
5	0x393967d6	0.00017681657
6	0x3d364b86	0.04450562
7	0x3e1e80c2	0.15478805
8	0x3cf35158	0.029701874
9	0x3cfc3489	0.03078677
10	0x3eb22d78	0.34800315
11	0x3ea6cbca	0.32577354
12	0x3c343cea	0.011000851
13	0x3e5371b5	0.20648845
14	0x398efedf	0.00027274244
15	0x3dded476	0.108803675
16	0x3c70046d	0.014649493
17	0x3e18e73b	0.14931957
18	0x00000004	6e-45
19	0x3d9c49ed	0.07631288
20	0x00000004	6e-45
21	0x393c14fe	0.00017936897
22	0x3c2af636	0.010434678
23	0x3cc359f6	0.023846608
24	0x3c9e9cd9	0.0193619
25	0x3da8159b	0.08207246
26	0x3e362ae9	0.17789806
27	0x3c9e707f	0.019340752
28	0x3d9a95e7	0.07548123
29	0x3d1d05f6	0.038335763
30	0x3a16c1f2	0.0005750946
31	0x3b16c8be	0.0023007835
32	0x3e4fed19	0.2030529
33	0x3e02ea6e	0.1278474
34	0x382f0244	4.172536e-05
35	0x3c96ba30	0.018399328
36	0x3e06b693	0.13155584
37	0x0003580d	3.07093e-40
38	0x3d466512	0.048436232
39	0x3ec52d7a	0.38511258
40	0x00000004	6e-45
41	0x3c1c0202	0.009521963
42	0x3e16fcff	0.14744948
43	0x3ea53aa2	0.32271296
44	0x3d63ad1b	0.055585008
45	0x3e76dd42	0.2410784
46	0x3b00572f	0.0019583215
47	0x00000004	6e-45
48	0x3d3a2566	0.045445822
49	0x3e4f396e	0.20236751
50	0x3e52363c	0.20528501
51	0x3f50e7ad	0.8160351
52	0x3b3fcd48	0.0029266644
53	0x3e4e411d	0.20142026
54	0x3ba1c87d	0.00493723
55	0x3d8a71fb	0.06760021
56	0x3c503c19	0.012709641
57	0x00000004	6e-45
58	0x3bf83e70	0.0075758025
59	0x3f01b837	0.50671715
60	0x34053f87	1.2409701e-07
61	0x3d9430b4	0.07235852
62	0x3de8a02b	0.113586746
63	0x3e9314e2	0.2872687
64	0x3e4ddc07	0.20103465
65	0x3d245b5e	0.040126197
66	0x3f1ae213	0.6050121
67	0x00000004	6e-45
68	0x3e9d91de	0.3077535
69	0x3d7584e9	0.059941206
70	0x3d84f58f	0.06492149
71	0x3ac54e06	0.001505316
72	0x3c2eb16f	0.010662421
73	0x3da1c83b	0.07899519
74	0x3bcfcbf0	0.00634145
75	0x00000004	6e-45
76	0x3e2f519b	0.17120974
77	0x3c9cda67	0.019147111
78	0x3bda84a6	0.006668645
79	0x00000004	6e-45
80	0x3be57ce1	0.007003412
81	0x3d95543c	0.07291457
82	0x398c966a	0.00026814948
83	0x3f217ed8	0.63084173
84	0x3cc616b8	0.024180755
85	0x3ebf86d2	0.37407547
86	0x3d6eb087	0.05827382
87	0x3d923a11	0.071399815
88	0x397a414e	0.00023866186
89	0x3ed2948a	0.4112895
90	0x00000004	6e-45
91	0x00000004	6e-45
92	0x3ac889f9	0.0015299908
93	0x3e3c7895	0.18405373
94	0x3e5961a4	0.21228653
95	0x3ee606fc	0.44927204
96	0x3e576047	0.2103282
97	0x3d4592cb	0.048235696
98	0x3d61e42e	0.05514925
99	0x00000004	6e-45
100	0x3dd0417e	0.10168742
101	0x3bdb2654	0.0066879187
102	0x00000004	6e-45
103	0x3e261073	0.16217212
104	0x3e2c9702	0.1685448
105	0x3c87fb8a	0.016599435
106	0x3b41a802	0.0029549603
107	0x3d825a5f	0.06364893
108	0x3ec2757a	0.37980253
109	0x3d9e681a	0.077346995
110	0x3b49c693	0.0030788525
111	0x3d23084d	0.039802838
112	0x3be7fe0b	0.007079845
113	0x3ddc552c	0.10758433
114	0x3e2a7299	0.16645278
115	0x3deec46c	0.11658558
116	0x3dfe20ab	0.12408575
117	0x3e724c7c	0.23661989
118	0x00000004	6e-45
119	0x3e2e7b5b	0.17039244
120	0x3f186e5d	0.595434
121	0x3e0340e0	0.12817717
122	0x385ce57c	5.266581e-05
123	0x3cc62d99	0.024191665
124	0x3d5551fe	0.052080147
125	0x3dd21a09	0.10258872
126	0x3e8ef6b2	0.2792259
127	0x3dae12d3	0.08499684
128	0x3b744515	0.0037272621
129	0x3b80554f	0.0039164196
130	0x3cd132d9	0.025536941
131	0x3c96df5e	0.018417057
132	0x00000004	6e-45
133	0x3d3e7d9b	0.046506505
134	0x3d2963fb	0.041355114
135	0x3eb626a6	0.3557636
136	0x3e518ea1	0.20464565
137	0x3db2129c	0.08694956
138	0x2d5b959d	1.24819296e-11
139	0x3e322c88	0.173998
140	0x3eb7b80b	0.358826
141	0x3d85337a	0.06503959
142	0x3db9f982	0.09080793
143	0x3c087981	0.00832975
144	0x3e909893	0.28241405
145	0x3c10926f	0.008823975
146	0x00000004	6e-45
147	0x3e51ce84	0.20488936
148	0x3e8c2443	0.27371415
149	0x3c0a348e	0.008435382
150	0x3c8155b0	0.01578793
151	0x3e4aece1	0.19816925
152	0x3c1aeed0	0.009456351
153	0x3c23d73b	0.010000045
154	0x3cbbfbdf	0.02294725
155	0x3c6a6d0e	0.014308227
156	0x3a536c07	0.00080651086
157	0x3e017326	0.12641582
158	0x3b2f0675	0.002670673
159	0x3e64c010	0.22338891
160	0x3be955fa	0.007120845
161	0x3dc16d18	0.09444636
162	0x3debb240	0.11508608
163	0x3e4f48bb	0.20242588
164	0x00000004	6e-45
165	0x3c7845cd	0.015153361
166	0x3ddc78f3	0.10765257
167	0x3d8bb292	0.06821169
168	0x3e969ba2	0.29415613
169	0x3cf19cc6	0.0294937
170	0x3bcc8499	0.006241393
171	0x36b4d6b4	5.3894128e-06
172	0x3d9684eb	0.07349571
173	0x3c079ea8	0.008277573
174	0x3eb5440b	0.35403475
175	0x3b75039b	0.0037386182
176	0x00000004	6e-45
177	0x3de98f69	0.114043064
178	0x3ccf71fa	0.025322903
179	0x3bc1c390	0.0059132054
180	0x3ba7c12d	0.005119464
181	0x3db149cf	0.08656656
182	0x3cf2847f	0.029604195
183	0x3d4a6bc5	0.049419183
184	0x3ea8065a	0.32817346
185	0x3effe37d	0.49978247
186	0x00000004	6e-45
187	0x3dbf45c6	0.0933948
188	0x3e4268d9	0.18985309
189	0x3e85ac29	0.2610791
190	0x39c4f81a	0.00037568883
191	0x3f2307ba	0.63683665
192	0x3a9f439c	0.0012150886
193	0x3c43b59b	0.011945154
194	0x3d49e23d	0.049288023
195	0x3d970066	0.07373123
196	0x3de86f31	0.11349333
197	0x3de0370b	0.109479986
198	0x3e7a77e2	0.24459794
199	0x3c84aa48	0.016194478
200	0x3dfce682	0.123486534
201	0x3e79f042	0.24408057
202	0x3e16bf89	0.14721502
203	0x00000004	6e-45
204	0x3d209579	0.03920505
205	0x3ca6dfc8	0.02037038
206	0x3d1c490c	0.0381556
207	0x00000004	6e-45
208	0x3e7ea86d	0.24868937
209	0x3ca56be1	0.020193042
210	0x3eb66a16	0.35627812
211	0x3dc9d78f	0.09855568
212	0x3ae3e1d0	0.0017386023
213	0x3e35ef7c	0.17767137
214	0x00000004	6e-45
215	0x3dc281b5	0.09497396
216	0x00000004	6e-45
217	0x38fb3a0a	0.00011979423
218	0x3ed948c5	0.4243833
219	0x3ea03aca	0.31294852
220	0x3c204508	0.009782083
221	0x3c056460	0.008141607
222	0x3da00799	0.07813949
223	0x3d137536	0.036000453
224	0x3daf6bb3	0.08565464
225	0x3df083d6	0.11743896
226	0x3c88cba9	0.016698675
227	0x3d99b76f	0.0750569
228	0x00000004	6e-45
229	0x3bf911db	0.0076010055
230	0x3ca25aae	0.01981863
231	0x3caded15	0.021231214
232	0x3dca9279	0.09891219
233	0x3da2bb57	0.079458885
234	0x00000004	6e-45
235	0x3b0bf554	0.0021355944
236	0x3dc004c6	0.093759105
237	0x3d7c5b17	0.061610308
238	0x3dc0fde4	0.09423426
239	0x3e44ceae	0.19219467
240	0x3e0b6db3	0.13616066
241	0x3d396b0a	0.045268096
242	0x3df970c9	0.12179715
243	0x3b845e4f	0.004039563
244	0x3bd09127	0.0063649598
245	0x00000004	6e-45
246	0x3cc22594	0.02369956
247	0x3e08b4ce	0.13350222
248	0x3dcf850e	0.101328
249	0x3e979a59	0.29609945
250	0x3c8f3ede	0.017486032
251	0x3dcd1363	0.10013463
252	0x3dcf85e1	0.10132957
253	0x3eecdd8f	0.46262786
254	0x3eeff9e7	0.46870348
255	0x3d9e5e20	0.07732797

layers.4.weight f4 [256, 256]
0	0xbeb24df6	-0.34825104
1	0x3c28097d	0.010256168
2	0xbce12e74	-0.02748797
3	0xbf0139c6	-0.5047878
4	0x3f21239e	0.6294497
5	0xbd92cb7f	-0.0716772
6	0xbec18a24	-0.37800705
7	0xbcc9bd7e	-0.02462649
8	0xbe6fe902	-0.23428729
9	0xbda087ca	-0.078384
10	0xbeb7c2ac	-0.3589071
11	0x3e5ba0aa	0.21448007
12	0xbd6b2230	-0.05740565
13	0xbe8f06ba	-0.2793482
14	0xbd796824	-0.060890332
15	0xbe7b36de	-0.24532649
16	0x3e1c3411	0.15254237
17	0x3dc0ed95	0.09420315
18	0x3da5e627	0.08100539
19	0x3e80f738	0.25188613
20	0xbe0175a7	-0.12642537
21	0x3cf17a01	0.029477121
22	0xbe6e77b1	-0.23287846
23	0x3ec868fa	0.3914259
24	0xbef3296f	-0.4749255
25	0xbe973eb7	-0.29540035
26	0x3e7a79e4	0.2446056
27	0xbe872f9a	-0.26403505
28	0xbe2f1579	-0.17098035
29	0xbe569540	-0.20955372
30	0x3e95f907	0.29291555
31	0x3dc4e49b	0.096139155
32	0xbee06b6a	-0.4383195
33	0xbe6a3dfb	-0.22875206
34	0x3dd30962	0.10304524
35	0xbe1a9586	-0.15096101
36	0x3e248fac	0.16070431
37	0xbe09087b	-0.13382141
38	0x3ecfb454	0.40567267
39	0xbef06a39	-0.4695604
40	0x3eab7c71	0.3349338
41	0x3cc36470	0.023851603
42	0xbd445525	-0.047932763
43	0xbc329633	-0.010900068
44	0xbda02a4e	-0.07820569
45	0x3e9d90b5	0.30774465
46	0x3c06f5c4	0.008237306
47	0x3e97f874	0.29681742
48	0x3ebff189	0.37488964
49	0xbf1886a3	-0.5958044
50	0x3e5de263	0.21668391
51	0xbf36c1ca	-0.7138945
52	0xbe2355b4	-0.15950662
53	0xbdb5b586	-0.088725135
54	0x3d6ce785	0.05783798
55	0xbdf6f872	-0.12059106
56	0xbe8ca7d3	-0.2747179
57	0x3e052afd	0.1300468
58	0xbe6ea547	-0.23305236
59	0xbf2dc812	-0.6788341
60	0xbe83e504	-0.25760663
61	0x3de15ab5	0.11003629
62	0xbe54f0cb	-0.2079498
63	0x3c2bd10e	0.010486854
64	0xbea7750c	-0.32706487
65	0x3e9cfbd7	0.3066089
66	0x3da5700d	0.080780126
67	0x3cd2fa7f	0.025754211
68	0x3d65970a	0.056052245
69	0xbe2eeb63	-0.1708198
70	0x3ef6ffb1	0.48241952
71	0x3df49fed	0.11944566
72	0xbf1022ad	-0.5630291
73	0xbe3663ba	-0.1781148
74	0xbc794d5f	-0.015216201
75	0x3d25b7e3	0.04045857
76	0xbe1db124	-0.15399605
77	0xbdcb7aa3	-0.099355005
78	0xbe4277d1	-0.18991019
79	0xbca904e2	-0.020632211
80	0xbe7c7d05	-0.24657066
81	0xbc9c08fd	-0.019047255
82	0xbdd3b545	-0.10337309
83	0x3e3aea0c	0.18253344
84	0x3dd42dc1	0.10360289
85	0xbd00617e	-0.031342976
86	0x3d6de452	0.05807907
87	0xbc6582c4	-0.014008228
88	0xbe92e8d8	-0.2869327
89	0xbdc70cb8	-0.09719223
90	0xbdd78e36	-0.105251715
91	0xbe18a281	-0.1490574
92	0x3ed9a203	0.42506418
93	0x3dfaef65	0.12252692
94	0xbe113d49	-0.14183535
95	0xbe564322	-0.20924047
96	0x3d6a7bc7	0.05724695
97	0xbdabc041	-0.08386279
98	0xbd7a6c8d	-0.06113868
99	0xbecba5e1	-0.39774993
100	0xbf2142a3	-0.62992305
101	0xbd71da11	-0.059045855
102	0xbced17b9	-0.028941976
103	0xbec7f81e	-0.39056486
104	0xbec47f47	-0.38378355
105	0xbee6e063	-0.45093068
106	0xbedac628	-0.42729306
107	0xbdb438a0	-0.08799863
108	0x3e3a6a15	0.1820453
109	0xbeb34e82	-0.35020834
110	0x3dc73942	0.09727718
111	0xbe88172e	-0.26580185
112	0x3b3ed21c	0.0029116934
113	0x3d657da2	0.056028016
114	0x3d87a279	0.06622786
115	0xbcf1495c	-0.029453926
116	0xbd541582	-0.051778324
117	0x3e4c1700	0.19930649
118	0xbe1a1199	-0.15045775
119	0xbf1bd72d	-0.6087521
120	0xbe9b24ed	-0.3030161
121	0xbc8c978f	-0.017162113
122	0x3bdba1c0	0.0067026317
123	0xbf4f03a7	-0.8086495
124	0xbea1202a	-0.31469852
125	0x3e9b76ea	0.30364162
126	0x3e1957b6	0.14974865
127	0xbdf1d795	-0.11808697
128	0x3e0cc229	0.13745941
129	0x3e2fcdf6	0.17168412
130	0x3ee3e46d	0.44510213
131	0x3d5e392a	0.054253735
132	0xbe09206d	-0.13391276
133	0xbea57533	-0.32315978
134	0x3e039497	0.12849651
135	0xbea27f28	-0.31737638
136	0x3ef503d3	0.4785448
137	0xbeb41d28	-0.35178494
138	0xbee36cc1	-0.4441891
139	0xbe0bcbc6	-0.13651952
140	0x3cca2b42	0.02467883
141	0x3e2f3959	0.1711172
142	0x3d998480	0.074959755
143	0x3ae00306	0.0017090745
144	0xba5b2f2f	-0.0008361218
145	0xbf12c4e9	-0.5733171
146	0x3ea5905a	0.32336694
147	0x3e187f50	0.14892316
148	0x3ddf7229	0.10910446
149	0xbe7f1550	-0.24910474
150	0x3e3bea76	0.18351158
151	0x3a4ff571	0.0007932997
152	0xbea82c70	-0.32846403
153	0xbdfa9ae5	-0.12236575
154	0x3c65915c	0.014011707
155	0xbedef3af	-0.4354529
156	0x3df79ef5	0.120908655
157	0x3d5a44f3	0.05328841
158	0x3e4a0ac9	0.19730677
159	0xbeaf9261	-0.34291366
160	0xbe935918	-0.2877891
161	0x3e81092d	0.25202313
162	0xbe8ba9c3	-0.27277955
163	0x3d321c2b	0.043483894
164	0x3da19014	0.07888809
165	0xbe79da9d	-0.243998
166	0x3e9a596b	0.30146345
167	0x3e0741dd	0.13208719
168	0x3eb412fc	0.35170734
169	0xba7dbcbc	-0.00096793077
170	0x3f0b6d9a	0.54464114
171	0xbd59a94e	-0.053139977
172	0xbe9f7c7f	-0.3114967
173	0xbf77d4a5	-0.96808845
174	0xbd9ca2c3	-0.07648232
175	0xbe9360d4	-0.28784811
176	0xbe02d33a	-0.12775889
177	0xbebaf631	-0.36515954
178	0x3cb84b4e	0.022496846
179	0xbd27971c	-0.040915594
180	0xbeb3b265	-0.35097042
181	0xbde4b7ec	-0.11167893
182	0xbd8e2de3	-0.06942346
183	0x3c59d359	0.013295018
184	0xbe4e9a91	-0.2017615
185	0xbdde1c42	-0.108452335
186	0xbe6c5154	-0.23077899
187	0x3d716a61	0.05893934
188	0xbe32f5b0	-0.17476535
189	0x3ead5b78	0.33858848
190	0x3e706945	0.23477657
191	0xbd548f77	-0.05189463
192	0xbe76c9f2	-0.24100474
193	0xbe7a9802	-0.24472049
194	0x3dee348d	0.11631117
195	0xbe4cd024	-0.20001274
196	0x3d4784ad	0.048710514
197	0xbdf0d894	-0.11760059
198	0xbdf4149b	-0.11917993
199	0x3e214593	0.15749197
200	0xbea2072a	-0.3164609
201	0xbea4a223	-0.3215495
202	0xbd2ee303	-0.042696964
203	0x3ee758e6	0.45185012
204	0x3f03e848	0.5152631
205	0x3e25ed64	0.16203839
206	0xbe873b77	-0.26412556
207	0x3de285c1	0.11060668
208	0xbda811c9	-0.08206517
209	0xbdcf9ce5	-0.10137347
210	0xbe589a10	-0.2115252
211	0x3ca3eb19	0.020009564
212	0x3dcf3df8	0.101192415
213	0x3dfc5c67	0.12322312
214	0x3d525697	0.05135211
215	0xbe4bd3ec	-0.1990506
216	0x3d982dd4	0.07430616
217	0x3d6ae7af	0.057349857
218	0xbec22d30	-0.379251
219	0x3dab638d	0.08368597
220	0xbe54d730	-0.20785213
221	0xbddd3e82	-0.10802938
222	0xbf01956f	-0.5061864
223	0xbea5a155	-0.3234965
224	0xbef2da6f	-0.47432277
225	0x3dc16a2e	0.0944408
226	0x3dd8c57f	0.105845444
227	0xbd416f9a	-0.047225572
228	0x3d85befa	0.065305665
229	0x3e609a15	0.21933778
230	0xbf3060d3	-0.6889774
231	0xbe01c398	-0.1267227
232	0xbef79948	-0.48359132
233	0x3e534dff	0.20635222
234	0xbd20e5a7	-0.039281514
235	0xbe03af66	-0.12859878
236	0xbf1549cd	-0.58315736
237	0xbf23bcb5	-0.6395982
238	0x3e2edf16	0.17077288
239	0x3e08151c	0.13289303
240	0xbee8ce3a	-0.45469838
241	0x3f3b214e	0.73097694
242	0xbf300e68	-0.6877198
243	0x3c1bb7d9	0.009504282
244	0xbe7543fd	-0.23951717
245	0xbe49188c	-0.1963827
246	0xbf13a4b5	-0.576732
247	0x3bda7600	0.0066668987
248	0x3e3258c2	0.17416671
249	0xbe09970c	-0.13436526
250	0xbdffa7ac	-0.12483153
251	0x3e179c70	0.1480577
252	0xbdbeec6d	-0.093224384
253	0xbf2d965c	-0.67807555
254	0x3d69a3fd	0.057041157
255	0xbd4c66bf	-0.049902674
