c_current.pth (torch_old, 719368 bytes, 17 tensors)

state_fs.0.weight f4 [472, 24]
0.11733155 0.33401826 0.13122761 -0.039631087 -0.10003898 -0.08675426 0.0015336316 0.1852794
0.1504626 0.32005796 -0.31418315 0.30924484 0.22950076 -0.081872135 -0.31086093 0.29710037
0.22314803 0.25990838 0.13640045 -0.28477266 -0.17804743 -0.10846816 0.110002406 -0.015104597
0.4879814 0.32434386 -0.117054425 0.4058528 0.21460968 -0.20135154 -0.19206925 0.45087773
0.4628195 0.45106563 -0.08137677 0.108352885 0.38533628 -0.0435798 -0.087221146 0.011153806
0.2918022 0.24162531 0.03677461 0.049780566 0.384264 0.022963502 0.050803147 0.21082509
0.1317045 -0.304464 0.08223624 -0.36679837 -0.16655736 0.01888559 0.04861014 -0.45157307
-0.09198841 -0.3988176 -0.30978194 0.2610396 -0.1302478 0.024511205 -0.36418936 0.27890906
0.19831575 -0.37640905 0.15087856 0.3859328 0.08003389 0.026680376 0.16313502 0.19915003
-0.18288052 1.6538571 -0.03189929 0.19328575 0.2598204 -0.6710382 -0.00043905366 0.2480382
0.06787276 1.7565097 0.07966308 0.09337461 0.09611414 -0.8749649 -0.09052231 0.13590264
-0.19859467 1.6475765 -0.11661715 -0.13768317 -0.4365969 -0.5247193 -0.002861472 -0.11637833
-0.20415685 -0.24542633 0.028202726 -0.16458905 0.077160455 -1.1498487 -0.048929602 0.14309418
-0.021280432 -0.04597667 -0.011607132 0.13831028 0.18200728 -0.2787267 -0.0052442844 -0.056884505
-0.17209463 -0.031303324 0.03475032 0.008720153 -0.3425904 1.7894894 -0.058950428 -0.08155154
0.35194668 1.1183883 0.029410118 0.10984545 -0.24769948 -0.08971436 0.08456403 0.07287473
0.2863049 1.0506587 -0.19119164 0.04409174 -0.4438252 -0.51973903 0.10392544 -0.027450731
0.45519486 1.0814416 -0.1359234 0.1564177 -0.26924828 -1.1746229 0.064176925 -0.179843
0.2775829 0.09898597 0.15457588 -0.6208673 0.040967107 -0.444282 0.034973618 -0.4110755
0.22718386 -0.13924389 -0.21688372 0.14121786 0.22373198 0.11999945 -0.32847765 0.038260672
0.059572168 -0.33014214 0.032870594 0.3324237 -0.017031187 0.3868392 0.16366322 0.25283128
0.34942287 -0.7097255 -0.17780103 -0.09067501 -0.09107913 -0.34496796 -0.12751576 0.23520713
0.08999342 -0.5603737 0.19760007 0.5363577 -0.03990175 -0.78433 0.0005786321 0.41436774
0.28246358 -0.607745 0.15420689 -0.088123254 -0.2988186 -0.9177623 0.20379603 -0.18695487
-0.015510643 0.19836156 0.22349031 -0.02419957 -0.11896669 -0.17049985 0.19803812 -0.122385345
0.111430205 -0.12726428 -0.12475962 -0.05630761 0.0314385 -0.0053741764 -0.4467206 -0.031194285
0.17539568 -0.0707051 -0.15960239 0.027190648 0.17957981 -0.027338764 0.14124092 0.108420596
-0.19137146 -0.7200503 0.12965395 -0.029127583 -0.3698422 -0.48072726 -0.13591811 -0.01502398
0.2849627 -0.67524916 -0.048025817 -0.16504256 -0.14296088 0.2743449 0.02522302 -0.0010827794
0.28856558 -0.5096268 0.0010876546 0.03854321 0.48847556 2.2089634 -0.0046653915 0.063375965
0.12724753 -0.3361705 0.15790485 -0.309355 -0.38145277 -1.0804466 -0.13585538 -0.29561096
0.23291634 -0.29146996 -0.11664722 0.33984968 -0.55476767 -0.86062753 0.08041461 0.02567355
00000000: 864b f03d 7104 ab3e 8860 063e 3554 22bd
00000010: 3de1 ccbd 38ac b1bd 2304 c93a e2b9 3d3e
00000020: de12 1a3e a3de a33e 9ddc a0be 5755 9e3e
00000030: 3f02 6b3e 94ac a7bd 2a29 9fbe 8a1d 983e
00000040: eb80 643e b612 853e 8fac 0b3e b9cd 91be
00000050: 1152 36be 8e24 debd f148 e13d 4679 77bc
00000060: b3d8 f93e 6610 a63e 3bba efbd f0cb cf3e
00000070: a4c2 5b3e 192f 4ebe cdad 44be 72d9 e63e
00000080: adf6 ec3e 13f2 e63e dda8 a6bd 1ee8 dd3d
00000090: cc4a c53e bb80 32bd 00a1 b2bd 74be 363c
000000a0: 1967 953e a06c 773e f9a0 163d b5e6 4b3d
000000b0: 40be c43e f41d bc3c f616 503d 88e2 573e
000000c0: 8bdd 063e b5e2 9bbe 796b a83d ffcc bbbe
000000d0: 038e 2abe f4b5 9a3c 6d1b 473d 9634 e7be
000000e0: 6b64 bcbd d231 ccbe bd9b 9ebe fca6 853e
000000f0: ae5f 05be b9cb c83c 0777 babe 2bcd 8e3e
00000100: 4913 4b3e b0b8 c0be e97f 1a3e fc98 c53e
00000110: cfe8 a33d ce90 da3c de0c 273e fced 4b3e
00000120: 0845 3bbe 97b1 d33f d4a8 02bd b3ec 453e
00000130: 2e07 853e 29c9 2bbf c930 e6b9 bafd 7d3e
00000140: e000 8b3d 4fd5 e03f 6626 a33d 303b bf3d
00000150: 7dd7 c43d b3fd 5fbf c363 b9bd 102a 0b3e
00000160: 675c 4bbe c9e3 d23f f9d4 eebd d1fc 0cbe
00000170: a189 dfbe 0154 06bf 8987 3bbb c357 eebd
00000180: 7e0e 51be 0a51 7bbe 6709 e73c 088a 28be
00000190: 4d06 9e3d 3e2e 93bf 686a 48bd 4887 123e
000001a0: 4d54 aebc 0852 3cbd d72b 3ebc 36a1 0d3e
000001b0: 1e60 3a3e 44b5 8ebe 3fd8 abbb baff 68bd
000001c0: 9339 30be ea37 00bd 5a56 0e3d f9de 0e3c
000001d0: 0268 afbe fd0d e53f 0176 71bd 7e04 a7bd
000001e0: 5b32 b43e 5927 8f3f 7ded f03c a7f6 e03d
000001f0: efa4 7dbe 2abc b7bd e82f ad3d 593f 953d
00000200: 8e96 923e fc7b 863f bec7 43be 8a99 343d
00000210: 0e3d e3be 9e0d 05bf dcd6 d43d 5be0 e0bc
00000220: 4d0f e93e ae6c 8a3f 812f 0bbe f62b 203e
00000230: e9da 89be 0b5a 96bf 316f 833d c328 38be
00000240: 591f 8e3e 28b9 ca3d 2449 1e3e 29f1 1ebf
00000250: 20cd 273d ee78 e3be 7f40 0f3d 7d78 d2be
00000260: e3a2 683e f395 0ebe c416 5ebe 6a9b 103e
00000270: ff19 653e 46c2 f53d 392e a8be 39b7 1c3d
00000280: f201 743d 6408 a9be 51a3 063d 7033 aa3e
00000290: fd84 8bbc ca0f c63e 5597 273e 1a73 813e
000002a0: 8ee7 b23e 92b0 35bf 7911 36be d2b3 b9bd
000002b0: b287 babd a49f b0be 7e93 02be 23da 703e
000002c0: 784e b83d a774 0fbf ac57 4a3e bd4e 093f
000002d0: 0470 23bd dac9 48bf 58af 173a 0228 d43e
000002e0: 119f 903e 2d95 1bbf 69e8 1d3e f779 b4bd
000002f0: c0fe 98be 78f2 6abf e8af 503e 1971 3fbe
00000300: 5a20 7ebc 4b1f 4b3e a5da 643e 2d3e c6bc
00000310: cfa4 f3bd 8397 2ebe 81ca 4a3e 2ba5 fabd
00000320: 8535 e43d 9151 02be f981 ffbd cfa2 66bd
00000330: a8c5 003d dc19 b0bb 90b8 e4be 288b ffbc
00000340: ed9a 333e d6cd 90bd cf6e 23be ecbe de3c
00000350: c5e3 373e 8bf5 dfbc 76a1 103e 9e0b de3d
00000360: e1f6 43be 3755 38bf 01c4 043e f89c eebc
00000370: f55b bdbe e221 f6be 1e2e 0bbe 2427 76bc
00000380: a2e6 913e 21dd 2cbf b8b6 44bd eb00 29be
00000390: 5664 12be ef76 8c3e 82a0 ce3c 0cec 8dba
000003a0: debe 933e e776 02bf a28f 8e3a 7cdf 1d3d
000003b0: 7819 fa3e a85f 0d40 24e0 98bb 42cb 813d
000003c0: 2d4d 023e 8a1e acbe cfb1 213e c763 9ebe
000003d0: c74d c3be 134c 8abf ac1d 0bbe 525a 97be
000003e0: 9f81 6e3e 8d3b 95be bde4 eebd c700 ae3e
000003f0: 4105 0ebf 1652 5cbf 6ab0 a43d 5651 d23c

state_fs.0.bias f4 [472]
0.03252429 -0.34651825 -0.04387305 -0.33923483 -0.2791242 -0.6012481 -0.22079417 -0.04686317
0.06827868 -0.23948382 0.11675307 -0.3537657 -0.1744555 -0.4614431 -0.017930133 -0.27954274
-0.35023695 -0.6021746 -0.68112504 -0.04109826 -0.14205225 0.24180515 -0.053818062 -0.8572443
-0.9546325 -0.038218275 -0.05488227 -0.65751964 -0.2637714 -0.1444693 -0.32048514 -0.7293939
-0.44098136 -0.19489203 -0.5357493 -0.7964678 -0.46048877 -0.11291917 -0.9227991 -0.40136394
-0.61228454 -0.46889177 -0.047194973 -0.094312966 -0.15254009 -0.32847318 -0.39493945 0.7860984
-0.312134 -0.20313871 -0.39984885 -0.1167784 -0.23164672 0.023639452 0.049359996 -0.13880174
-0.06919946 -0.76248 -0.004945523 -0.6745854 -0.69295985 -0.1845957 -0.39296034 -0.3021776
-0.3445648 -0.058509704 0.40359154 -0.9407561 -0.47710997 0.002253348 -0.18708609 -0.64905924
-0.369536 0.03747808 -0.2590124 -0.1666732 0.14121167 -0.218478 -0.34353712 -0.4309477
-0.64962393 -0.03692529 0.0060068658 -0.3443265 0.16401851 -0.31606 -0.27226993 -1.0578269
-0.553048 -0.34426698 -0.7403637 -0.8292938 -0.1452852 -0.12994754 0.05215808 -0.55162185
-0.8309487 -0.18833952 -0.2657245 -0.205646 -0.5798329 0.027935559 -0.3829367 -0.59457225
-1.0176796 -0.35996976 -0.31250328 -0.17990045 -0.46605477 -0.35153243 -0.2105487 -0.39861205
0.20660414 -0.005687729 -0.09276444 -0.057269324 -0.35586193 -0.40320837 -0.37484533 0.020773372
-0.3864903 -0.5011708 -0.8968589 0.12511489 -0.0073131057 0.14255175 -0.34656963 1.5184478
-0.33631578 -0.7503907 -0.18941325 -0.66020507 -0.35772014 -0.4332068 -0.33749908 -0.38979587
-0.3864687 0.07530316 -0.50095683 -0.11070351 -0.032765333 -0.27375403 -0.073193915 -0.29718387
-0.13534534 -0.4229606 -0.23881505 0.044194102 -0.54059154 -0.6850146 -0.020355383 -0.3550712
-0.09280926 -0.5472923 -1.2544572 -0.9519727 0.35338092 0.25303638 -0.39533782 -0.31636634
-0.7052973 -0.3061189 0.06328151 -0.71310276 -0.53805476 -0.1817635 -0.54462624 -0.07154865
-0.46669626 0.57050705 -0.9245742 -0.5508132 -0.12389541 -0.214504 -0.22864185 -0.19555822
-0.8645904 -0.014970321 -0.4610289 -0.17997022 -0.4697452 -0.35435277 -0.5537267 0.001534183
-0.12314478 -0.52148736 -0.3630239 -0.305573 -0.24257074 -0.019110108 -0.1917078 -0.12840167
-0.35625258 -0.19812973 -0.47427988 -0.41153282 -0.40502873 -0.9585931 -0.8216941 -0.4667153
0.0059333974 -0.25590336 -0.4591025 -0.16220759 -0.20992006 -0.58204436 -0.9421577 0.18958786
-0.20393291 0.1324787 -0.45338473 -0.2044533 0.069539234 -0.29618064 -0.46610093 0.04349873
-1.3226557 -0.18494043 -0.9129181 -0.36684042 -0.3568957 -0.06240482 -0.34227327 -0.4246326
-0.389962 -0.16778758 -0.41742685 -0.0991975 -0.1636121 -0.41774884 -0.71076363 0.07807406
-0.072309084 -0.49103767 -0.30615324 -0.42521596 -1.0194283 -0.10479751 -0.45440412 -0.6561007
-0.611938 -0.5734114 -0.18536055 0.29120895 -0.55026495 -0.41486776 -0.23292115 -0.107372776
-0.62497026 -0.7933367 -0.48071247 -0.065008335 -0.39989153 -0.29790223 -0.06279367 -0.5398486
00000000: 3138 053d d76a b1be 3ab4 33bd 30b0 adbe
00000010: 5ee9 8ebe 65eb 19bf de17 62be 98f3 3fbd
00000020: b1d5 8b3d 3f3b 75be 3c1c ef3d c720 b5be
00000030: 76a4 32be 4542 ecbe 37e2 92bc 3a20 8fbe
00000040: 4252 b3be 1d28 1abf 365e 2ebf a656 28bd
00000050: 2576 11be c59b 773e 5470 5cbd 5d74 5bbf
00000060: cc62 74bf c48a 1cbd 3bcc 60bd 3553 28bf
00000070: 0c0d 87be c3ef 13be a116 a4be 8fb9 3abf
00000080: 4fc8 e1be c791 47be de26 09bf 50e5 4bbf
00000090: 2fc5 ebbe 2a42 e7bd 903c 6cbf 937f cdbe
000000a0: aebe 1cbf 9512 f0be 844f 41bd 2827 c1bd
000000b0: 7833 1cbe a32d a8be 8135 cabe bf3d 493f
000000c0: 07d0 9fbe 9803 50be fdb8 ccbe 8429 efbd
000000d0: cc34 6dbe 86a7 c13c b52d 4a3d 0b22 0ebe
000000e0: 72b8 8dbd e431 43bf 0e0e a2bb a1b1 2cbf
000000f0: d165 31bf a806 3dbe 1932 c9be 06b7 9abe
00000100: cc6a b0be dfa7 6fbd 8da3 ce3e 64d5 70bf
00000110: c247 f4be e8ac 133b 7f93 3fbe bf28 26bf
00000120: d333 bdbe 9d82 193d 469d 84be 61ac 2abe
00000130: cb99 103e b2b8 5fbe 19e4 afbe 2da5 dcbe
00000140: c14d 26bf f93e 17bd 3ed5 c43b 904b b0be
00000150: 78f4 273e 9ed2 a1be f766 8bbe df66 87bf
00000160: 8e94 0dbf c343 b0be 7a88 3dbf 994c 54bf
00000170: a5c5 14be f810 05be b6a3 553d 1737 0dbf
00000180: 0eb9 54bf 13dc 40be 0b0d 88be dd94 52be
00000190: ee6f 14bf 1dd9 e43c 4710 c4be e335 18bf
000001a0: 5343 82bf f54d b8be 6e00 a0be d337 38be
000001b0: bb9e eebe 0ffc b3be 149a 57be e116 ccbe
000001c0: 0990 533e 2160 babb 48fb bdbd 3d93 6abd
000001d0: 8933 b6be 5471 cebe baeb bfbe eb2c aa3c
000001e0: 0ee2 c5be bb4c 00bf 8b98 65bf 1e1e 003e
000001f0: c7a2 efbb 16f9 113e 9371 b1be 7f5c c23f
00000200: 9531 acbe 9b19 40bf 8cf5 41be 3303 29bf
00000210: 1827 b7be 48cd ddbe aecc acbe 5393 c7be
00000220: 3adf c5be 8b38 9a3d b53e 00bf 86b8 e2bd
00000230: f134 06bd 7d29 8cbe b1e6 95bd 7c28 98be
00000240: f897 0abe 4b8e d8be ef8b 74be e004 353d
00000250: 3564 0abf 1e5d 2fbf 55c0 a6bc e4cb b5be
00000260: c812 bebd 591b 0cbf 0e92 a0bf 7cb4 73bf
00000270: 58ee b43e fc8d 813e b869 cabe c5fa a1be
00000280: 5d8e 34bf 9ebb 9cbe bc99 813d e78d 36bf
00000290: f5bd 09bf 3620 3abe a06c 0bbf 1988 92bd
000002a0: d0f2 eebe c00c 123f e5b0 6cbf 1802 0dbf
000002b0: e0bc fdbd f0a6 5bbe 1721 6abe 6a40 48be
000002c0: cc55 5dbf 1446 75bc fb0b ecbe 1d4a 38be
000002d0: 7182 f0be ba6d b5be 08c1 0dbf a416 c93a
000002e0: 5533 fcbd 3280 05bf 45de b9be 1074 9cbe
000002f0: 7764 78be cd8c 9cbc 0d4f 44be ba7b 03be
00000300: bd66 b6be 85e2 4abe d0d4 f2be 6eb4 d2be
00000310: ed5f cfbe 5b66 75bf 8b5a 52bf 4ff5 eebe
00000320: f26c c23b c405 83be 7c0f ebbe bf19 26be
00000330: 49f5 56be dc00 15bf 3f31 71bf 5223 423e
00000340: cad3 50be 7fa8 073e 0b22 e8be 355c 51be
00000350: 966a 8e3d fda4 97be c8a4 eebe b92b 323d
00000360: c84c a9bf 0661 3dbe 00b5 69bf 82d2 bbbe
00000370: 08bb b6be 329c 7fbd 713e afbe 7269 d9be
00000380: 19a9 c7be 82d0 2bbe f9b8 d5be 0f28 cbbd
00000390: ee89 27be 2de3 d5be 9bf4 35bf 4be5 9f3d
000003a0: c916 94bd 4a69 fbbe 1ec0 9cbe e8b5 d9be
000003b0: a07c 82bf 14a0 d6bd a8a7 e8be 37f6 27bf
000003c0: f8a7 1cbf 17cb 12bf 28cf 3dbe 5719 953e
000003d0: 2ade 0cbf 8c69 d4be e282 6ebe 42e6 dbbd
000003e0: 0dfe 1fbf 1d18 4bbf f21f f6be 1723 85bd
000003f0: 95be ccbe a486 98be f899 80bd 8533 0abf

state_fs.2.weight f4 [472]
0.00022267397 -0.17734928 0.0034818514 0.4398048 1.3280623 0.22389734 0.06440944 0.2763075
0.005295514 0.7284084 0.3759708 0.3479552 -0.008664578 0.16397315 -0.0005741379 0.30917278
0.41615164 0.21354398 0.15770984 0.14761116 -0.011171817 -0.004519449 -0.010126206 0.24271293
0.4535737 -0.0065630083 -0.010399297 0.2893959 0.106408544 0.020678572 0.58398956 0.061739407
-0.006809441 0.33615872 0.035114277 0.49225742 0.032943882 -0.06519455 0.21365558 -0.0875434
0.15676749 0.26841104 0.42730722 0.69973415 0.19426236 0.024866823 0.11332994 0.98200804
-0.0037021681 -0.0342924 1.1867332 0.025556214 -0.012351327 0.6405472 1.7723098 0.96150994
-0.043780297 0.15961361 0.0034417885 0.4649203 0.15127246 0.1655601 0.30583665 -0.010306865
-0.004997531 -0.045545418 0.61884147 0.16095589 0.019288309 0.5936209 -0.010979122 0.042670406
0.19861141 0.18927872 0.098686434 0.32954022 0.8448039 0.002452191 0.071218945 -0.013523562
0.22643551 -0.004431119 0.0010362109 0.6570932 0.26268613 0.23976696 0.12723394 0.19370435
0.22264735 0.1898353 0.45316237 0.25440934 0.044466186 0.0037990673 0.0014941316 0.1727602
0.1563866 0.23366825 0.64945805 -0.013806625 0.38264227 0.34187737 0.001374035 0.015137972
0.3985219 -0.21156101 0.18688737 -0.003095537 0.18146448 0.2493564 -0.002483854 0.15497334
1.4210624 1.1253022 0.006905699 -0.010242318 0.19788803 0.034241233 -0.1673277 0.19084516
0.4167136 -0.087767355 0.29267016 1.344818 0.4248819 0.01269116 0.17489856 2.4394653
-0.0071996776 0.34953946 0.46297136 0.12057485 -0.0025554537 0.1916831 -0.010916637 0.19257057
0.5272343 0.5300916 0.18024698 0.4652321 -0.07613188 0.47275856 0.0753606 -0.00080086134
0.20979059 0.19550432 1.2511743 0.0040450315 0.18883312 -0.1878848 -0.0043138093 0.02055577
0.57009566 0.025265079 0.19923407 1.5925605 0.54384285 0.6973786 0.02583203 -0.009415812
0.08110005 0.016769055 -0.0010430298 0.15221079 0.01029959 -0.0014158665 0.11056607 0.0069979
-0.06979512 0.8901212 0.37833163 0.5052289 0.36445293 0.003598278 0.5004913 -0.032819342
0.27468947 0.0025632407 0.20609413 0.29281262 0.19349149 0.0024988428 0.045205813 0.31247044
0.009213938 0.16837388 0.16095948 -0.03664478 0.008607775 -0.0008565852 -0.009351745 0.18699735
0.25387743 0.046483815 0.00989834 0.28721297 0.0020379499 0.12411628 0.2486707 0.27822194
0.13799483 0.4679244 0.43505976 0.07408593 -0.00013640404 0.012963791 0.21902914 1.0773548
-0.3628404 0.0016931435 0.15806355 -0.08638647 -0.0063381004 -0.010518421 0.075146094 -0.009905848
0.35018775 0.31206706 0.22471735 0.34697384 0.4670994 -0.009312399 0.0050289324 0.1396994
-0.008030209 0.010761915 0.26019895 -0.0029963746 -0.007897267 0.011591123 0.6617782 0.0013423812
1.0795988 0.23588349 0.9605766 0.06504627 0.14338183 0.004599685 0.020853937 1.2695057
0.07526186 0.08751169 -0.007273328 0.32369474 0.31541672 0.2353376 0.13469303 0.058240294
0.42793414 0.6080839 -0.0038997713 0.18623398 0.14096095 0.012044909 0.2446526 0.3765678
00000000: 977d 6939 0d9b 35be c62f 643b 182e e13e
00000010: f2fd a93f 5845 653e 19e9 833d 2d78 8d3e
00000020: fe85 ad3b f978 3a3f 3f7f c03e 2f27 b23e
00000030: e0f5 0dbc 94e8 273e be81 16ba e54b 9e3e
00000040: d411 d53e 46ab 5a3e b07e 213e 6127 173e
00000050: ff09 37bc e317 94bb 63e8 25bc bd89 783e
00000060: d03a e83e 810e d7bb d061 2abc b32b 943e
00000070: b9ec d93d 1c66 a93c 5780 153f 76e2 7c3d
00000080: bb21 dfbb ff1c ac3e fdd3 0f3d 2a09 fc3e
00000090: 2af0 063d b884 85bd 87c8 5a3e f449 b3bd
000000a0: a887 203e 2c6d 893e 03c8 da3e c721 333f
000000b0: b6ec 463e 82b5 cb3c 8719 e83d e164 7b3f
000000c0: 13a0 72bb 3076 0cbd e0e6 973f 445b d13c
000000d0: 385d 4abc e7fa 233f 0cdb e23f 8425 763f
000000e0: f852 33bd c071 233e a18f 613b 090a ee3e
000000f0: 2be7 1a3e 9688 293e 9f96 9c3e 20de 28bc
00000100: 54c2 a3bb d58d 3abd 656c 1e3f 9fd1 243e
00000110: 8402 9e3c 8af7 173f c6e1 33bc 2ac7 2e3d
00000120: ca60 4b3e 48d2 413e 1d1c ca3d 7fb9 a83e
00000130: 1245 583f f0b4 203b 3ddb 913d ee91 5dbc
00000140: b6de 673e ec32 91bb 78d1 873a 4337 283f
00000150: cc7e 863e 7885 753e 9d49 023e 6f5a 463e
00000160: abfd 633e 2f64 423e e604 e83e f141 823e
00000170: 2d22 363d c6f9 783b bdd6 c33a 0de8 303e
00000180: cf23 203e bb46 6f3e e242 263f 2f35 62bc
00000190: b0e9 c33e 8d0a af3e f718 b43a 4205 783c
000001a0: 100b cc3e 73a3 58be 675f 3f3e 7ede 4abb
000001b0: d3d1 393e 4957 7f3e 28c8 22bb 55b1 1e3e
000001c0: 5fe5 b53f e709 903f 3449 e23b 65cf 27bc
000001d0: 29a3 4a3e 8940 0c3d f457 2bbe ea6c 433e
000001e0: 7c5b d53e 5fbf b3bd ddd8 953e ff22 ac3f
000001f0: 1f8a d93e 95ee 4f3c 9c18 333e 3320 1c40
00000200: 46eb ebbb d6f6 b23e 950a ed3e f2ef f63d
00000210: 6679 27bb 9348 443e b2db 32bc 3831 453e
00000220: d4f8 063f 15b4 073f aa92 383e e732 ee3e
00000230: 08eb 9bbd 690d f23e a956 9a3d e5f0 51ba
00000240: 58d3 563e 4932 483e 7b26 a03f 2f8c 843b
00000250: 785d 413e df64 40be db5a 8dbb 9364 a83c
00000260: caf1 113f b6f8 ce3c 0404 4c3e 06d9 cb3f
00000270: 4939 0b3f 6787 323f b29d d33c c744 1abc
00000280: c817 a63d 425f 893c 46b6 88ba 25dd 1b3e
00000290: 9dbf 283c 9994 b9ba 7770 e23d a44e e53b
000002a0: bef0 8ebd fcde 633f afb4 c13e ae56 013f
000002b0: 9399 ba3e 16d1 6b3b 3320 003f 936d 06bd
000002c0: 19a4 8c3e 0bfc 273b 570a 533e 89eb 953e
000002d0: a222 463e a0c3 233b bb29 393d 20fc 9f3e
000002e0: 0ff6 163c 346a 2c3e 90d2 243e d618 16bd
000002f0: a007 0d3c 768c 60ba 1038 19bc 3c7c 3f3e
00000300: 39fc 813e d065 3e3d a62c 223c 940d 933e
00000310: 208f 053b ad30 fe3d 88a3 7e3e 1b73 8e3e
00000320: 844e 0d3e c993 ef3e 27c0 de3e 5dba 973d
00000330: ae07 0fb9 1566 543c 2d49 603e c3e6 893f
00000340: 38c6 b9be 78ec dd3a 69db 213e 64eb b0bd
00000350: d7af cfbb 7555 2cbc 32e6 993d 234c 22bc
00000360: cf4b b33e 41c7 9f3e 4e1c 663e 8ea6 b13e
00000370: a727 ef3e 0893 18bc bec9 a43b 5c0d 0f3e
00000380: 2391 03bc be52 303c cc38 853e d35e 44bb
00000390: 8a63 01bc b2e8 3d3c 4c6a 293f d7f2 af3a
000003a0: 4b30 8a3f 718b 713e 59e8 753f fb36 853d
000003b0: b0d2 123e f4b8 963b e0d5 aa3c 2a7f a23f
000003c0: e422 9a3d 5439 b33d 1955 eebb 51bb a53e
000003d0: 4d7e a13e 57fc 703e f8ec 093e 608d 6e3d
000003e0: 2f1a db3e 63ab 1b3f 4e93 7fbb 1fb4 3e3e
000003f0: 1158 103e 0358 453c 3686 7a3e 7fcd c03e

state_fs.2.bias f4 [472]
-0.0033824414 -0.019153032 -0.0029460676 0.0561323 0.22582807 0.10990618 0.0033370294 0.066329464
-0.00808309 0.10036069 0.024002206 0.19832847 0.00421309 0.012380859 -0.003863193 0.123333335
0.08119021 -0.006988507 0.0011738177 0.02228994 0.010649574 0.0037351553 0.0069973012 0.08966102
0.03985499 -0.00075549027 -0.000133322 0.052329924 -0.009603797 -0.0022551413 -0.15549889 -0.05142733
0.03143881 0.25012103 0.02480752 0.15849432 -0.008004877 -0.002092208 0.001618459 -0.016745554
0.09082485 -0.0020664101 0.3148596 0.17755537 0.057824884 0.019491944 -0.009550238 0.19854783
0.00910685 -0.005870438 0.29804307 0.008418521 0.00913818 0.010280462 -0.074421205 0.38935462
0.0107811615 0.059744284 -0.0004536296 0.0761493 0.060224984 0.04946744 0.13804533 -0.010399169
0.0074678324 0.0021019524 0.06984296 -0.1291197 0.033708084 0.5101732 0.0053009363 0.0054782275
-0.03597271 0.32958025 0.015499557 0.2664388 0.079853706 -0.007301795 0.04145025 0.006245739
-0.007800164 -0.0007735409 0.009153089 0.085123986 0.09638977 0.20805967 0.025379062 0.046250265
0.008481739 0.029802851 -0.028660355 0.1283362 0.01925437 -0.00080928777 -0.0019006785 0.07475878
0.10016963 0.18322758 0.12727298 -0.012289586 0.121939115 0.44941765 0.012509363 -0.015537469
-0.030205417 -0.00946532 0.010251346 -0.007927946 0.0047507007 0.015739877 0.0120406505 0.046968028
-0.06261942 0.4188915 0.016243752 -0.0021267978 0.0899457 0.0050010066 -0.0140889 0.15384705
0.1381371 -0.015362686 0.04553694 0.3091073 0.10179663 -0.0038702507 0.015855607 0.2780846
0.026038222 0.08665946 0.2314595 0.02072227 0.0036800615 0.07423151 0.0053134076 0.25270128
0.3533928 -0.036992185 0.0931209 0.09689621 0.008929062 0.12201455 0.0013644381 -0.0064166808
0.0007915653 0.020112699 0.1095479 -0.0002331845 0.1007886 -0.012258287 0.0039886828 0.0030571742
0.19374561 -0.011903266 -0.039653186 0.14600867 -0.31068194 0.10013862 -0.0032017105 0.009640088
0.002741771 -0.014712435 -0.0066242195 -0.004024385 -0.0043932977 -0.004372726 0.061396826 0.0028427518
-0.0072412207 0.15094538 -0.19439353 -0.026603013 0.16691896 -0.002806805 0.14634717 -0.002108603
0.0379455 0.0012626036 0.042134397 0.06971526 0.07927212 0.008675841 -0.051997174 0.12970139
0.0031011275 0.020772414 0.047960572 -0.007383214 0.0057423417 0.004327012 0.015374204 0.030880345
0.08731851 0.0039699357 0.008412604 0.024948977 0.0007132787 0.007016581 0.093316354 0.122577645
0.022141427 0.2494104 0.17894702 0.033492986 -0.005330105 0.0074427873 -0.07047207 0.14917313
-0.03873412 -0.0023834012 -0.0047215363 -0.008113825 0.008737055 0.0062137367 0.048206657 0.0007547168
-0.25296518 0.23735812 0.061581835 0.10744725 0.07611377 -0.00093969057 0.0007197724 0.033478238
-0.0116313305 0.010553867 0.039691493 0.0012276272 -0.0035367082 0.004432917 0.097698614 0.00784912
0.11098058 -0.030664925 0.18854725 0.027277179 -0.08110693 0.003763898 0.0061001168 0.23175098
-0.04972723 -0.13388532 -0.01077622 0.008650653 0.26456958 0.04790226 -0.00375129 0.046374507
0.14304894 0.23646846 0.0031721697 0.09243792 0.005257773 0.015088653 0.047446378 0.039228663
00000000: f3ab 5dbb d2e6 9cbc d012 41bb fcea 653d
00000010: 793f 673e 7e16 e13d 10b2 5a3b bed7 873d
00000020: f06e 04bc e889 cd3d 46a0 c43c 9e16 4b3e
00000030: f60d 8a3b 16d9 4a3c a02d 7dbb 3096 fc3d
00000040: 0e47 a63d d9ff e4bb c9da 993a 6499 b63c
00000050: 8d7b 2e3c 82c9 743b 9e49 e53b 32a0 b73d
00000060: fc3e 233d 180c 46ba 5acc 0bb9 e757 563d
00000070: 3f59 1dbc feca 13bb 1a3b 1fbe 77a5 52bd
00000080: fbc5 003d dd0f 803e 2439 cb3c 564c 223e
00000090: e326 03bc 6d1d 09bb 7922 d43a f92d 89bc
000000a0: 6102 ba3d 9c6c 07bb 4735 a13e 13d1 353e
000000b0: c9d9 6c3d 92ad 9f3c 9a78 1cbc 1f50 4b3e
000000c0: e634 153c ce5c c0bb 1a99 983e d6ed 093c
000000d0: 4eb8 153c 626f 283c 256a 98bd 7d59 c73e
000000e0: 78a3 303c 6cb6 743d 22d5 edb9 2af4 9b3d
000000f0: 79ae 763d 5f9e 4a3d c15b 0d3e 4761 2abc
00000100: b8b4 f43b e9c0 093b d309 8f3d f437 04be
00000110: 7d11 0a3d b69a 023f 7ab3 ad3b b482 b33b
00000120: 1f58 13bd bebe a83e dbf1 7d3c ab6a 883e
00000130: 578a a33d e543 efbb bdc7 293d 0ea9 cc3b
00000140: 8598 ffbb 73c7 4aba d6f6 153c 7c55 ae3d
00000150: 0068 c53d 980d 553e c0e7 cf3c eb70 3d3d
00000160: fef6 0a3c 1c25 f43c 1fc9 eabc 916a 033e
00000170: 57bb 9d3c 6226 54ba 3020 f9ba 221b 993d
00000180: bc25 cd3d 03a0 3b3e d953 023e 425a 49bc
00000190: 37bb f93d 121a e63e 12f4 4c3c de90 7ebc
000001a0: 5a71 f7bc 6e14 1bbc 43f5 273c 37e4 01bc
000001b0: c4ab 9b3b eaf0 803c 2646 453c 8c61 403d
000001c0: 9c3e 80bd f278 d63e 9e11 853c bf61 0bbb
000001d0: 7335 b83d 7cdf a33b 21d5 66bc 158a 1d3e
000001e0: d073 0d3e c6b3 7bbc f184 3a3d 5043 9e3e
000001f0: c07a d03d 08a4 7dbb 9ee3 813c 1b61 8e3e
00000200: 1c4e d53c 847a b13d b803 6d3e c0c1 a93c
00000210: 302d 713b b106 983d 181c ae3b 1062 813e
00000220: e7ef b43e 1e85 17bd 2cb6 be3d 8571 c63d
00000230: 334b 123c c4e2 f93d f2d6 b23a 0543 d2bb
00000240: 0c81 4f3a 63c3 a43c a65a e03d fd82 74b9
00000250: 416a ce3d fbd6 48bc 7fb3 823b df5a 483b
00000260: 4065 463e eb05 43bc 616b 22bd 4c83 153e
00000270: b411 9fbe 7a15 cd3d cad3 51bb 76f1 1d3c
00000280: 49af 333b 6d0c 71bc fb0f d9bb fdde 83bb
00000290: a7f5 8fbb 1649 8fbb 3d7b 7b3d 764d 3a3b
000002a0: c347 edbb 6d91 1a3e 190f 47be 90ee d9bc
000002b0: ceec 2a3e 60f2 37bb 08dc 153e 7d30 0abb
000002c0: be6c 1b3d f27d a53a 1e95 2c3d e0c6 8e3d
000002d0: 6c59 a23d 1d25 0e3c fdfa 54bd 71d0 043e
000002e0: 493c 4b3b e92a aa3c 4e72 443d e3ee f1bb
000002f0: 412a bc3b 9cc9 8d3b 16e4 7b3c c7f8 fc3c
00000300: 0cd4 b23d 3c16 823b 05d5 093c cc61 cc3c
00000310: 53fb 3a3a 59eb e53b a51c bf3d fd09 fb3d
00000320: f061 b53c 7165 7f3e e33d 373e f12f 093d
00000330: 29a8 aebb a0e2 f33b a953 90bd d7c0 183e
00000340: aba7 1ebd d632 1cbb 1eb7 9abb d9ef 04bc
00000350: dd25 0f3c 9a9c cb3b 5874 453d 30d8 453a
00000360: a784 81be 020e 733e 3c3d 7c3d 4e0d dc3d
00000370: 89e1 9b3d 9155 76ba 1caf 3c3a 7a20 093d
00000380: 5691 3ebc 20ea 2c3c 8c93 223d 55e8 a03a
00000390: 1ec8 67bb 0142 913b 3616 c83d 9899 003c
000003a0: c949 e33d 0235 fbbc 8812 413e 6474 df3c
000003b0: 641b a6bd bbab 763b 7de3 c73b 2150 6d3e
000003c0: c8ae 4bbd 3c19 09be be8e 30bc 78bb 0d3c
000003d0: aa75 873e 2935 443d 34d8 75bb 32f3 3d3d
000003e0: 6c7b 123e ca24 723e 2de4 4f3b 1850 bd3d
000003f0: 6649 ac3b 6636 773c 2257 423d 3cae 203d

state_fs.2.running_mean f4 [472]
2.0690272 0.7316491 3.6382718 0.60008305 2.0352743 0.043471675 2.2070484 2.9283142
2.4906042 3.3979948 1.0642278 2.808262 2.0659516 1.3440778 4.6350603 2.900857
0.64712733 0.117337264 1.381929 1.3576423 3.059834 5.3013854 5.7434816 1.3786588
5.858276 9.272506 3.2743266 0.555952 6e-45 4.459054 8.9630995 5.0959487
2.2596555 3.1278558 5.4193144 1.3506541 2.9902165 0.52342796 0.18261702 1.0473855
2.2369502 3.9224844 7.4992433 18.180387 0.71487683 2.4154613 4.2073765 2.2395284
2.818046 3.6476033 2.8621087 3.072731 2.8427114 0.43276525 1.4397184 1.9057281
2.2219963 0.2770596 2.3805175 2.953953 0.17996535 1.3988998 2.0174603 6.429977
8.905372 1.5214447 12.500506 8.714243 5.2076817 6.8951836 4.720662 3.828773
0.7232944 6.618121 0.7163471 3.855196 0.24324977 6.7058697 6.19356 2.4694068
0.93210685 4.0099 2.8521883 0.6026894 5.790926 5.237551 2.673046 0.030292066
0.12781088 0.6850232 1.5106547 0.4399743 0.57556623 5.2827015 1.9406351 1.234585
6.6325765 4.132533 5.914554 4.564006 0.50033146 4.7140403 8.222623 1.3756108
4.278653 1.1980034 0.0610934 4.473638 0.4223714 0.04340101 3.774619 0.5186739
6.6918287 2.51261 9.4068165 5.249529 1.6360863 5.004703 0.30786893 0.107948594
0.71541363 3.451043 0.65860516 0.4463079 0.26066157 5.0014334 0.50420684 2.411644
3.5625193 0.4042765 1.8880563 0.39057556 2.6576898 0.0011543098 10.921707 3.5661752
4.255616 0.5068268 0.8757464 8.399963 6.7113423 0.7857619 4.1057997 2.666295
0.5992746 0.7117614 5.9135127 5.6947947 5.007437 0.24976909 5.036853 4.2771173
2.5853403 0.7272274 1.8063232 9.763344 9.533896 0.7152683 2.199581 5.62289
2.3404906 1.5494816 8.633882 0.26313117 3.7799842 4.744454 0.3004082 6.0625277
1.7839001 0.36946425 3.20941 1.8963166 0.111172415 8.928931 8.221505 2.758164
0.29644108 4.3711944 2.5913603 0.92423755 0.46069276 1.7980493 4.650035 10.406027
2.2679644 0.59941757 0.77458185 1.1682523 5.0887713 13.829799 1.6118616 1.1281832
0.64805716 0.38450533 3.1806958 0.80589205 3.6876929 2.7200928 1.265627 1.2330098
0.106610306 3.0514646 1.2853793 1.6277539 6.004188 8.988372 6.104307 2.381751
1.2725313 9.252205 0.39596733 2.0594814 5.647651 0.5419236 5.098633 9.194345
5.3509617 4.7500796 0.09173252 0.48566613 0.36438346 1.9676234 6.098285 0.63364977
2.4190607 4.3761344 0.5931813 1.1939428 11.310382 0.93399763 2.2393236 4.993267
17.379925 0.24918278 0.28312895 0.57379854 1.7196609 2.9807587 4.130933 1.2094539
0.2454112 9.296645 3.0751781 1.8026354 1.2179167 1.7711873 1.8784884 7.581391
0.30490232 1.7506062 9.068628 0.24254735 2.6150212e-07 1.6227808 0.94406825 0.9584878
00000000: f16a 0440 5b4d 3b3f 72d9 6840 0b9f 193f
00000010: ef41 0240 5b0f 323d 4840 0d40 8069 3b40
00000020: 0f66 1f40 bf78 5940 9e38 883f 91ba 3340
00000030: 8d38 0440 be0a ac3f 6a52 9440 a4a7 3940
00000040: 23aa 253f 854e f03d 0de3 b03f 39c7 ad3f
00000050: 52d4 4340 f3a4 a940 9aca b740 e477 b03f
00000060: ff76 bb40 2f5c 1441 918e 5140 df52 0e3f
00000070: 0400 0000 92b0 8e40 db68 0f41 0312 a340
00000080: 329e 1040 ca2e 4840 066b ad40 3ce2 ac3f
00000090: b55f 3f40 60ff 053f f5ff 3a3e ba10 863f
000000a0: 312a 0f40 fc09 7b40 cdf9 ef40 6f71 9141
000000b0: 2b02 373f eb96 1a40 d4a2 8640 6f54 0f40
000000c0: de5a 3440 5572 6940 ca2c 3740 a0a7 4440
000000d0: fcee 3540 6893 dd3e b148 b83f e6ee f33f
000000e0: 3035 0e40 c2da 8d3e 665a 1840 910d 3d40
000000f0: d648 383e 260f b33f 121e 0140 5fc2 cd40
00000100: 677c 0e41 b3be c23f 1302 4841 8a6d 0b41
00000110: 54a5 a640 58a5 dc40 aa0f 9740 9e0a 7540
00000120: d229 393f a6c7 d340 8662 373f 88bb 7640
00000130: 7816 793e 7c96 d640 a531 c640 c30a 1e40
00000140: 8e9e 6e3f 1a51 8040 418a 3640 da49 1a3f
00000150: 444f b940 059a a740 3013 2b40 1127 f83c
00000160: dbe0 023e ae5d 2f3f 225d c13f 5044 e13e
00000170: 4f58 133f e40b a940 bb66 f83f e206 9e3f
00000180: 113e d440 b63d 8440 0744 bd40 560c 9240
00000190: b915 003f 6bd9 9640 dd8f 0341 0414 b03f
000001a0: baea 8840 2d58 993f 133d 7a3d 0b28 8f40
000001b0: 1041 d83e 42c5 313d 5c93 7140 d0c7 043f
000001c0: 7623 d640 9ace 2040 5282 1641 24fc a740
000001d0: 476b d13f 8726 a040 ffa0 9d3e 2714 dd3d
000001e0: 5925 373f e3dd 5c40 599a 283f 7882 e43e
000001f0: 6f75 853e be0b a040 b313 013f 6058 1a40
00000200: 5100 6440 54fd ce3e d4ab f13f 85f9 c73e
00000210: 9717 2a40 364c 973a 50bf 2e41 373c 6440
00000220: 022e 8840 67bf 013f eb30 603f 4066 0641
00000230: 51c3 d640 b127 493f b662 8340 94a4 2a40
00000240: 0f6a 193f ff35 363f 7f3b bd40 c23b b640
00000250: ed3c a040 78c3 7f3e e62d a140 25de 8840
00000260: 3776 2540 932b 3a3f 9935 e73f a836 1c41
00000270: d78a 1841 d31b 373f efc5 0c40 b7ee b340
00000280: 99ca 1540 6a55 c63f 6124 0a41 21b9 863e
00000290: 43eb 7140 91d2 9740 1bcf 993e 3a00 c240
000002a0: d756 e43f 6b2a bd3e f966 4d40 81ba f23f
000002b0: 5dae e33d e7dc 0e41 498b 0341 c285 3040
000002c0: 20c7 973e d3e0 8b40 d9d8 2540 d59a 6c3f
000002d0: ecdf eb3e 7b26 e63f 16cd 9440 167f 2641
000002e0: 5426 1140 6e73 193f ff4a 463f 4b89 953f
000002f0: 37d7 a240 db46 5d41 7b51 ce3f 4f68 903f
00000300: 13e7 253f e2dd c43e 8590 4b40 f14e 4e3f
00000310: 2903 6c40 0016 2e40 1100 a23f 44d3 9d3f
00000320: 8156 da3d 324b 4340 4f87 a43f 3d5a d03f
00000330: 4f22 c040 5fd0 0f41 7c56 c340 9c6e 1840
00000340: 4ee2 a23f 0809 1441 3bbc ca3e 8bce 0340
00000350: 8fb9 b440 81bb 0a3f 0028 a340 0a1c 1341
00000360: 143b ab40 a700 9840 42de bb3d 3ba9 f83e
00000370: 7890 ba3e 15db fb3f 2725 c340 df36 223f
00000380: e4d1 1a40 4b09 8c40 bbda 173f 1ed3 983f
00000390: 53f7 3441 781a 6f3f 1451 0f40 d8c8 9f40
000003a0: 160a 8b41 c529 7f3e 47f6 903e 76e4 123f
000003b0: d91d dc3f c0c4 3e40 9a30 8440 63cf 9a3f
000003c0: 134d 7b3e 0fbf 1441 b8cf 4440 c2bc e63f
000003d0: b2e4 9b3f 44b6 e23f 4f72 f03f c19a f240
000003e0: 281c 9c3e dd13 e03f 1a19 1141 555e 783e
000003f0: 9464 8c34 48b7 cf3f 75ae 713f 755f 753f

state_fs.2.running_var f4 [472]
26.067753 6.8843703 47.14627 3.5145009 3.7526588 0.14797753 23.883846 31.53886
42.835686 8.87231 9.804821 12.8482485 27.305874 14.251745 37.284176 25.567818
3.6511655 0.6393203 6.889103 8.118519 33.18196 64.253525 74.32071 7.950846
8.074346 104.029335 50.724937 2.7025442 6e-45 50.10679 47.39246 23.861458
33.1622 21.151068 70.09041 10.896387 37.123684 4.23263 1.0494156 11.69607
33.17447 33.659016 100.437805 610.68066 3.2540898 28.546392 57.229 2.267407
32.63181 60.71844 12.899908 24.039549 43.568478 1.467204 3.0897567 7.361817
26.021173 2.0295846 30.629227 15.63161 0.9672895 14.171195 15.535251 46.732075
89.40049 14.500412 261.28268 155.95654 65.43034 60.496784 45.024807 46.450977
6.7076073 84.00999 8.365579 27.54297 1.015773 83.58723 47.016598 33.301167
8.851452 52.562233 22.41158 2.2201407 45.01616 37.332993 44.476707 0.07484915
0.62238646 5.40303 8.36543 2.5460525 5.2393084 89.12545 16.469479 6.0534983
87.788605 36.3742 38.25116 48.16568 2.7040582 35.06066 75.1619 15.039158
27.007927 7.7145977 0.13508962 34.997902 2.6453831 0.18644673 51.920643 3.2990963
70.20136 16.843433 91.7868 52.72128 14.513805 53.764114 0.8346028 0.29463425
3.8934546 51.5072 4.818103 1.3922595 1.0825207 74.34427 3.8760364 1.8737156
56.105442 2.406881 16.244904 3.463404 35.349255 0.000555984 96.86041 45.878708
26.74202 2.0388694 7.8427753 105.052925 116.11379 4.326778 34.541256 42.15354
4.0749917 2.7756333 32.136467 59.75862 39.314476 1.1177684 67.00546 59.899483
27.618103 7.686207 11.053093 170.74455 44.01492 3.7789745 10.313015 51.120914
36.671673 17.242403 75.50176 1.2037826 47.55664 59.67649 1.524575 46.636047
25.246185 1.165468 26.743294 11.898846 0.32911003 81.52551 107.63322 28.437778
2.2357676 21.832367 26.311365 3.9094923 3.870222 19.87613 95.8674 169.9162
26.980917 4.7469854 2.9176846 13.6630335 50.61129 339.44882 20.844526 8.054413
3.2845714 2.021496 37.276855 3.847561 53.04424 22.782293 10.04673 10.640296
0.524905 8.67327 4.496323 14.034673 49.522884 87.43806 21.793028 15.345479
10.975287 79.70638 2.7889936 29.803873 61.31489 2.322155 44.50874 94.261696
63.214584 65.43385 0.44861546 2.935354 1.4210991 27.401407 63.628216 3.5621986
26.2822 63.797836 4.0619283 9.610881 128.33336 6.5762453 8.035552 82.731735
536.85876 1.532073 1.1964444 6.267561 12.7152605 46.75993 43.458206 2.084329
1.693828 76.309746 36.74825 3.3772736 4.744828 11.945778 15.613356 96.04856
1.5774608 12.812662 91.36893 0.858736 1.4590836e-07 14.36435 8.250337 6.8884683
00000000: c28a d041 c34c dc40 c895 3c42 95ed 6040
00000010: 902b 7040 6c87 173e 1e12 bf41 964f fc41
00000020: be57 2b42 fbf4 0d41 8ce0 1c41 6d92 4d41
00000030: 6e72 da41 2607 6441 ff22 1542 e48a cc41
00000040: b2ac 6940 7faa 233f 8873 dc40 74e5 0141
00000050: 54ba 0442 ce81 8042 34a4 9442 556d fe40
00000060: 8530 0141 050f d042 56e6 4a42 7cf6 2c40
00000070: 0400 0000 5a6d 4842 e191 3d42 44e4 be41
00000080: 18a6 0442 6335 a941 4a2e 8c42 9a57 2e41
00000090: a77e 1442 b471 8740 4053 863f 1a23 3b41
000000a0: a8b2 0442 d5a2 0642 28e0 c842 90ab 1844
000000b0: 0243 5040 035f e441 7fea 6442 321d 1140
000000c0: f986 0242 afdf 7242 0666 4e41 ff50 c041
000000d0: 1f46 2e42 57cd bb3f 93be 4540 0194 eb40
000000e0: 5d2b d041 b7e4 0140 a808 f541 131b 7a41
000000f0: 49a0 773f 37bd 6241 6390 7841 a5ed 3a42
00000100: 0dcd b242 b001 6841 2fa4 8243 e0f4 1b43
00000110: 56dc 8242 b5fc 7142 6719 3442 cdcd 3942
00000120: b8a4 d640 1d05 a842 69d9 0541 0158 dc41
00000130: da04 823f a92c a742 ff10 3c42 6534 0542
00000140: 8c9f 0d41 ba3f 5242 ea4a b341 c916 0e40
00000150: 8c10 3442 fc54 1542 26e8 3142 834a 993d
00000160: b854 1f3f 9fe5 ac40 cdd8 0541 86f2 2240
00000170: 6aa8 a740 3b40 b242 7ec1 8341 42b6 c140
00000180: c493 af42 2e7f 1142 3001 1942 a8a9 4042
00000190: 4a0f 2d40 1e3e 0c42 e552 9642 64a0 7041
000001a0: 3c10 d841 fcdd f640 ef54 0a3e dafd 0b42
000001b0: f54d 2940 e4eb 3e3e bdae 4f42 6524 5340
000001c0: 1967 8c42 5abf 8641 d792 b742 97e2 5242
000001d0: 8c38 6841 740e 5742 87a8 553f 4dda 963e
000001e0: 5c2e 7940 5f07 4e42 e62d 9a40 8f35 b23f
000001f0: 0a90 8a3f 44b0 9442 fb10 7840 ead5 ef3f
00000200: f96b 6042 570a 1a40 90f5 8141 69a8 5d40
00000210: a365 0d42 74bf 113a 88b8 c142 cc83 3742
00000220: a8ef d541 d67c 0240 04f8 fa40 191b d242
00000230: 433a e842 f774 8a40 3f2a 0a42 3a9d 2842
00000240: 5566 8240 faa3 3140 be8b 0042 d408 6f42
00000250: 0642 1d42 0913 8f3f cc02 8642 1299 6f42
00000260: e0f1 dc41 68f5 f540 78d9 3041 9bbe 2a43
00000270: 470f 3042 b8da 7140 1c02 2541 d17b 4c42
00000280: cbaf 1242 71f0 8941 e700 9742 8c15 9a3f
00000290: 003a 3e42 bab4 6e42 4625 c33f 508b 3a42
000002a0: 30f8 c941 0e2e 953f 44f2 d541 ac61 3e41
000002b0: 1c81 a83e 100d a342 3544 d742 9280 e341
000002c0: d116 0f40 b0a8 ae41 ad7d d241 1f35 7a40
000002d0: b8b1 7740 5002 9f41 1cbc bf42 8cea 2943
000002e0: ebd8 d741 4ee7 9740 58bb 3a40 c99b 5a41
000002f0: f671 4a42 73b9 a943 97c1 a641 e0de 0041
00000300: 6b36 5240 3160 0140 801b 1542 703e 7640
00000310: 4d2d 5442 2342 b641 68bf 2041 a73e 2a41
00000320: 2d60 063f b7c5 0a41 e1e1 8f40 058e 6041
00000330: 6f17 4642 49e0 ae42 1f58 ae41 1587 7541
00000340: c79a 2f41 ab69 9f42 df7e 3240 556e ee41
00000350: 7342 7542 309e 1440 f308 3242 fd85 bc42
00000360: bcdb 7c42 22de 8242 edb0 e53e d7dc 3b40
00000370: 93e6 b53f 1536 db41 4b83 7e42 10fb 6340
00000380: f241 d241 fc30 7f42 51fb 8140 2bc6 1941
00000390: 5755 0043 9a70 d240 9f91 0041 a676 a542
000003a0: f636 0644 f81a c43f 1725 993f dc8f c840
000003b0: b571 4b41 2b0a 3b42 34d5 2d42 a565 0540
000003c0: 5bcf d83f 979e 9842 35fe 1242 4025 5840
000003d0: a2d5 9740 e821 3f41 4ed0 7941 dd18 c042
000003e0: 3cea c93f aa00 4d41 e4bc b642 1fd6 5b3f
000003f0: fcaa 1c34 61d4 6541 6101 0441 556e dc40

act_fs.0.weight f4 [40, 2]
0.34653676 0.405177 0.20712487 -0.21603596 -0.47081515 0.06195719 -0.12143698 0.14581935
-0.45011306 0.28990498 0.34079805 0.037946552 0.608809 -0.09393664 -0.17675923 -0.006892576
-0.050607763 0.075240806 0.11860671 0.19283405 0.13128084 -0.08416766 -0.11322085 0.2843699
0.0049717873 -0.013112507 0.014707193 -0.014375157 0.09447417 0.23892796 0.08400456 0.42952353
0.036525544 0.30584776 0.07454513 0.028263116 0.3016487 0.40794957 -0.19443445 -0.28687814
-0.04569447 0.04979226 0.23208165 0.2894014 0.23560861 -0.095425464 -0.065896 0.05759783
-0.18089806 -0.21372811 0.16456941 0.220934 -0.14792402 0.18067838 0.005630069 -0.008002544
0.5090525 -0.3573163 0.280789 -0.07806245 0.004707089 0.00011576192 0.51998943 -0.17367847
0.5496518 0.21571201 0.3730482 -0.21834484 -0.0047840853 -0.006316787 -0.26710632 -0.29074618
0.031050503 0.025808414 0.44433728 -0.040040545 0.028151719 -0.041818723 0.19581771 0.0157949
00000000: 446d b13e 5c73 cf3e 8b18 543e 8838 5dbe
00000010: af0e f1be d3c6 7d3d f4b3 f8bd ab51 153e
00000020: 3875 e6be 6d6e 943e 157d ae3e d86d 1b3d
00000030: e8da 1b3f da61 c0bd 5f00 35be 1edb e1bb
00000040: 164a 4fbd da17 9a3d 13e8 f23d 4a76 453e
00000050: 7c6e 063e 1860 acbd 55e0 e7bd ee98 913e
00000060: 60ea a23b d7d5 56bc 70f6 703c c785 6bbc
00000070: ac7b c13d 88a9 743e 950a ac3d 82ea db3e
00000080: cf9b 153d 1498 9c3e 1eab 983d 0d88 e73c
00000090: b371 9a3e c4de d03e d319 47be b1e1 92be
000000a0: 202a 3bbd f8f2 4b3d d0a6 6d3e 6c2c 943e
000000b0: 6243 713e 6d6e c3bd 7bf4 86bd b4eb 6b3d
000000c0: 573d 39be 8bdb 5abe e284 283e 863c 623e
000000d0: 6579 17be c103 393e 717c b83b 1a1d 03bc
000000e0: 4451 023f 29f2 b6be 93c3 8f3e 35df 9fbd
000000f0: ed3d 9a3b 35c5 f238 071e 053f c5d8 31be
00000100: fbb5 0c3f 9ce3 5c3e 2c00 bf3e ca95 5fbe
00000110: d1c3 9cbb 0dfd cebb 29c2 88be afdc 94be
00000120: a05d fe3c 2b6c d33c 2d80 e33e 8e01 24bd
00000130: 6f9e e63c 1c4a 2bbd 7084 483e 4e64 813c

act_fs.0.bias f4 [40]
0.28773418 -0.17445068 0.7616347 0.34030604 -0.5675433 0.70513374 -0.9161687 0.20447226
0.0029037925 0.42810416 -0.5332526 0.6441485 -0.0061012446 -0.028413292 -0.23156545 -0.5465384
-0.2947156 0.9166176 -1.0719898 0.37898216 -0.52007985 -0.5700531 -0.43704006 0.11017329
-0.048746858 0.16167834 -0.57805246 0.0004421455 0.8516916 0.42863098 -0.00395759 -0.45476878
0.79826325 0.795641 -0.01314914 0.5146007 -0.5955316 -0.5002552 -0.79432327 -0.27314958
00000000: e551 933e 33a3 32be 7efa 423f 983c ae3e
00000010: 854a 11bf a583 343f 088a 6abf 2d61 513e
00000020: 8e4d 3e3b 7830 db3e 3e83 08bf ebe6 243f
00000030: f3ec c7bb fec2 e8bc 7e1f 6dbe f1e9 0bbf
00000040: f7e4 96be 73a7 6a3f f636 89bf f309 c23e
00000050: f423 05bf 00ef 11bf b7c3 dfbe 89a2 e13d
00000060: c9aa 47bd 028f 253e 3ffb 13bf c4cf e739
00000070: 7608 5a3f 8575 db3e acae 81bb 74d7 e8be
00000080: fb5a 4c3f 21af 4b3f 7e6f 57bc dfbc 033f
00000090: c274 18bf ba10 00bf c558 4bbf 43da 8bbe

layers.0.weight f4 [256, 512]
-0.11809422 -0.15460816 0.042859424 0.26125175 -0.035671934 0.15430833 -0.019471142 -0.112317905
0.05834703 -0.4532836 0.29714328 -0.20664564 -0.100094445 -0.03987872 0.06328397 -0.04259094
-0.39524102 -0.18246196 0.07667386 -0.2087261 0.14487034 0.003294808 -0.19404337 -0.5599156
-0.8363684 0.026321923 0.0721264 -0.35693407 -0.032763075 -0.13816439 -0.3821778 0.04890729
-0.10997141 -0.054025516 -0.058996055 0.074265644 -0.18715449 -0.10780367 -0.3370726 -0.17708015
-0.31262547 -0.12257681 -0.17883337 -0.10425513 -0.3322292 0.06544535 0.31343043 -0.45721075
0.09797768 0.12838034 0.10937274 -0.055610795 -0.063955106 -0.108231656 0.0982906 -0.0051898197
-0.29556355 -0.019090198 0.011993127 0.11524111 -0.3446948 -0.15792975 0.20970425 -0.020901538
0.056340672 -0.15791371 0.024934022 0.031847045 -0.3737726 -0.08572926 -0.0026580195 -0.16046274
0.22318396 -0.31563318 0.17208935 -0.17591143 0.6239743 -0.16359003 -0.42972493 0.07958421
-0.14020264 -0.21523787 -0.037416883 0.030758006 0.04134006 -0.13317332 0.09895485 -0.20745286
0.2518117 -0.09538513 -0.43414795 0.06845497 -0.0648463 0.13286225 -0.103299275 -0.0145551
-0.2080347 -0.26154456 0.3596276 0.010212293 -0.0052239797 -0.11796163 0.049737994 -0.31656986
-0.26381472 -0.025009442 0.58673126 -0.08520482 -0.27030277 -0.22703274 -0.020345993 -0.20181762
0.11044215 -0.28929415 0.08020618 -0.092679225 0.118435286 -0.2994973 -0.36795208 -0.552807
0.03400856 0.21492924 -0.15344363 -0.11747027 -0.1453322 0.052377015 0.051148947 -0.85364914
-0.11875014 0.09966063 -0.18707995 -0.054744303 0.119280905 -0.1162946 0.060375605 -0.13499753
-0.059162334 0.040377658 -0.0566371 0.10774308 -0.6312331 -0.2017928 -0.41943535 -0.10244251
-0.06429812 0.10721467 -0.17712112 -0.16669177 -0.48247564 -0.15144531 0.03175816 -0.08507642
0.056062944 -0.04749341 -0.13912971 -0.2145115 -0.24763 0.20292543 -0.025108794 -0.136882
0.24710824 0.32851568 0.01097337 0.12855202 -0.06381582 0.05095697 -0.3109245 -0.104520105
0.043053802 0.24386606 -0.2895038 -0.022381248 -0.20103084 -0.0061317375 -0.15501292 0.09114913
0.5114245 -0.014909218 0.16396105 0.41655523 -0.11151708 0.06969423 -0.2300565 -0.19054839
0.17989267 -0.03556834 0.062107813 -0.06419668 -0.48641774 0.06954167 -0.105758615 0.117287636
0.10804967 -0.15851356 0.0679285 -0.107000336 -0.035205856 -0.20781533 -0.061981816 -0.29091972
-0.079336695 -0.34119755 -0.38122264 0.24636252 0.03136576 0.006787196 -0.25030646 0.15956582
-0.00076182047 0.021748938 -0.2584032 -0.16175675 -0.16063832 -0.20582366 0.16902488 0.119365886
-0.13892145 -0.3150949 -0.052473728 -0.15205619 -0.24955647 -0.10768773 -0.03166409 0.1332005
0.049615834 -0.04013716 0.14518707 0.047827266 -0.18521583 -0.04042157 -0.28708744 -0.25958243
-0.09739777 0.16708696 0.1267656 -0.04588359 -0.28086466 0.019418918 0.0670504 -0.37749246
0.17265302 -0.24284796 -0.046257023 0.09774736 0.49408898 0.14917359 0.24799557 -0.12298645
-0.071591154 -0.0011411957 0.10292925 -0.353087 -0.20673446 -0.11846859 0.4979263 0.22144943
00000000: 62db f1bd 9a51 1ebe 5d8d 2f3d cac2 853e
00000010: bc1c 12bd 0103 1e3e f281 9fbc ee06 e6bd
00000020: 4cfd 6e3d ca14 e8be 2a23 983e ea9a 53be
00000030: 51fe ccbd de57 23bd 079b 813d d673 2ebd
00000040: 085d cabe 4fd7 3abe 2f07 9d3d 4bbc 55be
00000050: e458 143e b5ed 573b 4eb3 46be a156 0fbf
00000060: 3d1c 56bf 13a1 d73c 02b7 933d 10c0 b6be
00000070: 9332 06bd f77a 0dbe cfac c3be 0353 483d
00000080: b138 e1bd dc49 5dbd d9a5 71bd 9618 983d
00000090: 6da5 3fbe 2cc8 dcbd c894 acbe 8054 35be
000000a0: 7210 a0be 8d09 fbbd 1820 37be b783 d5bd
000000b0: f219 aabe 3608 863d f479 a03e 8717 eabe
000000c0: 86a8 c83d 2376 033e d1fe df3d 25c8 63bd
000000d0: e5fa 82bd 8fa8 ddbd 954c c93d 5d0f aabb
000000e0: 1b54 97be 0c63 9cbc d27e 443c 8803 ec3d
000000f0: d67b b0be 56b8 21be b6bc 563e b439 abbc
00000100: 7ac5 663d 22b4 21be 6f42 cc3c 0c72 023d
00000110: 1f5f bfbe d392 afbd 2b32 2ebb 5850 24be
00000120: 568a 643e ac9a a1be 3138 303e 2022 34be
00000130: c8bc 1f3f 2584 27be e804 dcbe 0cfd a23d
00000140: 4891 0fbe 5167 5cbe 7242 19bd 37f8 fb3c
00000150: 3254 293d 965e 08be d7a8 ca3d 866e 54be
00000160: 77ed 803e 4759 c3bd a448 debe 1f32 8c3d
00000170: 23ce 84bd 0b0d 083e 928e d3bd 8478 6ebc
00000180: 0c07 55be 2be9 85be 1c21 b83e 7651 273c
00000190: eb2d abbb de95 f1bd 11ba 4b3d 7215 a2be
000001a0: b912 87be 9ae0 ccbc 0534 163f dd7f aebd
000001b0: 2065 8abe 457b 68be a4ac a6bc 47a9 4ebe
000001c0: 7e2f e23d 5d1e 94be 2343 a43d 9bce bdbd
000001d0: 338e f23d b657 99be 3764 bcbe c284 0dbf
000001e0: 8f4c 0b3d 6916 5c3e 5420 1dbe 4194 f0bd
000001f0: f7d1 14be 4889 563d 8f81 513d c088 5abf
00000200: 4633 f3bd df1a cc3d e391 3fbe 903b 60bd
00000210: 8c49 f43d dd2b eebd 694c 773d cb3c 0abe
00000220: 3454 72bd 0b63 253d 4efc 67bd 67a8 dc3d
00000230: 7e98 21bf c6a2 4ebe 3bc0 d6be 61cd d1bd
00000240: bcae 83bd 5d93 db3d 3d5f 35be 3fb1 2abe
00000250: 0c07 f7be 7b14 1bbe d814 023d 8c3c aebd
00000260: 42a2 653d 7388 42bd 0578 0ebe e7a8 5bbe
00000270: b892 7dbe afcb 4f3e f5b0 cdbc cc2a 0cbe
00000280: f109 7d3e 3533 a83e a6c9 333c 24a3 033e
00000290: deb1 82bd 41b8 503d 7f31 9fbe a30e d6bd
000002a0: 2f59 303d 06b8 793e d839 94be e158 b7bc
000002b0: 07db 4dbe beec c8bb b5bb 1ebe 65ac ba3d
000002c0: b7ec 023f cb45 74bc 68e5 273e ba46 d53e
000002d0: 1163 e4bd d9bb 8e3d ee93 6bbe 1e1f 43be
000002e0: c935 383e 1cb0 11bd c364 7e3d 8d79 83bd
000002f0: bf0b f9be dd6b 8e3d f997 d8bd 8034 f03d
00000300: 2549 dd3d 6151 22be 191e 8b3d fe22 dbbd
00000310: 0434 10bd 8bcd 54be a5e0 7dbd 6ef3 94be
00000320: 477b a2bd 72b1 aebe 9d2f c3be 7546 7c3e
00000330: 6279 003d 2067 de3b 2b28 80be 3965 233e
00000340: e8b4 47ba d42a b23c 6d4d 84be 90a3 25be
00000350: 5f7e 24be 70c3 52be dc14 2d3e 1a76 f43d
00000360: 6d41 0ebe 1e54 a1be b1ee 56bd 9eb4 1bbe
00000370: bb8b 7fbe 628b dcbd 34b2 01bd b665 083e
00000380: f939 4b3d dd66 24bd ebab 143e 86e6 433d
00000390: 38a9 3dbe 1791 25bd 20fd 92be fde7 84be
000003a0: 7b78 c7bd d818 2b3e d7ce 013e 6ef0 3bbd
000003b0: 7ecd 8fbe 6c14 9f3c b851 893d b146 c1be
000003c0: f4cb 303e 23ad 78be 0178 3dbd c52f c83d
000003d0: 3bf9 fc3e f6c0 183e 8df2 7d3e 52e0 fbbd
000003e0: 629e 92bd 2c94 95ba 92cc d23d d2c7 b4be
000003f0: 33b2 53be a99f f2bd 32f0 fe3e a4c3 623e
