c_target.pth (torch_old, 719376 bytes, 17 tensors)

state_fs.0.weight f4 [472, 24]
000000 1b e5 dc 3d e9 2e ac 3e af 58 e5 3d 01 3d 1a bd
       0.10785886 0.3362954 0.11198556 -0.037655834
000010 6b 8d e1 bd 4f 64 ab bd 86 14 91 bc 78 c0 3f 3e
       -0.110133015 -0.08368742 -0.017709982 0.18725765
000020 58 0d 10 3e 9b 26 a4 3e c9 09 a1 be 24 09 9a 3e
       0.1406759 0.32060704 -0.31452778 0.300851
000030 8a 5d 62 3e d0 6b 9b bd 66 56 9f be 3a d1 93 3e
       0.22105995 -0.07588923 -0.31120604 0.28870565
000040 0e a3 5d 3e 53 16 85 3e 99 96 10 3e 4d bf 93 be
       0.21644232 0.25993595 0.14119948 -0.28856888
000050 8d 92 3c be 27 6a d0 bd cc 1c eb 3d 29 cf 9a bc
       -0.1841528 -0.10176497 0.11480102 -0.01889761
000060 ad 5c f1 3e 44 46 9a 3e 13 f6 05 be 8f 87 ca 3e
       0.47141019 0.30131733 -0.13082151 0.39556548
000070 15 cd 5f 3e 95 d0 58 be fe c6 52 be 1e 95 e1 3e
       0.21855576 -0.21173318 -0.20583722 0.4405908
000080 c2 2d e6 3e 86 c3 da 3e dd e4 76 bd 35 9d fc 3d
       0.44956785 0.42727298 -0.060276855 0.12334672
000090 b2 4a c7 3e 1b 53 5c bd ab 6a 87 bd ee 30 d6 3c
       0.38924176 -0.053790193 -0.06612142 0.026146378
0000a0 be 5c 8d 3e e9 46 6b 3e 62 2f de 3c a0 f4 a8 3d
       0.2760982 0.22976269 0.027122203 0.082497835
0000b0 96 8a c3 3e 7a 2c af 3c cd 8d 28 3d c1 63 79 3e
       0.3819167 0.021383513 0.041150857 0.2435446
0000c0 e1 3a 0b 3e ab d4 99 be 5b fe ab 3d 96 92 ad be
       0.1359668 -0.30045065 0.08398124 -0.339009
0000d0 d2 f2 31 be a1 64 01 3d cc 40 4e 3d 66 fa d8 be
       -0.17377785 0.031590108 0.050354764 -0.4237854
0000e0 db fb b4 bd b9 a0 c6 be f6 61 9a be 5a 6e 8b 3e
       -0.088371 -0.38794497 -0.30152863 0.2723263
0000f0 37 61 0d be 47 1f 1d 3d 46 3d b6 be 8b 94 94 3e
       -0.13806616 0.038359907 -0.35593623 0.2901958
000100 ac 2b 52 3e f8 28 bb be d2 3c 28 3e b4 1e c4 3e
       0.20524472 -0.36554694 0.16429451 0.38304675
000110 fd 43 90 3d 82 69 25 3d c8 c9 34 3e cf f8 48 3e
       0.07044218 0.040383823 0.17655098 0.19626163
000120 42 63 50 be a7 02 d2 3f f8 5e 0f bd 2c 47 54 3e
       -0.20350364 1.640706 -0.03500268 0.20730275
000130 ae 3f 71 3e 94 3b 21 bf 57 21 68 bb 3c 2c 86 3e
       0.23559448 -0.62981534 -0.0035420263 0.26205623
000140 1d c2 1a 3d 87 e6 de 3f 09 26 86 3d c0 1d d6 3d
       0.037782777 1.7414101 0.065502234 0.10454893
000150 55 a4 8f 3d c7 c6 56 bf 51 65 d6 bd 79 9b 16 3e
       0.07013766 -0.8389706 -0.10468543 0.14707746
000160 62 ac 68 be 08 4b d1 3f 93 0d da bd 02 35 f7 bd
       -0.22722009 1.6351023 -0.1064712 -0.12070657
000170 14 3a ec be a0 d4 00 bf 6a bf ee 3b 0d 93 cb bd
       -0.4613806 -0.5032444 0.007286002 -0.09940157
000180 3b 84 51 be 33 91 6b be 3e 77 00 3d d1 37 31 be
       -0.20460598 -0.23004608 0.03136372 -0.17306449
000190 ee f4 aa 3d 1f 02 92 bf f1 78 3b bd 7e da 09 3e
       0.08347498 -1.1406897 -0.045769636 0.13462254
0001a0 1f e4 b9 bc e7 7e fa bc 9e 73 67 bc 0e 10 0d 3e
       -0.022691784 -0.03057809 -0.014126686 0.13775656
0001b0 11 71 3f 3e f1 d5 8a be 35 67 fe bb bf 46 6b bd
       0.18695475 -0.2711635 -0.007763768 -0.057440516
0001c0 e7 a9 2f be ac 2e 8a bc a8 b4 1d 3d 0a f0 d9 b9
       -0.17154656 -0.016867958 0.038502365 -0.00041568308
0001d0 81 ef ab be e4 ac e3 3f fd 18 62 bd f7 ba b9 bd
       -0.33581164 1.7787137 -0.055199612 -0.09068864
0001e0 30 4e a3 3e 4d 52 8c 3f 5a db e8 3c fd 0e f3 3d
       0.3189559 1.0962616 0.028424907 0.11868093
0001f0 e4 c1 87 be fa 4c 61 bd af 2b ab 3d 7b 57 a7 3d
       -0.26515114 -0.05500505 0.08357941 0.081709825
000200 a6 1a 7a 3e 1c 8f 83 3f 7f 90 67 be 78 34 0f 3d
       0.24424228 1.0278049 -0.22613715 0.034962147
000210 b8 ef ed be e1 8d 00 bf 60 47 8d 3d 41 d6 15 bd
       -0.46471953 -0.5021649 0.06898379 -0.03658128
000220 88 f5 d0 3e 60 fb 86 3f a2 40 28 be 8e 9d f1 3d
       0.40812325 1.0545464 -0.16430905 0.11797629
000230 2f 60 95 be 77 2f 95 bf 90 9c 12 3d 0e 87 5f be
       -0.29174945 -1.165511 0.03579384 -0.21828863
000240 cd 07 8c 3e 08 2d 95 3d 7a b5 07 3e 98 57 1a bf
       0.27349702 0.0728398 0.13252822 -0.6028991
000250 f2 9c 64 bc 96 47 d2 be fc c0 53 3c e9 44 c9 be
       -0.013953434 -0.4107024 0.012924429 -0.39310387
000260 e7 e5 5f 3e 20 32 20 be bf 03 61 be 16 a2 14 3e
       0.21865045 -0.15644121 -0.21974085 0.14514956
000270 c6 74 2c 3e bf a8 24 3e f3 a4 a9 be 37 d0 2c 3d
       0.1684142 0.16079997 -0.3313366 0.042190757
000280 0e 39 7a 3d de af b0 be 61 ea 21 3d 48 c9 ad 3e
       0.061089568 -0.34509176 0.03953016 0.33942628
000290 62 fa 8b bd 50 33 d5 3e 98 69 2e 3e b9 08 85 3e
       -0.06834866 0.4164071 0.17032468 0.25983217
0002a0 0e 52 b6 3e 93 f2 31 bf 6c 3f 31 be 9a d3 ab bd
       0.35609478 -0.69510764 -0.1730935 -0.08389969
0002b0 fb 86 b5 bd a2 46 af be 8f 82 fb bd 5a cb 77 3e
       -0.08863636 -0.34233576 -0.122807615 0.24198666
0002c0 10 9e c2 3d 28 33 0b bf 2e 5a 48 3e b7 1e 0c 3f
       0.09502804 -0.54374933 0.19565651 0.5473437
0002d0 f6 18 11 bd 0f 2b 49 bf ac 38 b3 ba ba c7 d9 3e
       -0.035424195 -0.7858133 -0.0013673506 0.42535192
0002e0 bf 39 95 3e cc 29 18 bf 75 60 13 3e 81 36 c0 bd
       0.2914562 -0.59438777 0.14392264 -0.09385396
0002f0 07 66 95 be 88 36 6b bf 19 28 46 3e b9 4f 45 be
       -0.29179403 -0.91880083 0.19351234 -0.19268693
000300 b0 fa 0c bc b3 e0 44 3e c1 9b 6e 3e 94 8b 88 bc
       -0.00860469 0.19226341 0.23301603 -0.016668119
000310 07 d6 0c be 4e 05 24 be 84 8b 54 3e 34 39 eb bd
       -0.1375352 -0.16017649 0.20756346 -0.1148552
000320 e4 a9 ee 3d ca de 06 be ec 7f eb bd ad 74 38 bd
       0.11653498 -0.13170925 -0.114990085 -0.045033146
000330 4f 9d 61 3c b8 44 0c 3b 89 b8 df be 27 2e a3 bc
       0.013770415 0.0021403264 -0.43695477 -0.019919468
000340 45 e2 35 3e f7 0a 98 bd a8 00 27 be a2 9f eb 3c
       0.17762096 -0.074239664 -0.16308844 0.028762642
000350 c3 43 27 3e a7 a4 b5 bc a6 10 0d 3e 4e 44 e1 3d
       0.16334443 -0.022173239 0.13775882 0.10999356
000360 c9 bc 32 be 4c db 3a bf 83 be 03 3e 0b 10 2e bd
       -0.17454828 -0.7299087 0.12865643 -0.04249577
000370 0d 4b b8 be e7 7b f7 be 66 34 0c be 2d 96 e8 bc
       -0.3599476 -0.48336717 -0.13691863 -0.028391922
000380 7c fe 97 3e f5 bb 2f bf da f9 39 bd e2 e1 2b be
       0.29686344 -0.68646175 -0.045404293 -0.16785386
000390 17 01 09 be 90 cd 83 3e 41 1c e4 3c 53 13 7f bb
       -0.13379322 0.2574277 0.027845504 -0.003892143
0003a0 a2 d3 99 3e 53 49 04 bf d8 47 77 bb fd e2 39 3d
       0.30044276 -0.51674384 -0.0037732031 0.04538249
0003b0 33 57 fb 3e e7 72 0a 40 48 14 1c bc 30 cd 8f 3d
       0.49089965 2.163263 -0.00952632 0.07021558
0003c0 47 9f 05 3e 36 43 a8 be 70 e0 2a 3e e1 d6 8f be
       0.1304904 -0.32863778 0.16687179 -0.28093627
0003d0 10 ba bf be 19 ea 88 bf 01 f0 01 be 6b cd 88 be
       -0.37446642 -1.0696441 -0.1268921 -0.2671922
0003e0 03 3b 6d 3e 93 40 8f be 31 5e e2 bd 3a c4 b3 3e
       0.23167042 -0.27978954 -0.11053122 0.35110646
0003f0 d3 23 0c bf 83 78 5c bf 41 38 b1 3d 64 40 17 3d
       -0.54742163 -0.86121386 0.08653308 0.036926642

state_fs.0.bias f4 [472]
000000 6c cd 07 3d 4b 90 a9 be 74 87 1e bd 96 5c 9b be
       0.03315489 -0.331179 -0.038703397 -0.30344075
000010 01 5f 92 be 29 ad 0e bf e5 c2 43 be a2 24 4d bd
       -0.28588107 -0.5573297 -0.19117315 -0.050083764
000020 ff 82 93 3d f6 f6 75 be f3 8b fe 3d 6c ea b7 be
       0.0720272 -0.2401999 0.12429037 -0.35921037
000030 4b e4 2e be bd 32 e7 be 67 40 84 bc a8 eb 93 be
       -0.17079274 -0.45155898 -0.01614399 -0.2889073
000040 d8 d4 b5 be fd ce 13 bf 7c 31 28 bf 06 b1 cc bc
       -0.3551395 -0.57737714 -0.6570051 -0.024986755
000050 d7 52 0e be 51 a7 75 3e 87 25 50 bd c6 1c 5a bf
       -0.13898788 0.23989607 -0.05081704 -0.85200155
000060 59 e8 73 bf 39 f3 1d bd 01 02 4c bd 92 42 26 bf
       -0.9527641 -0.038562033 -0.0498066 -0.6494533
000070 b6 0c 87 be 6a dc 14 be 1e bc a8 be 37 2a 38 bf
       -0.26376885 -0.14537206 -0.32956022 -0.71939415
000080 76 08 e1 be 57 e7 4b be 72 c8 09 bf 05 75 47 bf
       -0.43951768 -0.19912468 -0.5382148 -0.7791293
000090 4c 71 e9 be 51 8b c3 bd 1a 40 62 bf 45 0e c9 be
       -0.4559425 -0.09548057 -0.8837906 -0.392687
0000a0 51 60 18 bf 3c 55 f2 be 34 f6 21 bd 68 bf b6 bd
       -0.5952197 -0.47330654 -0.03954144 -0.089232266
0000b0 01 46 51 be 4c 4f a7 be 50 37 c9 be c3 6d 48 3f
       -0.2043686 -0.32677686 -0.39300013 0.78292483
0000c0 7c b6 a0 be cf 59 46 be 38 8e ca be d6 ba eb bd
       -0.31389225 -0.19370197 -0.3956163 -0.115102455
0000d0 7b bb 67 be 57 29 87 3c bc 65 84 3c dc 08 0f be
       -0.22630112 0.016499205 0.016161792 -0.13968223
0000e0 f3 aa 8e bd e2 03 47 bf 0a 02 db ba a3 c0 24 bf
       -0.069662 -0.777403 -0.0016708982 -0.6435644
0000f0 9b a1 31 bf 68 93 29 be 40 b7 c6 be e5 58 98 be
       -0.69387215 -0.16560137 -0.38811684 -0.2975532
000100 21 01 b0 be 6a 80 59 bd 58 cb d0 3e 62 3f 6d bf
       -0.3437586 -0.05310098 0.4078014 -0.9267484
000110 83 f4 f7 be 56 6a 6d bc 02 7b 3a be 9e f9 23 bf
       -0.48428735 -0.0144906845 -0.18210986 -0.6405276
000120 aa ad b5 be 36 20 45 3d da 51 89 be a2 ab 25 be
       -0.35484058 0.048126422 -0.2682026 -0.16178754
000130 3f f2 09 3e 8e 7e 5c be 52 8d b6 be 34 4f dd be
       0.13471316 -0.21532652 -0.35654694 -0.4322449
000140 9f dd 23 bf 3f a7 16 bd 32 a3 97 3b d3 6e a4 be
       -0.6401004 -0.036780592 0.0046276087 -0.32115802
000150 a7 23 30 3e 59 93 a7 be 6a 11 88 be 0b b3 85 bf
       0.172011 -0.32729605 -0.26575786 -1.0445265
000160 50 58 07 bf 09 4b a4 be b1 81 40 bf 25 3f 4f bf
       -0.5286913 -0.32088497 -0.75197893 -0.80955726
000170 ea 18 0e be c2 bc 02 be 12 e2 66 3d 10 80 09 bf
       -0.13876691 -0.12767318 0.05636794 -0.5371103
000180 e1 1b 52 bf b3 37 2b be ee b6 8b be 34 b3 50 be
       -0.8207379 -0.16720466 -0.27288002 -0.2038086
000190 ed fb 0f bf 0c 6d 2d 3d 70 75 c0 be 08 63 16 bf
       -0.56243783 0.042340323 -0.37589598 -0.5874486
0001a0 48 09 82 bf 2c ae ae be b7 f6 91 be 81 43 35 be
       -1.0159082 -0.34117258 -0.2850854 -0.17701532
0001b0 df 61 eb be 68 9c b3 be a1 f1 57 be 24 6a ca be
       -0.45973107 -0.35080266 -0.21088268 -0.39534104
0001c0 3c 69 55 3e f4 e2 df bb 8b 3e af bd b6 37 65 bd
       0.20840925 -0.006832475 -0.08556851 -0.055961333
0001d0 62 f5 bc be 56 5c cd be 4b 13 c5 be 4a 8e 84 3c
       -0.36905962 -0.4010951 -0.38491282 0.01618113
0001e0 30 ee c8 be e2 eb fa be 60 85 58 bf 7c dc de 3d
       -0.39244223 -0.4900809 -0.84578514 0.10881898
0001f0 6c e8 ad bc 00 67 11 3e 44 b4 b2 be 62 1c c4 3f
       -0.021228991 0.14199448 -0.34903157 1.5321162
000200 75 2d aa be a7 07 3d bf 82 a2 38 be a3 d8 23 bf
       -0.33237806 -0.738398 -0.18030742 -0.64002436
000210 13 04 b7 be 9e e2 de be 4d 23 ad be b8 0f c6 be
       -0.35745296 -0.4353227 -0.33815995 -0.38683867
000220 c2 17 ca be 92 d0 93 3d e0 a3 f9 be d9 6d dd bd
       -0.3947125 0.07217516 -0.4875784 -0.108119674
000230 b9 ba e8 bc a0 81 8c be 1a 6d a1 bd 56 90 98 be
       -0.028409349 -0.27442646 -0.078821376 -0.2979762
000240 1a 0a 11 be 5a 25 e4 be 0e 69 82 be ef 36 45 3d
       -0.1416401 -0.44559747 -0.25470775 0.048148092
000250 8a be 00 bf f7 1b 29 bf 90 c4 82 bc 46 ee b5 be
       -0.5029074 -0.66058296 -0.015962869 -0.3553335
000260 b9 ab d7 bd b4 26 03 bf dd 9e 9e bf 3b 1f 6f bf
       -0.105308 -0.5123093 -1.2392231 -0.9340703
000270 e8 87 b6 3e 37 31 86 3e 07 cf c8 be d7 93 a2 be
       0.35650563 0.26209423 -0.3922045 -0.31753418
000280 41 a7 31 bf e1 a4 9d be d6 55 84 3d e7 04 3a bf
       -0.69395834 -0.30789855 0.064616844 -0.7266373
000290 51 15 09 bf 39 de 39 be 76 80 0c bf cc 1f 95 bd
       -0.5354815 -0.18151177 -0.54883516 -0.072814554
0002a0 27 53 f6 be bd 91 07 3f 4e 4a 6d bf c2 55 0a bf
       -0.48110315 0.52956754 -0.92691505 -0.54037106
0002b0 63 3e ea bd f6 e4 5b be 73 1e 69 be c7 95 3b be
       -0.114376806 -0.2147406 -0.22765522 -0.18318854
0002c0 bd 8a 57 bf 34 f6 46 bc 7d 07 f4 be 00 f7 15 be
       -0.8419607 -0.01214366 -0.47661963 -0.14645004
0002d0 a6 e5 e5 be fc 33 b4 be 6f 0e 0b bf 40 0b d8 3a
       -0.4490177 -0.3519591 -0.543189 0.0016482845
0002e0 9c 12 fd bd da bc 04 bf 3e 60 b8 be 74 ac 9a be
       -0.12357065 -0.51850665 -0.36010927 -0.30209696
0002f0 ac 3d 75 be ce f6 9d bc 01 30 43 be fa fd 06 be
       -0.23949307 -0.019282725 -0.19061281 -0.13182822
000300 3c 06 ba be 72 90 3f be 9a 75 ee be 8f c1 bb be
       -0.3633288 -0.18707445 -0.46574098 -0.3667111
000310 83 1b cf be 20 ab 72 bf 48 e9 51 bf bf 50 df be
       -0.40450677 -0.94792366 -0.81996584 -0.43616292
000320 f4 ff d6 bb bb b2 77 be 7a 01 e1 be f9 76 1d be
       -0.0065612737 -0.24189274 -0.4394644 -0.15377416
000330 a1 7f 56 be 93 bf 13 bf f6 a0 6f bf 12 fe 4f 3e
       -0.20947124 -0.57714194 -0.9360498 0.20311764
000340 1f 13 52 be 24 37 08 3e 24 58 e2 be 01 4e 4d be
       -0.20515107 0.13302284 -0.4420787 -0.20049287
000350 7f a6 94 3d 7f cc 95 be aa 75 ea be ff bc 31 3d
       0.07258319 -0.2925758 -0.45792896 0.04339313
000360 4f 98 a7 bf 85 bf 04 be 82 5f 64 bf be ca b9 be
       -1.3093356 -0.12963684 -0.89208233 -0.36287493
000370 e3 7f bf be de 47 68 bd 08 a3 ae be d4 f6 df be
       -0.37402257 -0.056709163 -0.34108758 -0.43743002
000380 72 43 c4 be cd bf 2a be ac e6 db be ed 7d cf bd
       -0.38332707 -0.16674729 -0.42949426 -0.1013144
000390 38 5e 23 be 7e 21 d4 be c5 c3 36 bf df ab a0 3d
       -0.1595391 -0.41431803 -0.7139247 0.07845282
0003a0 3b 08 90 bd 27 37 f0 be 69 30 a4 be 2b ea d7 be
       -0.0703282 -0.46917078 -0.32068184 -0.42170843
0003b0 5f 96 7e bf c9 b9 cf bd b8 06 e8 be 57 70 26 bf
       -0.994482 -0.101428576 -0.45317626 -0.65015167
0003c0 5b 79 16 bf cd 48 17 bf 25 d7 37 be 87 d5 8b 3e
       -0.58778924 -0.5909546 -0.17953165 0.27311346
0003d0 6d cd 06 bf 7f fb c6 be 17 bf 7a be a9 86 e0 bd
       -0.52657205 -0.3886375 -0.24486957 -0.109631844
0003e0 0c 50 23 bf 8d 43 4b bf 10 d5 f6 be 65 59 67 bd
       -0.63794017 -0.7939995 -0.4820943 -0.056481738
0003f0 5a 9f cc be a1 88 9a be 13 4e 67 bd c0 e0 09 bf
       -0.39965326 -0.30182365 -0.05647094 -0.53858566

state_fs.2.weight f4 [472]
000000 d9 23 ef bb 36 14 1b be 58 ed 50 bc 3d 64 e0 3e
       -0.0072979745 -0.15144429 -0.0127519 0.43826476
000010 97 64 ab 3f 27 3d 62 3e 62 68 80 3d 2b dd 90 3e
       1.3390073 0.2209364 0.062699094 0.28293738
000020 2f f9 1c 3b e6 67 38 3f 30 54 bb 3e de 33 c1 3e
       0.0023952236 0.72033536 0.36587667 0.37734884
000030 a8 9a 51 bb 2f de 2e 3e 63 23 4d 3a ed 9f 9c 3e
       -0.0031983051 0.17076944 0.00078254024 0.30590764
000040 c1 9f d2 3e 04 c3 57 3e 89 04 26 3e 54 9d 07 3e
       0.41137508 0.21070486 0.16212668 0.1324361
000050 69 95 d5 ba 5e 69 40 b9 34 df 47 b8 1c e1 84 3e
       -0.0016295138 -0.00018349799 -4.765317e-05 0.25952995
000060 66 50 e9 3e da b2 c8 3a ab 71 e2 3b fb 08 8a 3e
       0.45569152 0.0015312091 0.006910523 0.26959977
000070 d4 eb d9 3d d4 c1 3c 3c f5 10 17 3f d9 cc 86 3d
       0.10640684 0.011520822 0.5901025 0.0658204
000080 41 f8 ea bb 34 a2 b1 3e 99 96 08 3d bb c8 fa 3e
       -0.0071707075 0.34694064 0.033346746 0.4898127
000090 04 8e 1a 3d 02 56 6b bd f4 39 56 3e 79 e1 a2 bd
       0.037733093 -0.05745507 0.20920545 -0.07953162
0000a0 ae e9 1b 3e 7e 8b 85 3e 99 fd d3 3e b6 36 32 3f
       0.1522586 0.26082987 0.41404417 0.6961473
0000b0 cc d5 52 3e f9 82 1e 3d 23 c0 d9 3d 64 5c 79 3f
       0.2058937 0.038699124 0.1063235 0.974066
0000c0 ec 0d 3a bb 84 75 2c bd 2e 94 98 3f ba c3 a8 3c
       -0.0028389646 -0.04210426 1.1920221 0.020601142
0000d0 a6 08 46 bc 91 25 20 3f b5 13 e3 3f ac fd 74 3f
       -0.012087023 0.6255732 1.7740389 0.9569957
0000e0 a9 a1 72 bd df 19 24 3e b6 3d c7 3b 64 c5 f1 3e
       -0.059236202 0.16025494 0.0060803546 0.4722091
0000f0 e9 e3 06 3e d6 67 20 3e 87 b4 a6 3e 62 b2 41 bc
       0.13172878 0.1566461 0.32559606 -0.011822315
000100 fe b1 08 3c 2e 4c 3b bd 2f 9c 1e 3f e2 03 2c 3e
       0.008343218 -0.045726947 0.6195707 0.16798356
000110 a7 92 b7 3c b0 af 15 3f c4 55 8c bc 58 38 2a 3d
       0.022408796 0.584712 -0.01713074 0.04155764
000120 9c 2e 63 3e 92 a2 4f 3e ee a2 d7 3d e1 3b ab 3e
       0.22185749 0.2027686 0.10529123 0.3344412
000130 40 ed 5f 3f 04 0b b3 b9 8c 13 9c 3d ed 9d fd bb
       0.8747139 -0.00034149748 0.07620916 -0.0077397735
000140 ea 34 6e 3e 75 de 22 3a eb c9 7c 3a 97 ae 23 3f
       0.23262373 0.0006212958 0.0009643125 0.6393828
000150 e6 1a 8c 3e 21 b1 6c 3e 0d f0 15 3e c8 c0 3f 3e
       0.27364272 0.23114444 0.14642353 0.18725884
000160 d9 13 40 3e 7d ed 39 3e cb 1a e4 3e e9 e0 7f 3e
       0.18757571 0.18157001 0.4455169 0.2498814
000170 05 2a e8 3c ba d9 42 bb 5c 03 e3 ba f4 eb 1e 3e
       0.028340349 -0.0029731826 -0.0017319727 0.15519696
000180 03 a5 29 3e b8 4c 5a 3e 06 13 2a 3f 9d 9f 16 bc
       0.16566853 0.21318328 0.6643528 -0.009193328
000190 21 e2 c5 3e 53 23 b8 3e 92 3e 09 3c 68 88 95 3c
       0.38649085 0.3596445 0.008376734 0.01825352
0001a0 5c 0f d0 3e fa 22 3b be d5 80 3b 3e 22 bb 00 ba
       0.40636718 -0.18275061 0.18310864 -0.00049106975
0001b0 d0 cf 32 3e 79 87 63 3e 08 88 61 bb b3 0c 1d 3e
       0.17462087 0.22219647 -0.0034413356 0.15336876
0001c0 81 5c b5 3f 89 8b 8d 3f ce 75 8c 3c 14 d1 ee ba
       1.4168855 1.1058208 0.017146017 -0.0018220269
0001d0 d4 14 4f 3e 03 92 a3 3c 28 38 1f be f8 8c 38 3e
       0.20222789 0.019967085 -0.15548766 0.18022525
0001e0 44 ab d2 3e 7a 8a 9d bd af 6b 92 3e e1 9b a8 3f
       0.4114629 -0.07692428 0.2859778 1.317257
0001f0 aa c0 db 3e 8f 5c 9a bb 25 b9 1d 3e 9e 33 1b 40
       0.4292043 -0.004710741 0.15402658 2.4250255
000200 fe 9b 85 bc 14 fe b4 3e 8d e3 f3 3e 2e db 09 3e
       -0.016309734 0.35350096 0.47634545 0.13462517
000210 c4 e5 8b 3a b1 7e 43 3e b7 5a fe ba fc 72 4c 3e
       0.0010673334 0.19091298 -0.0019405697 0.19965738
000220 90 32 03 3f 71 f5 0b 3f 82 68 40 3e 88 c5 f5 3e
       0.5124903 0.5467139 0.18789867 0.48002267
000230 35 31 9e bd 6b 0a e8 3e 2c c6 9f 3d 19 b1 24 bc
       -0.07724229 0.45320448 0.0780147 -0.010051989
000240 56 3d 30 3e 1b 03 4a 3e db ee a0 3f 46 03 29 3b
       0.17210898 0.19727747 1.2572893 0.0025789305
000250 b5 22 48 3e 29 4e 5e be fe 21 cf 3b 9e 95 a0 3b
       0.1954449 -0.21709503 0.006321191 0.0049006483
000260 65 07 12 3f b8 00 f4 3c f3 e7 52 3e 40 e1 cb 3f
       0.57042533 0.029785499 0.20596294 1.5928116
000270 79 2a 0c 3f b7 f3 34 3f 14 2e 7b 3c e1 2b 7c ba
       0.5475231 0.7068438 0.01533081 -0.00096195756
000280 dc 18 9a 3d c5 40 c9 3c 32 5d 23 3a cc 0e 27 3e
       0.07524273 0.024567017 0.0006231844 0.16314238
000290 d5 77 19 3c ca 8e f5 ba 93 d8 ed 3d 0f d2 63 3b
       0.009366949 -0.0018734571 0.11613574 0.0034762656
0002a0 4b a3 5f bd af b0 65 3f e4 07 c8 3e 29 bc fa 3e
       -0.054599088 0.8972272 0.3906852 0.4897168
0002b0 61 15 b8 3e ef 0a 3a 3a 88 e1 01 3f e4 6d 15 bd
       0.3595381 0.0007096966 0.5073476 -0.036481753
0002c0 b2 d7 89 3e 8d 51 ad 3b 15 99 61 3e b8 c1 8e 3e
       0.26922375 0.0052892626 0.22031052 0.2788217
0002d0 4e 0b 33 3e fc 1a b2 3b 1b 30 5f 3d f3 9d a1 3e
       0.17484781 0.0054353457 0.054489236 0.31565818
0002e0 e6 02 b1 3b ac 64 12 3e 70 af 1b 3e a9 ff e6 bc
       0.005401957 0.14296216 0.15203643 -0.02819808
0002f0 b4 e0 76 3b 7c 32 91 b9 4c cf 86 bb 41 fe 42 3e
       0.0037670555 -0.0002769417 -0.004114067 0.19042303
000300 54 1a 85 3e 16 25 4e 3d ea 39 dd 3b f9 63 8f 3e
       0.2599665 0.050328337 0.0067512887 0.2800596
000310 04 ae 13 bb ba a2 07 3e e3 3d 7e 3e 01 00 84 3e
       -0.0022534141 0.13245669 0.24828295 0.25781253
000320 cf d2 06 3e 39 67 ed 3e 2c 7f d9 3e 3c 51 b4 3d
       0.13166355 0.46367815 0.42479837 0.08804557
000330 27 7e 6e 3a a4 10 85 3c a5 a7 58 3e a3 84 8b 3f
       0.00090977777 0.016243286 0.21157701 1.0899853
000340 7d 82 b4 be 4a 18 20 bc 61 44 32 3e 88 96 ab bd
       -0.35255805 -0.009771416 0.17408897 -0.08378321
000350 7d 8f 3a 3a 4a 72 0a bc cc 6c a5 3d bf cd ed bb
       0.00071167183 -0.0084501 0.08077392 -0.007257193
000360 a6 d2 b2 3e cb 5c 9e 3e ff c2 4b 3e f2 14 ab 3e
       0.34926337 0.3093017 0.19898604 0.33414418
000370 e0 eb e9 3e d8 4e 1d bc 43 f4 a8 b9 c1 a8 16 3e
       0.4568777 -0.009601317 -0.00032225446 0.14712812
000380 c3 80 12 bc a1 e5 c2 3b 4a 40 75 3e 09 42 03 bb
       -0.008941832 0.005947784 0.23950306 -0.0020028374
000390 b6 4e 39 bc 70 3b 89 ba 49 8e 29 3f 3d 8c eb 3a
       -0.01131027 -0.0010469984 0.66232735 0.0017970871
0003a0 6a e4 89 3f 2a 06 55 3e 2c bf 6f 3f 74 95 ba 3d
       1.0772831 0.20803133 0.9365108 0.09110537
0003b0 59 72 0f 3e 3c 35 59 3c 5d 99 5b 3c 7e a8 a1 3f
       0.14008464 0.013257321 0.013403264 1.2629545
0003c0 3f 62 a5 3d 28 68 ca 3d f1 2b f2 bb 33 83 9d 3e
       0.080753796 0.098831475 -0.007390492 0.3076416
0003d0 4e 56 a4 3e 3c 73 78 3e cb f7 fe 3d 80 6b 86 3d
       0.32097095 0.24262708 0.124496065 0.06563473
0003e0 5b 50 e4 3e fb 01 1e 3f b2 a2 95 bb c3 01 2c 3e
       0.44592556 0.6172177 -0.004566514 0.16797547
0003f0 c7 ef 14 3e 4f e1 3f 3c f2 d1 7f 3e 88 93 b2 3e
       0.14544593 0.011711433 0.24982432 0.34878182

state_fs.2.bias f4 [472]
000000 3e 1b cf 3b a9 3e a1 bc 33 e6 fc 3b 78 48 89 3d
       0.006320386 -0.019683199 0.0077178716 0.067032754
000010 14 37 61 3e cd 9b dd 3d 73 f4 8b bb 46 5e 99 3d
       0.21993667 0.10820732 -0.004271084 0.07488684
000020 79 4c 13 3b 8d 06 c3 3d 52 99 ad 3c 47 cc 3e 3e
       0.0022476001 0.09522734 0.021191273 0.18632613
000030 35 e2 27 3b 3d b0 6e 3b b9 40 2f 3b 87 b3 00 3e
       0.0025617008 0.0036420964 0.0026741459 0.12568484
000040 63 fc 9b 3d b6 07 3f 3b d7 59 1e ba ef ee 41 3c
       0.07616498 0.0029148883 -0.0006040609 0.011836751
000050 54 b6 9d ba 09 7c c4 3a bc de 1e 3b e2 29 b1 3d
       -0.0012032487 0.0014990579 0.0024241647 0.08650567
000060 cf 14 0c 3d 35 27 81 ba 87 3a 15 3a 20 f6 38 3d
       0.034199532 -0.0009853604 0.000569262 0.045156598
000070 d1 ff 03 bb d1 37 db 3a ab 00 23 be d0 e3 81 bd
       -0.0020141492 0.0016725009 -0.15918224 -0.0634228
000080 11 74 ff 3c 2a b8 7e 3e 08 de df 3c ff 4f 1e 3e
       0.031183274 0.2487494 0.027327552 0.15460204
000090 eb ab 3c bc 2c 99 bf bb 41 d8 29 3c e8 7d 7b bc
       -0.011515598 -0.005847117 0.0103665 -0.015349843
0000a0 98 c7 b9 3d 0e 44 4d bc f6 4e 9d 3e a5 d1 35 3e
       0.090712726 -0.0125284325 0.30724305 0.17755754
0000b0 af 85 5c 3d 7f b6 ad 3c 06 02 ae bc a6 fa 43 3e
       0.053838428 0.021205185 -0.0212412 0.19138584
0000c0 e1 8b 51 3c 1f f1 78 bc 2d 60 99 3e 05 6f f2 3b
       0.012789697 -0.0151942065 0.2995619 0.0073984885
0000d0 43 28 ee 3a 1e 09 65 ba a1 ec ac bd 4d 0e c4 3e
       0.0018169958 -0.00087370153 -0.08443571 0.3829216
0000e0 79 ee 9e 3b 84 e5 a0 3d 6c a7 36 3a b9 7a a4 3d
       0.0048502055 0.07856277 0.0006967697 0.0803122
0000f0 8f c8 82 3d 5a d7 39 3d 71 cd 13 3e 6c d1 13 bb
       0.0638591 0.04537139 0.14433838 -0.0022555245
000100 27 15 b4 3b 68 ff 6c bc 8b 77 8e 3d af fe 0d be
       0.0054956856 -0.0144651905 0.06956395 -0.13866685
000110 e6 f8 14 3d f2 7f 03 3f 7e 83 b6 b9 12 57 35 3c
       0.03637018 0.51367104 -0.00034811714 0.011068122
000120 ca e0 00 bd 04 43 a7 3e 6a 82 2a 3c 31 ab 89 3e
       -0.031464376 0.32668316 0.01040707 0.2688842
000130 ef 5f aa 3d a7 de a4 ba 19 15 e6 3c e7 dc 0a ba
       0.08319079 -0.0012578563 0.028086232 -0.0005297199
000140 4f 47 83 bc 38 05 6e bb 11 5e 0c 3b 2d ef a8 3d
       -0.016025214 -0.0036319029 0.0021418373 0.08248744
000150 9e 95 c2 3d 84 5f 50 3e 4f 9c 03 3d 4c ee 2c 3d
       0.095011935 0.20348936 0.03213149 0.042219445
000160 67 e2 9c 3b 47 10 cb 3c 94 71 1e bd 0b bd 00 3e
       0.0047877315 0.024788035 -0.038682535 0.12572114
000170 31 71 47 3c 12 5a 2b 3a 01 8c 19 b9 8a 14 8d 3d
       0.012172983 0.0006536554 -0.00014643373 0.06888683
000180 08 0a dd 3d 0c f0 38 3e 0f e1 fb 3d ae c6 12 bc
       0.10792929 0.1806032 0.12298786 -0.008958502
000190 e5 ad f4 3d c4 0e e5 3e 98 2f a1 3b 2e d6 07 bc
       0.1194723 0.44737828 0.0049190037 -0.0082908105
0001a0 f5 3f f3 bc 26 73 a0 bc 11 df 83 3c 81 57 bb bb
       -0.029693583 -0.019586157 0.016097577 -0.0057172184
0001b0 49 fb ac 3b c8 94 11 3c e3 02 1e 3c ef 62 41 3d
       0.005278979 0.00888557 0.009644243 0.04721349
0001c0 58 bf 81 bd 32 0d d3 3e cf 12 18 3c 5a 18 6f ba
       -0.06335324 0.41221005 0.009281828 -0.0009120755
0001d0 13 73 bf 3d 72 e0 a0 3b e9 fb b0 bc 6a 28 16 3e
       0.093481205 0.0049095685 -0.021604495 0.14663854
0001e0 fd cf 14 3e 3e d2 08 bc 01 23 1e 3d 76 7f 9a 3e
       0.14532466 -0.008350907 0.0386076 0.3017537
0001f0 7a 6b bc 3d 34 ae 89 bb 65 bb dd 3c d9 a5 90 3e
       0.09200187 -0.004201675 0.027066896 0.28251532
000200 ad 0a 91 3c db 08 ad 3d dc d3 66 3e a6 b1 b2 3c
       0.017705286 0.08448955 0.22541755 0.021813225
000210 5b f8 88 3a 0e aa 9e 3d af be e8 3a b7 80 83 3e
       0.0010449992 0.07747279 0.0017757023 0.2568414
000220 2d 8e b3 3e e6 1e 20 bd 98 f6 9f 3d c2 81 c8 3d
       0.3506941 -0.039091967 0.07810706 0.09790374
000230 c4 17 8b 3c 64 2f f8 3d 8c ee 9a 3b 1a a1 09 3a
       0.016979106 0.12118414 0.004728144 0.0005250141
000240 d2 e1 78 3b f4 62 8d 3c 82 fd d8 3d 20 82 14 3a
       0.0037976396 0.017259099 0.10595228 0.0005665142
000250 e4 64 ce 3d af 27 bb bc 92 1a 3d bb c0 c5 20 b9
       0.10077837 -0.022846071 -0.0028854948 -0.00015332457
000260 7a 35 47 3e 05 e9 3d bc 6b 47 1e bd 11 fe 18 3e
       0.19453993 -0.011591201 -0.03864233 0.14940669
000270 7b 84 9f be 31 54 d6 3d 3d 0e 4c 3b 6d 87 14 ba
       -0.31155762 0.10465277 0.0031136416 -0.0005665932
000280 e6 19 25 bc 87 5e 9a bc 6b c3 80 3a 89 3b 4e ba
       -0.010076975 -0.018843902 0.0009823864 -0.0007867148
000290 fb 64 b6 3b 52 6b 35 3a a5 38 57 3d 68 ec 48 3b
       0.005566237 0.0006920594 0.052544255 0.0030658487
0002a0 b9 9a d6 3a 9c ec 1a 3e 84 44 47 be ac ec 06 bd
       0.0016373015 0.15129322 -0.1945973 -0.03294055
0002b0 f9 e7 1a 3e 9a ce b6 39 0d 4e 11 3e fc 83 a4 bb
       0.15127553 0.00034867675 0.1418993 -0.0050206166
0002c0 15 7c 5f 3d f1 cd 55 3b 0b a8 c0 3c c3 02 8e 3d
       0.054561693 0.0032623971 0.02351763 0.069341205
0002d0 12 25 ad 3d dd 55 60 bb a3 7f 68 bd 0c d3 03 3e
       0.08454336 -0.0034230866 -0.05676235 0.12873477
0002e0 a3 4b 66 bb 3f 78 fd 3c 0c 5d 55 3d 3d e9 cd bb
       -0.0035140298 0.030941127 0.05209069 -0.0062839077
0002f0 e6 74 2a 3b fc e0 47 3b 43 e1 21 bb 61 40 d9 3c
       0.0026009618 0.0030499091 -0.0024700917 0.026519956
000300 b8 73 ac 3d 03 10 05 3c 57 25 71 3b f1 66 df 3c
       0.08420509 0.008121493 0.0036795938 0.027270766
000310 f2 e0 84 ba eb 39 00 bb 25 d3 b0 3d 92 38 02 3e
       -0.001013784 -0.0019565772 0.086340226 0.12716892
000320 2f 38 dc 3c 8c 47 7b 3e f0 e9 36 3e 28 d2 63 3d
       0.02688226 0.24539012 0.17862678 0.055620342
000330 ce 57 41 bb 54 71 de 3b 12 1d 9c bd e5 f7 1a 3e
       -0.0029501799 0.006788412 -0.07622732 0.15133627
000340 8d 0b 1a bd 1a eb b7 ba 8a ff 7b bb 30 ff 8a bc
       -0.037608672 -0.0014031858 -0.0038451874 -0.016967386
000350 01 c9 d3 b9 9f 43 c9 3b 42 fe 20 3d fa 29 97 bb
       -0.00040394816 0.0061420943 0.03930498 -0.0046131583
000360 a6 84 84 be 7c a3 73 3e 2a 8a 31 3d a3 75 cb 3d
       -0.25882453 0.23792833 0.043344654 0.09934547
000370 35 e0 90 3d 7b 9a e4 b9 c8 98 bb bb 80 3a 19 3d
       0.07074014 -0.00043602646 -0.005725 0.037409306
000380 98 61 b9 ba 28 b3 37 bb 2d 4a 0c 3d a4 f8 3e bb
       -0.0014143465 -0.002803037 0.034250427 -0.00291399
000390 c4 e1 f9 bb 6f c0 43 38 02 23 c7 3d 9a 11 d3 ba
       -0.0076257903 4.667084e-05 0.09723474 -0.0016103268
0003a0 38 df e3 3d ae 2a b5 bc a3 63 36 3e ef 7e f8 3c
       0.1112656 -0.022115078 0.17811446 0.030333964
0003b0 e4 de b4 bd d1 6b 9a 3b 25 42 98 3b 0f 2b 70 3e
       -0.088315755 0.0047125597 0.004646557 0.23453926
0003c0 80 01 24 bd 7b 0a 0e be 05 79 51 ba f1 2e 09 bc
       -0.040040493 -0.13871185 -0.00079907506 -0.008373008
0003d0 dc 40 85 3e 4c 71 39 3d b2 59 4e bb 36 13 52 3d
       0.26026046 0.045274064 -0.0031486568 0.051287852
0003e0 f6 12 14 3e 7a 39 72 3e 7a ca 94 3a 1c c0 aa 3d
       0.14460358 0.23654738 0.0011351847 0.08337423
0003f0 a4 ff 08 3c d6 2a 06 3c 66 ab 38 3d 32 44 0d 3d
       0.008361731 0.008188924 0.045085333 0.034488864

state_fs.2.running_mean f4 [472]
000000 80 59 13 40 f0 49 45 3f 76 73 6b 40 9f b3 2c 3f
       2.3023376 0.77065945 3.6789222 0.6746158
000010 e4 33 06 40 8d 78 58 3e 3b 52 1a 40 26 36 2d 40
       2.0969172 0.21139736 2.411269 2.70643
000020 29 ac 29 40 d5 7e 49 40 ab eb 8a 3f 09 11 21 40
       2.6511328 3.1483662 1.085317 2.5166647
000030 d6 7f f5 3f 67 85 a1 3f 11 06 a3 40 bb e7 30 40
       1.9179637 1.2618836 5.0944905 2.7641437
000040 1d db 14 3f 84 b9 76 3e e5 b0 bd 3f 12 42 a4 3f
       0.5814684 0.24094206 1.4819609 1.2832663
000050 f1 20 3b 40 e0 b7 ad 40 15 58 bd 40 00 26 ad 3f
       2.9238856 5.4286957 5.917002 1.3527222
000060 92 14 bf 40 fd e0 13 41 03 92 57 40 d0 6e 0c 3f
       5.971261 9.242429 3.3682868 0.54856586
000070 04 00 00 00 69 2e 99 40 62 af 0b 41 24 05 a4 40
       6e-45 4.7869153 8.730318 5.1256275
000080 9a 9c 1c 40 e2 23 5a 40 eb 84 94 40 e3 dc ae 3f
       2.4470582 3.40844 4.6412253 1.3661159
000090 38 6b 30 40 5c 2e 02 3f 32 6e 80 3e 21 ad 84 3f
       2.756544 0.5085199 0.25084072 1.0365335
0000a0 08 77 19 40 dd 9f 78 40 af da f0 40 61 93 93 41
       2.39789 3.8847573 7.526695 18.446962
0000b0 72 7a 0e 3f b4 75 1a 40 61 4b 8d 40 83 6d 11 40
       0.55655587 2.413434 4.4154515 2.272309
0000c0 2c 01 3e 40 39 58 61 40 44 f8 42 40 77 87 4e 40
       2.9688215 3.5210097 3.046403 3.227018
0000d0 36 6b 43 40 46 b7 ed 3e 02 48 b9 3f f5 91 08 40
       3.0534186 0.4642889 1.44751 2.1339085
0000e0 c5 d5 f3 3f 0d 5c a2 3e 5a e7 11 40 f9 a4 49 40
       1.9049612 0.31710854 2.2797456 3.1506941
0000f0 12 a6 21 3e 10 61 9b 3f 63 81 18 40 9a 81 b6 40
       0.15786007 1.2138996 2.3828971 5.7033205
000100 87 32 fa 40 bf fb af 3f c2 cd 4b 41 48 a5 09 41
       7.818668 1.3748702 12.737734 8.602852
000110 61 78 a2 40 05 5e d5 40 67 28 83 40 ec 29 7c 40
       5.0771947 6.667727 4.098682 3.9400587
000120 00 b3 31 3f 48 e9 e8 40 c8 fd 1a 3f 2c 0a 80 40
       0.6941376 7.2784767 0.6054349 4.0012417
000130 50 df 90 3e 07 69 e1 40 9f 33 bb 40 41 4e 23 40
       0.28295374 7.0440707 5.8500514 2.5516512
000140 50 17 80 3f df e7 7a 40 e1 45 36 40 32 a7 3a 3f
       1.0007114 3.9204023 2.848015 0.7291137
000150 c8 d6 bd 40 b2 71 af 40 27 fb 1f 40 77 99 0a 3d
       5.9324684 5.482629 2.4997041 0.03383776
000160 f6 dd 00 3e 66 5d 33 3f 07 01 b4 3f 2e 3a 04 3f
       0.12584671 0.7006439 1.4062814 0.51651275
000170 e4 07 22 3f 50 df a5 40 58 7c 08 40 37 0a b1 3f
       0.6329329 5.18351 2.1325893 1.3831242
000180 9a 97 ca 40 a9 fb 8c 40 d6 8a c5 40 21 5e 99 40
       6.331006 4.40572 6.1731977 4.7927403
000190 e1 8e 16 3f 9b 7c 9d 40 74 44 0d 41 a7 8c ac 3f
       0.58811766 4.9214606 8.829212 1.3480424
0001a0 ca cd 86 40 11 48 78 3f ed f4 49 3e b4 ba 93 40
       4.2126207 0.96984965 0.19722338 4.616541
0001b0 7d 8e c2 3e d9 83 3c 3c 9c 36 60 40 3d fd ef 3e
       0.37999335 0.011506044 3.503333 0.46872893
0001c0 2b 49 db 40 50 59 29 40 44 7e 18 41 5e 53 ac 40
       6.8526816 2.6460762 9.530827 5.3851767
0001d0 03 a6 cb 3f 15 02 a1 40 2f f6 59 3e 1d a2 30 3e
       1.5910038 5.031504 0.21285318 0.17249341
0001e0 45 6f 26 3f d5 a8 66 40 51 55 28 3f df 02 d6 3e
       0.65013534 3.6040547 0.6575518 0.41799065
0001f0 68 c8 34 3e 80 41 9d 40 de ed de 3e 14 35 16 40
       0.17654574 4.9142456 0.43540853 2.3469896
000200 2c 0b 61 40 16 88 c8 3e 48 6e fb 3f 10 d3 cb 3e
       3.5163069 0.39166325 1.964303 0.39809465
000210 9a d9 1d 40 9e 75 53 3a c2 58 29 41 a7 27 66 40
       2.4664063 0.00080665376 10.584169 3.5961702
000220 f5 1c 96 40 3b 7f 08 3f b3 23 6a 3f ca 10 08 41
       4.691035 0.5331914 0.9146072 8.504099
000230 09 aa b3 40 b8 bb 5c 3f 9d d0 87 40 54 75 15 40
       5.6145062 0.86223936 4.2442155 2.3352861
000240 a1 f5 e3 3e ef e6 31 3f f5 41 b9 40 40 13 b6 40
       0.44523337 0.69493 5.7893014 5.68985
000250 9f c7 a1 40 93 1a 7a 3e 78 2f 96 40 4e 7a 7a 40
       5.055618 0.244242 4.6932945 3.913715
000260 bc e5 0f 40 b1 e9 86 3f 3e 72 d4 3f 73 ec 17 41
       2.2483969 1.0540067 1.6597364 9.495227
000270 c7 a2 1a 41 ff 1f 55 3f a8 60 fe 3f 35 5d 99 40
       9.664741 0.8325195 1.9873247 4.792628
000280 1d 53 20 40 72 5f b3 3f d8 16 06 41 e0 77 8f 3e
       2.5050728 1.4013503 8.380577 0.28021145
000290 5a 4b 67 40 14 fb a5 40 17 3c 89 3e 44 2d c0 40
       3.613974 5.186899 0.26803657 6.0055256
0002a0 74 ff de 3f 3c 49 af 3e ae ee 4c 40 a5 44 dd 3f
       1.7421708 0.3423556 3.2020679 1.7286574
0002b0 db c1 20 3e 6f a1 01 41 6e a5 f8 40 8d 64 4a 40
       0.1569895 8.1019125 7.770194 3.1623871
0002c0 f2 0d 7c 3e 3e 36 a9 40 48 f1 16 40 f7 d6 8f 3f
       0.24614695 5.2878714 2.3584766 1.1237477
0002d0 e1 f8 e5 3e ac 40 01 40 77 81 7b 40 e0 a4 21 41
       0.44916442 2.0195723 3.929777 10.102753
0002e0 4d ea 13 40 c4 b1 fc 3e 9d 5c 83 3f b7 1b 98 3f
       2.3111756 0.49354374 1.0262638 1.1883458
0002f0 4e c5 98 40 6c 74 5d 41 f1 0d ba 3f 73 0a 8f 3f
       4.774085 13.840923 1.4535505 1.1175064
000300 41 ed 1a 3f 0a 30 c3 3e 4a 7c 48 40 7d 11 3a 3f
       0.6051827 0.38122588 3.132586 0.72682935
000310 01 3b 63 40 a2 13 20 40 b2 fa 9a 3f 28 95 c4 3f
       3.5504763 2.5011983 1.2107756 1.5358019
000320 72 e9 bb 3d 49 52 4e 40 78 8b fd 3f 4b e8 b1 3f
       0.091753855 3.2237723 1.9808187 1.3899015
000330 e5 19 b2 40 9e 4b 07 41 b1 1d c6 40 bf de 0e 40
       5.565661 8.455961 6.1911244 2.2323453
000340 ce 57 79 3f e5 10 12 41 74 b0 e0 3e 72 54 fb 3f
       0.97399604 9.129125 0.43884623 1.9635146
000350 47 49 bb 40 cd 54 0f 3f 4e fd a7 40 ec e9 0d 41
       5.852695 0.5598877 5.249671 8.86961
000360 cd dd ac 40 8c 48 a2 40 50 57 0f 3e 7a 37 fa 3e
       5.4020753 5.071356 0.13998151 0.4887045
000370 47 57 ab 3e 0d 83 e0 3f b4 cd b5 40 b7 fb ed 3e
       0.33465025 1.7539994 5.6813602 0.46481106
000380 68 10 21 40 76 92 8a 40 0e 34 1f 3f 7d 37 88 3f
       2.5166264 4.3303785 0.62188804 1.0641934
000390 f3 9d 34 41 34 3f 93 3f 45 fc 0b 40 12 9d 91 40
       11.288562 1.1503663 2.1872723 4.5504236
0003a0 d3 62 8d 41 ab b3 7d 3e 52 fb 8f 3e 76 55 1d 3f
       17.673254 0.24775569 0.2812143 0.6145853
0003b0 4b a0 c8 3f 04 f1 2c 40 d5 b2 50 40 c6 70 9b 3f
       1.5673918 2.7022104 3.260915 1.2143791
0003c0 a7 79 6d 3e 14 8a 16 41 ac 4d 87 40 72 bc e5 3f
       0.23190938 9.4087105 4.2282314 1.7948134
0003d0 92 a3 82 3f 2d 50 f3 3f 47 14 ed 3f b4 37 e7 40
       1.0206168 1.9008843 1.8521813 7.2255497
0003e0 3c 92 93 3e c3 48 ce 3f a6 53 26 41 d5 cf 83 3e
       0.28822505 1.6115955 10.395422 0.257445
0003f0 ad bd d7 37 50 11 c7 3f cf d9 75 3f 4f 75 85 3f
       2.5718322e-05 1.5552158 0.96035475 1.0426425

state_fs.2.running_var f4 [472]
000000 b2 9c e3 41 13 45 df 40 c1 43 42 42 97 2c 74 40
       28.451511 6.977182 48.566166 3.8152215
000010 c7 a5 67 40 dc 44 5e 3f d3 b8 c2 41 db 7f d8 41
       3.6194932 0.8682382 24.340246 27.06243
000020 94 31 33 42 2e 9f 05 41 d3 ec 1f 41 07 99 29 41
       44.798416 8.351362 9.995318 10.59986
000030 2d c9 ca 41 28 36 51 41 ba 9a 11 42 9a c6 c7 41
       25.34823 13.075722 36.4011 24.971973
000040 00 e6 45 40 7d d7 40 3f 11 5c ef 40 7a 2e e0 40
       3.092163 0.7532881 7.4799886 7.0056734
000050 40 33 0d 42 1c ae 7c 42 fa 08 8e 42 e4 82 fd 40
       35.30005 63.17003 71.01753 7.922228
000060 cb 0d 08 41 59 8a d2 42 d6 f3 51 42 d6 03 29 40
       8.503367 105.27021 52.48812 2.6408591
000070 04 00 00 00 f2 c1 4d 42 f1 53 33 42 be 0d bb 41
       6e-45 51.4394 44.831974 23.38171
000080 0f 8f 10 42 0b 50 cb 41 54 05 67 42 33 4e 39 41
       36.139706 25.414083 57.755203 11.581592
000090 c4 73 06 42 4b 4f 7f 40 02 e7 e7 3f ec 52 46 41
       33.613052 3.9892147 1.8117373 12.395245
0000a0 da 01 18 42 08 c3 09 42 f2 c5 c3 42 7d 09 18 44
       38.00181 34.44046 97.88661 608.14825
0000b0 26 c9 23 40 85 a5 e3 41 51 0b 6c 42 53 5f 0c 40
       2.5591521 28.45582 59.01105 2.1933181
0000c0 93 bd 0c 42 94 eb 61 42 40 3d 65 41 10 8c c7 41
       35.18513 56.480057 14.327454 24.94339
0000d0 3c 2b 38 42 be ad ec 3f 9a f0 3f 40 4a f6 0b 41
       46.04222 1.8490522 2.9990602 8.747629
0000e0 49 44 bf 41 e5 92 20 40 c0 c8 e6 41 10 e8 80 41
       23.908342 2.5089657 28.848022 16.113312
0000f0 3c 3a 3b 3f 57 cb 41 41 98 46 98 41 ee 48 1e 42
       0.73135734 12.1121435 19.03447 39.57122
000100 61 62 9b 42 62 7b 43 41 e0 5e 82 43 68 fe 16 43
       77.69215 12.217623 260.7412 150.99377
000110 3b c4 6a 42 88 02 66 42 66 9a 25 42 68 e7 3e 42
       58.69163 57.502472 41.40078 47.725983
000120 6a f7 c4 40 59 c3 be 42 75 de b6 40 da da e8 41
       6.155202 95.38154 5.7146554 29.106861
000130 85 b2 a8 3f d0 c5 8c 42 98 9a 2b 42 43 fb fe 41
       1.317948 70.38635 42.90097 31.872686
000140 ed d3 11 41 5c 70 46 42 7e e2 b6 41 ac fc 2a 40
       9.11424 49.609726 22.860592 2.6716719
000150 35 10 37 42 88 22 1b 42 49 03 1e 42 09 17 e8 3d
       45.765827 38.783722 39.50321 0.113325186
000160 39 8c 20 3f 33 06 ae 40 ad 87 e7 40 6f 2c 4e 40
       0.6271396 5.4382567 7.235312 3.221462
000170 1d fa ad 40 62 1c aa 42 2b 14 86 41 7b 34 e5 40
       5.4367814 85.055435 16.759848 7.1626563
000180 a5 a0 a2 42 15 9e 0f 42 64 64 25 42 e3 a3 4b 42
       81.31376 35.904377 41.348038 50.910046
000190 79 d4 56 40 70 88 19 42 4a b5 a2 42 48 9b 6d 41
       3.3567183 38.38324 81.35408 14.85041
0001a0 aa 74 d5 41 f7 cf bb 40 8a 6d 2a 3f ac f3 07 42
       26.681965 5.8691363 0.66573393 33.98796
0001b0 78 76 15 40 06 c0 01 3d 4f 69 3b 42 03 c7 31 40
       2.3353558 0.03167727 46.85284 2.7777717
0001c0 dd 3a 90 42 a8 74 96 41 e2 5f b8 42 05 6d 60 42
       72.11497 18.806961 92.18727 56.106464
0001d0 6a d2 59 41 a8 ac 56 42 4d 71 18 3f 88 5c f3 3e
       13.613871 53.66861 0.59547883 0.47531533
0001e0 6a f4 4f 40 25 87 51 42 4f c2 9e 40 f9 9f ad 3f
       3.2492929 52.381977 4.9612193 1.3564445
0001f0 e0 6c 02 3f 26 10 94 42 ce 20 5f 40 8a 10 f6 3f
       0.5094738 74.03154 3.4863772 1.9223797
000200 56 56 61 42 61 3a fe 3f 84 a3 81 41 aa 52 50 40
       56.334312 1.9861566 16.204842 3.2550454
000210 cd 8d 02 42 eb fb a1 39 07 53 b0 42 3c 2f 34 42
       32.638477 0.00030896007 88.16216 45.046127
000220 01 80 f0 41 46 21 22 40 94 bc ff 40 16 a7 cd 42
       30.062502 2.5332808 7.99177 102.82634
000230 dd fb c0 42 48 ee a6 40 fb 5f 15 42 20 59 0b 42
       96.49192 5.216587 37.34373 34.837036
000240 5d d4 2c 40 d9 8b 25 40 1e a5 fd 41 ff 2b 71 42
       2.7004616 2.5866606 31.705624 60.292965
000250 a0 93 1d 42 52 06 61 3f a3 00 80 42 4d 9d 53 42
       39.394165 0.8790027 64.00124 52.903614
000260 23 9c b3 41 72 76 59 41 b2 25 1b 41 44 ef 25 43
       22.451239 13.591417 9.696703 165.93463
000270 7f 3b 30 42 4c ea 89 40 c1 bf 09 41 3a 5e 1f 42
       44.0581 4.3098507 8.609315 39.84202
000280 16 9f 1b 42 08 91 5a 41 1a 06 8b 42 22 df b6 3f
       38.905357 13.660408 69.51192 1.4286845
000290 61 62 2e 42 63 71 86 42 31 07 cb 3f 2f bc 39 42
       43.596073 67.22146 1.586157 46.433773
0002a0 f2 35 bc 41 59 bd 7d 3f 51 d7 d2 41 de 5c 21 41
       23.52634 0.99117047 26.355135 10.085173
0002b0 14 29 06 3f 5f de 8c 42 81 f8 c9 42 36 fe f1 41
       0.5240643 70.43432 100.98536 30.249126
0002c0 94 dd e5 3f 35 8c e6 41 50 e8 bb 41 b3 12 9b 40
       1.7958245 28.81846 23.488434 4.8460326
0002d0 e8 3d 8e 40 49 06 af 41 18 4e 9d 42 3b 2e 25 43
       4.445057 21.878069 78.65253 165.18059
0002e0 47 5d de 41 fe cf 64 40 3a fc 95 40 39 36 6f 41
       27.795546 3.5751948 4.6870394 14.950738
0002f0 51 f6 3b 42 e0 b2 a7 43 7c 2b a5 41 ad dc ff 40
       46.990543 335.39746 20.646233 7.995688
000300 93 58 3f 40 e8 ca fd 3f 67 fd 13 42 d8 82 49 40
       2.9897811 1.9827547 36.997463 3.148611
000310 e3 12 47 42 11 61 a2 41 fe 4d 17 41 26 b6 4e 41
       49.768444 20.297396 9.456541 12.91947
000320 4f 2f c1 3e 4f a0 0b 41 f8 b7 f5 40 5e ea 36 41
       0.37731406 8.726638 7.678707 11.432219
000330 42 ca 2d 42 0b 71 a0 42 53 9b b3 41 aa 01 65 41
       43.447517 80.22079 22.450842 14.312906
000340 65 5d f6 40 60 7d 9c 42 38 64 2f 40 a0 29 e1 41
       7.6989007 78.24487 2.7404919 28.145325
000350 c9 87 64 42 33 eb 23 40 8a d3 37 42 8a 94 b2 42
       57.132603 2.5612304 45.95658 89.290115
000360 8e 3b 80 42 91 00 8a 42 64 43 34 3f 57 87 2b 40
       64.11632 69.00111 0.7041533 2.6801355
000370 a3 3e 96 3f 1b 2e cd 41 0e 1c 69 42 35 64 0d 40
       1.1737865 25.647512 58.277397 2.2092412
000380 19 71 de 41 34 96 76 42 6e 4b 91 40 c2 d1 ec 40
       27.805223 61.646683 4.5404577 7.400605
000390 7d 2e ff 42 66 16 0f 41 ee f3 f6 40 a9 d8 92 42
       127.5908 8.942968 7.7172766 73.423164
0003a0 eb b2 05 44 6c f2 b1 3f 98 d6 97 3f 86 66 cb 40
       534.7956 1.3902106 1.1862364 6.356265
0003b0 66 97 37 41 2c f7 25 42 9e 78 23 42 a1 ca fe 3f
       11.4744625 41.49138 40.86779 1.9905587
0003c0 37 7e ee 3f 72 e3 9c 42 c1 01 21 42 21 5b 54 40
       1.8632268 78.44423 40.251713 3.318062
0003d0 4a f7 5e 40 da 7a 6d 41 2c 46 7c 41 ae 3e b4 42
       3.4838433 14.842493 15.767132 90.12242
0003e0 31 33 cf 3f d4 29 3a 41 9f 41 d6 42 34 3a 69 3f
       1.6187497 11.635212 107.12817 0.91104436
0003f0 68 4b 82 38 b7 c1 51 41 3a 28 0c 41 a8 98 f9 40
       6.2129286e-05 13.109794 8.759821 7.799885

act_fs.0.weight f4 [40, 2]
000000 5f 54 ac 3e 86 ec ca 3e 23 d6 60 3e e5 57 5b be
       0.3365812 0.39633578 0.21956687 -0.21420248
000010 31 27 f1 be bd 29 80 3d 61 ed 07 be e9 c6 1b 3e
       -0.47100213 0.06257961 -0.13274147 0.15212597
000020 17 8c e7 be ca d5 92 3e 66 98 ae 3e 08 29 1a 3d
       -0.45224068 0.28678733 0.34100646 0.037636787
000030 14 5a 1b 3f 38 62 c6 bd 54 8a 33 be 01 d1 98 bb
       0.60684323 -0.096867025 -0.17533237 -0.004663587
000040 51 08 96 bd c3 5e 95 3d 4f de e6 3d fe 3d 42 3e
       -0.07325805 0.07293465 0.11272871 0.1896896
000050 d6 9e 0c 3e 30 1f b6 bd e6 0e f6 bd c8 03 93 3e
       0.13732466 -0.08892667 -0.120145604 0.28713822
000060 79 dc 49 3b 0b b7 32 bc 49 f4 e3 3c ff a3 91 bc
       0.0030801578 -0.010907899 0.027826445 -0.017778395
000070 37 9b a8 3d 23 b8 68 3e f6 a9 9e 3d bf ff d3 3e
       0.0823273 0.22726493 0.07747261 0.41406056
000080 d7 6c d0 3c 2f 6e 96 3e 8a 8d 93 3d 4a 48 fb 3c
       0.025442524 0.29380938 0.07204731 0.030674119
000090 2d a0 98 3e d1 d4 cc 3e db 86 40 be 56 58 8c be
       0.29809704 0.40006116 -0.18801443 -0.27411145
0000a0 83 f6 36 bd 93 24 36 3d 16 e1 68 3e c9 4e 8e 3e
       -0.044668686 0.044468474 0.22742113 0.27794483
0000b0 b9 32 74 3e 0b f5 c7 bd 6b b6 a7 bd ae 67 81 3d
       0.23847474 -0.09763535 -0.0818909 0.063186035
0000c0 fd 6b 2f be 46 20 56 be 06 ed 1e 3e d7 0b 5b 3e
       -0.17131038 -0.20910749 0.15520105 0.21391235
0000d0 2e 9e 17 be b4 db 31 3e b2 07 53 3b d5 b0 15 bc
       -0.14806435 0.17368966 0.0032200632 -0.009136398
0000e0 90 a3 03 3f dc 0c b6 be af 77 90 3e 30 68 a5 bd
       0.5142145 -0.35556686 0.2821631 -0.08076513
0000f0 12 f1 e6 ba 1b 44 f9 39 2d aa 05 3f b9 fc 33 be
       -0.0017619452 0.00047543723 0.5221279 -0.17576875
000100 8b 29 0c 3f de 4e 58 3e 32 62 c0 3e c4 ba 5b be
       0.5475089 0.21123835 0.37574917 -0.21457964
000110 e8 3b 60 bc 5d 13 dc bb 02 62 83 be e6 c0 8f be
       -0.013686158 -0.0067161755 -0.25660712 -0.28076857
000120 fb 84 fa 3c 9b ef a1 3c a1 cc e1 3e 75 65 36 bd
       0.030580988 0.019767573 0.44101432 -0.04453035
000130 6c 26 ed 3c 1f c0 38 bd 36 16 48 3e e0 7f 3a 3c
       0.028948985 -0.045105096 0.19539723 0.011383027

act_fs.0.bias f4 [40]
000000 a5 a5 8e 3e 1d e6 3f be 76 91 45 3f 4f df b2 3e
       0.27860752 -0.18740125 0.7717508 0.34935996
000010 74 66 10 bf 86 73 33 3f 10 2a 6d bf a2 ce 62 3e
       -0.5640633 0.7009815 -0.9264231 0.22149137
000020 31 68 80 3c c0 12 db 3e 80 40 0a bf 7f ed 25 3f
       0.015674682 0.42787743 -0.5400467 0.64815515
000030 51 ea ea ba a5 55 2b bd 61 61 7c be c7 b6 0e bf
       -0.0017922615 -0.041829724 -0.24646522 -0.55747646
000040 57 47 9c be fa 01 6b 3f 7c 24 8a bf 09 06 c9 3e
       -0.30523178 0.9179989 -1.0792384 0.39262417
000050 d9 6a 05 bf aa e1 14 bf 1e 20 e4 be d7 f7 fb 3d
       -0.5211616 -0.58156836 -0.44555753 0.12303131
000060 36 61 15 bd ea 6d 1d 3e d1 8c 14 bf 86 59 95 ba
       -0.03646966 0.1537396 -0.5802737 -0.0011394478
000070 07 88 59 3f 02 a4 d9 3e 42 81 d1 bb 7d 50 ef be
       0.84973186 0.4250794 -0.0063935826 -0.46741095
000080 56 ae 4a 3f e4 95 4b 3f c0 a5 83 bb 3b b5 06 3f
       0.79172266 0.7952559 -0.0040175617 0.52620286
000090 cc 1f 19 bf 18 5b 03 bf 58 26 4c bf 49 7c 93 be
       -0.59814143 -0.51310873 -0.7974601 -0.2880576
